onnx_inference/data/model.onnx (onnx, 189915 bytes, 8 tensors)

0.weight f4 [128, 98]
000000 fa a9 a6 3d 86 8e 83 bf 95 ed ff bd 7f 02 59 3e
       0.08137889 -1.027787 -0.12496487 0.21192358
000010 80 28 70 bf b2 26 7b be fe aa 24 bd 4b 28 35 3e
       -0.938118 -0.2452648 -0.040202133 0.17691152
000020 5c 93 ba 3e 4c b9 77 3e 2f 9f ff 3d 55 a3 3e 3f
       0.3644055 0.24191779 0.12481534 0.74467975
000030 bb db 29 3e c1 f9 47 3e 3c 53 e0 be 21 99 8a 3d
       0.16587727 0.19528867 -0.43813503 0.06767488
000040 8f 63 b3 3d 5f c0 94 bf 23 af 27 3f 22 de 90 3e
       0.08759224 -1.1621207 0.6550161 0.28294474
000050 b8 81 88 be 84 31 30 be 07 26 84 be 53 1e b8 3e
       -0.26661468 -0.17206389 -0.25810263 0.35960636
000060 d0 7c 8d 3e db 92 94 be a3 6e 49 3e 1a ff 6a bd
       0.27634287 -0.29018292 0.19671111 -0.05737219
000070 89 b1 12 3e 09 8e 24 3f f4 4a 4b 3f af e5 bb 3e
       0.14325537 0.6427923 0.79411244 0.36698672
000080 a8 81 08 bf 11 8a 0c bf 38 94 b4 be 8f eb a4 3e
       -0.5332284 -0.5489817 -0.35269332 0.32210967
000090 c8 bc fb 3e 59 6b 20 bf a3 ac 91 3e 53 45 2e 3c
       0.49167466 -0.626638 0.28452024 0.010636645
0000a0 9a e4 35 be 36 51 71 3f 45 48 21 bc 4c 9d 63 bc
       -0.17762986 0.94264543 -0.009843891 -0.013892483
0000b0 dd e6 0d bc 26 c9 29 3d 55 b5 14 3c 1f ab dc 3c
       -0.008660999 0.041451596 0.009076436 0.026937066
0000c0 88 4e 05 bd 1e 1f 80 bc 1e f3 54 bc a4 a1 10 bd
       -0.032545596 -0.015639838 -0.012997417 -0.035310403
0000d0 7c 4d bc bb 97 bb 90 3d 79 12 09 3e 2d 2c b0 bb
       -0.0057465415 0.0706703 0.13385953 -0.00537636
0000e0 bc bf b0 3d 0a f4 27 bd 3e a3 a0 bb a8 cc 9c 3c
       0.086303204 -0.04100422 -0.0049022725 0.019140556
0000f0 46 b3 61 3d 3c ca 55 bc e8 2e 8f bd 90 68 09 bd
       0.05510261 -0.013048705 -0.069913685 -0.033546984
000100 b5 95 02 3c 57 42 b8 bc 9c 3e 0e be a1 9a 1c 3d
       0.007970263 -0.02249257 -0.13891071 0.038233403
000110 3f 86 33 3b e4 ef 6c 3d 93 85 d5 bc 90 00 c1 bd
       0.002739325 0.057845965 -0.02606467 -0.094239354
000120 50 72 df bd 8d 4d 70 3d d6 ad 02 bd f3 68 a2 3d
       -0.10910475 0.05866771 -0.031904064 0.07930174
000130 b8 d3 2a bc 3a ea ff bc 3c 57 2b 3d 0c 5e b2 3d
       -0.010426454 -0.031239618 0.04183124 0.08709344
000140 2a 1e c0 3d 9d d7 f1 3d da 05 03 3d 39 be c5 bc
       0.09380753 0.11808703 0.031988002 -0.024138557
000150 4a 0a c6 be ec a7 0b 3e cf 93 1e be 96 95 04 3e
       -0.38679725 0.13638276 -0.15486072 0.12947688
000160 8b 8d 04 3e df a8 5b 3e cd 23 ef 3d 23 1f 3a 3e
       0.1294462 0.21451138 0.1167675 0.1817594
000170 a8 87 b9 bd 13 19 b6 bd 37 94 f5 3d dc a5 64 3e
       -0.090590775 -0.08891501 0.1199116 0.22328895
000180 28 d4 25 3e c2 eb ea bd ab 0a ab bd 73 df e4 3e
       0.16194212 -0.114707485 -0.08351644 0.44701728
000190 12 8d 10 be 2c 02 c8 bd 61 9b e7 3d be 79 0f be
       -0.14116314 -0.09766039 0.11308933 -0.14011285
0001a0 0a 84 ad 3c 86 4c 1d 3e bc d3 8e bd bc ec 29 3d
       0.021181125 0.15361223 -0.06973979 0.041485533
0001b0 df 9e 81 be d6 57 4e be c9 b7 18 be 29 db 65 be
       -0.25316522 -0.20150694 -0.14913858 -0.22446884
0001c0 d5 da 01 3f c7 1d 2e be cd 76 b4 be 57 d2 fa 3e
       0.50724536 -0.17003547 -0.35246888 0.48988602
0001d0 80 fb 0f 3f 91 31 30 3e 77 d8 e8 3a 7f e6 10 bf
       0.56243134 0.17206408 0.0017764707 -0.5660171
0001e0 23 4a 78 be 7a 5b 85 bc 55 98 2f bf 8f e2 9e be
       -0.24247031 -0.016278971 -0.68591815 -0.31032225
0001f0 87 ed ff bb 27 72 32 3e 6a 8e 42 3d f1 04 b3 bd
       -0.007810298 0.17426358 0.047499098 -0.08741177
000200 04 d0 2f 3f 2f ca 0b 3d 69 91 1d 3e 0a 5b 37 bf
       0.6867678 0.034128364 0.15387501 -0.7162329
000210 7e 9d 95 be f5 4c 0e 3d 95 ff 1b bf d6 1b 3c be
       -0.2922172 0.03474136 -0.6093686 -0.18369994
000220 fc 88 f6 bd 56 e6 5f 3e 57 31 57 3e 18 47 af bc
       -0.120378464 0.2186521 0.21014915 -0.021396205
000230 37 50 a6 3d b9 05 4b bd 73 0b 10 3d 28 ab b0 bd
       0.081207685 -0.049566004 0.03516717 -0.086263955
000240 00 3b 6a 3d ff 45 64 bd 63 05 d0 bb a1 f4 e4 3c
       0.057185173 -0.055730816 -0.0063482984 0.02794868
000250 33 df 4e bd a6 41 2d 3b 1e f7 ee bc d6 32 85 bd
       -0.050505828 0.0026436835 -0.029170569 -0.06503837
000260 c6 8e c1 3c 0e 2a 66 3d 72 18 e4 3d 2c aa 59 bd
       0.02362765 0.05619245 0.11137475 -0.053140804
000270 80 ac 12 bc 57 71 f4 3d cc 4a b5 3b 77 a5 bb 3d
       -0.00895226 0.1193568 0.005532598 0.09162419
000280 9b b3 60 be 55 a7 4b bd 3c 43 cd 3c 09 f7 6f ba
       -0.21943514 -0.049720127 0.025056474 -0.00091539376
000290 32 3b bd 3d 90 3f 1b 3e 34 da 06 be 9e 46 8f 3d
       0.09239806 0.15160966 -0.13169175 0.06995891
0002a0 be 4d 54 bd 36 76 ec 3d 41 db 9a bd 9b be f8 3d
       -0.051831953 0.115459844 -0.075613506 0.1214573
0002b0 21 56 95 bd 55 f2 d3 bd 52 a7 8b bc cf c1 0e 3e
       -0.072918184 -0.103489555 -0.017047558 0.1394112
0002c0 b0 51 92 be 6f c2 6d 3c d9 d3 04 3e 26 35 50 3e
       -0.28577948 0.014511689 0.12971438 0.20332775
0002d0 71 1f 78 3e ca 4a 5f be d8 0d a3 3d 9b 61 8b be
       0.24230744 -0.21805874 0.07961625 -0.27222905
0002e0 87 6a aa 3d 30 e7 e9 be bf 19 7d bd d5 5f 48 3e
       0.083211 -0.45684195 -0.06179213 0.19567807
0002f0 ec 14 97 3d a0 69 2b bc f0 ea 8a 3d 79 91 5a 3c
       0.073770374 -0.010462195 0.06783092 0.013340347
000300 9d 62 11 bd e1 8b 8a 3d 67 a8 38 bd e8 13 51 3e
       -0.035494436 0.06764961 -0.045082476 0.2041775
000310 16 54 60 3e dc 21 92 bd c2 c6 a9 3b af 31 b6 3e
       0.21907076 -0.071353644 0.0051811645 0.3558478
000320 3f 2f a6 be 42 b8 57 bb 46 c0 4c bc a8 58 0e 3e
       -0.3245792 -0.0032916223 -0.012497013 0.13901007
000330 48 5b 06 bd 3b 19 4f 3d 71 d2 0b 3e eb 1e 28 be
       -0.032801896 0.05056117 0.13654496 -0.16418044
000340 4f 66 a2 be 61 db fa 3e f9 44 a9 3e fa 97 15 be
       -0.3171868 0.48995498 0.33060434 -0.14608756
000350 95 a2 31 3f 6b 06 f6 3e c7 b4 14 3f 05 54 6e be
       0.69388705 0.48051772 0.58088344 -0.23274238
000360 b5 d0 c0 be 34 18 41 3f 7e 1e 92 be 4a 4e 55 bf
       -0.3765923 0.75427556 -0.2853889 -0.83322585
000370 83 3d 2f bf ae f5 d2 3e 92 fb 83 be af 25 b5 3e
       -0.68453234 0.41203064 -0.2577787 0.35380313
000380 42 ad d6 bd fb b5 4a 3c 91 23 01 3f fc 45 8f be
       -0.10482265 0.012372489 0.50444895 -0.2798308
000390 4e 32 a8 be bb 0e 44 3f bc 38 89 be ca a9 28 bf
       -0.3285088 0.76584977 -0.26801097 -0.6588408
0003a0 cd ee 1b bf 44 ad fc 3e 7c c0 73 bd 00 db c8 3e
       -0.60911256 0.4935094 -0.05950974 0.39229584
0003b0 b5 3a 08 be 6d ce 81 3c 73 21 9d bd 98 ed 83 bd
       -0.13303645 0.015845502 -0.076723956 -0.06441802
0003c0 6f 58 7a 3d 6a e6 99 bd 8c 21 c3 bc 7a dc 84 bd
       0.061119493 -0.07514651 -0.023819707 -0.06487365
0003d0 6b 77 63 3d 96 81 88 bd a6 68 93 3d aa 26 05 be
       0.055533808 -0.066653416 0.071976945 -0.1300303
0003e0 5a 28 16 be d0 c9 36 bc 32 c6 00 bd 77 ec c7 3d
       -0.1466383 -0.011156514 -0.031439014 0.09761899
0003f0 cc 2c 9a bd c5 e0 b6 bd 36 66 44 bd b7 05 a7 bd
       -0.075280756 -0.0892959 -0.04794904 -0.08155387

0.bias f4 [128]
000000 33 e7 3b 3e 70 e7 42 3d 61 ab f1 3c f5 0e c6 3c
       0.18349914 0.047583997 0.029500665 0.024177054
000010 f0 48 a1 bc b3 a4 45 bd 2b 83 3c 3c bb a8 9d bd
       -0.0196881 -0.048252773 0.011505882 -0.076981984
000020 1d 6d d5 3c ff f1 15 3e 86 bb bb bd dc 36 73 ba
       0.026053006 0.14643095 -0.09166627 -0.0009277889
000030 78 30 d6 bd 72 f5 38 3e 2a 69 38 3e a1 ba 95 bd
       -0.104584634 0.1806238 0.18008867 -0.07310987
000040 3d 03 01 3d 66 bb 12 3e 5f 36 5d 3e c1 da c1 bd
       0.03149723 0.143293 0.21602772 -0.09465552
000050 5c 4b 3f be 1b 09 a7 3d 39 9a 05 be 64 ef a8 bc
       -0.18681091 0.081560336 -0.13047113 -0.020621963
000060 33 e4 03 3e 42 4e 99 3e 0a ea 3c 3d 4a 59 e0 bd
       0.1288002 0.29942518 0.046121635 -0.109545305
000070 da d0 a7 3c 5b 09 d4 3d 82 50 3a 3e f1 23 f2 bc
       0.02048533 0.10353347 0.18194774 -0.029558154
000080 e8 43 90 ba 44 71 6c 3e ce f0 11 be 81 07 e9 3b
       -0.0011006566 0.23090082 -0.14252016 0.0071114902
000090 dd b2 43 be e5 2f 91 3c 96 ab d1 3c e7 b6 f4 3d
       -0.191112 0.017723033 0.025594514 0.11948948
0000a0 6b 11 7d be fc 2d a2 3c e6 d3 5f 3e 1b d3 63 3d
       -0.24713676 0.019797318 0.21858177 0.055621248
0000b0 e5 ec c2 bd 7a 05 71 3d b3 d8 16 3e ae 2c cb bd
       -0.0951784 0.058843113 0.14731102 -0.09920631
0000c0 65 83 73 bd d1 1b c8 3d 70 1c 9f 3d c6 5e 3d be
       -0.05945148 0.097709306 0.07769096 -0.18493184
0000d0 65 d8 77 be 6b 6d 94 bb 55 e6 c2 3d f1 f6 3d bc
       -0.24203642 -0.004529645 0.095165886 -0.01159452
0000e0 e3 fa 3d 3c 03 bd cf bd 4a 67 35 be c6 ad a4 3d
       0.011595461 -0.10143473 -0.17715183 0.08040957
0000f0 87 f5 4d be 77 2d 3a be a0 94 4e 3c 0e 7d 01 3e
       -0.20113192 -0.18181406 0.012608677 0.12645361
000100 5b 72 04 be e5 28 fb 3d 8e ca 75 3d f7 83 c0 be
       -0.12934248 0.122636594 0.060007624 -0.3760068
000110 60 a0 c0 bd 33 02 e5 bd 5f c3 28 3e 1c 30 e8 bd
       -0.09405589 -0.1118206 0.16480778 -0.11337301
000120 f4 ce 5c 3b d2 b3 21 be c7 b7 a0 3c 9e 27 6d be
       0.003369269 -0.15791252 0.019618882 -0.23159644
000130 36 70 89 3e d8 c8 18 be da 4b 80 3d e2 f5 96 3d
       0.26843423 -0.14920366 0.062644675 0.07371117
000140 98 cf 94 bd c5 7e 21 be 23 d6 bb bd 6f 90 d6 bd
       -0.07266158 -0.15771015 -0.09171703 -0.10476767
000150 f1 2b 0e bb b5 f4 80 ba 5e c5 3f bd 65 b3 18 bd
       -0.0021693672 -0.0009838553 -0.046819083 -0.03728046
000160 66 2c 93 be c0 22 3e 3d 18 98 e3 bd 16 d5 e3 3d
       -0.2874481 0.04641986 -0.11112994 0.11124627
000170 cf 29 b8 bc d1 db 63 be 2b 49 2e bd 81 c3 03 3d
       -0.022480873 -0.22251822 -0.042550247 0.03216887
000180 b2 22 e2 3c 5e 41 19 3e 1e b3 aa 3c 23 87 34 3d
       0.027604435 0.14966342 0.020837363 0.04407419
000190 bd 81 84 3a 8c 45 fd bd 45 5d 5d be b4 2a 22 be
       0.0010109466 -0.12366781 -0.21617611 -0.15836602
0001a0 c1 26 56 bc 81 60 97 3d 09 1b 19 be b0 78 aa bd
       -0.013070763 0.073914535 -0.1495172 -0.083238006
0001b0 be a8 6a bd f5 d2 01 be 02 67 a2 3d 65 71 b2 bd
       -0.05728983 -0.1267813 0.079298034 -0.087130345
0001c0 72 15 45 bd 3d 7f 55 3d 7f c6 48 be 11 90 de bd
       -0.048116155 0.052123297 -0.1960697 -0.10867322
0001d0 c9 fc 91 3c 87 2a 87 bd 68 f2 41 bd f8 0f e1 3c
       0.017820733 -0.06599908 -0.047350317 0.027473435
0001e0 4a 21 4a bd d8 a0 12 3e bd aa 0c bd 1d 8c 36 3e
       -0.049348153 0.1431917 -0.034342516 0.17826886
0001f0 30 ce 79 bd 14 41 2a 3e 7d cd af 3d 5c 3d c3 bd
       -0.06098765 0.16626388 0.08584116 -0.09533188

2.weight f4 [128, 128]
000000 c7 40 6e bd d0 47 e1 3d 07 c4 a8 bc 28 06 e1 3d
       -0.058167245 0.11000025 -0.020601286 0.10987502
000010 4b 1f f2 39 21 4c c7 bc c3 0e bb 3b 7a ef 6c bd
       0.00046181152 -0.024328293 0.005708547 -0.05784557
000020 6e 86 bf 3d c6 fc 0a be 70 d8 01 bc c0 9b f4 3d
       0.09351812 -0.13572988 -0.007925138 0.119437695
000030 0e ad 4c 3e 7e a4 d6 3c 60 8e 77 3d 78 a8 08 3c
       0.1998789 0.026201483 0.060438514 0.008340947
000040 9e 42 5b 3d 13 56 0d 3c 22 4e e7 bd 84 e2 41 3e
       0.053530328 0.008626479 -0.112941995 0.18934065
000050 b2 a6 ef 3c 1a c1 71 3c 6b f9 d6 bb e3 02 48 bd
       0.029254291 0.014755512 -0.0065604947 -0.048830878
000060 bf 8b ab 3d 34 63 47 3e dc 9e 67 3d 03 3c 57 be
       0.08376264 0.19471437 0.056547984 -0.21018986
000070 6b 0a 00 3d e0 3e 45 be e7 a4 af 3d 14 3b 2c 3e
       0.031259935 -0.19262266 0.085763745 0.16819412
000080 b9 4a be 3b 8b 2c 46 3b 20 3f 7b bd 0e cf 6a 3a
       0.0058072475 0.0030238952 -0.061339498 0.0008957245
000090 8c bd 83 bd a0 0f ab bd 1f 66 bb bd 5a 3b ed bd
       -0.064326376 -0.083525896 -0.091503374 -0.11583586
0000a0 be ba 52 bd fe 92 34 3e 70 58 4f 3d 3c a8 9e 3d
       -0.051447622 0.17634198 0.05062145 0.07746932
0000b0 39 9e 9d be 32 12 8d 3d f3 69 1e 3e 2e 6b 26 bd
       -0.30784777 0.06888236 0.15470104 -0.04062956
0000c0 7d f1 09 bc 20 94 2f bd 57 46 7e 3d 82 d8 4d be
       -0.008419392 -0.042865872 0.0620788 -0.20102122
0000d0 e8 05 cd bd 84 e9 7a bd ec e2 5e 3e c7 4c 36 3d
       -0.10010892 -0.061257854 0.21766251 0.044506814
0000e0 48 81 2f 3a 92 c3 51 3d c8 2a 62 be 57 4a de bc
       0.00066949846 0.0512119 -0.22086632 -0.027135057
0000f0 aa 8c 2f be 09 ef 91 3d 12 db d9 bd f9 9b 10 bd
       -0.17143503 0.071256705 -0.106374875 -0.035304997
000100 7d 56 88 3d 93 e9 c2 bb c2 58 82 bd 83 d1 99 3d
       0.06657121 -0.0059482544 -0.063645855 0.07510664
000110 b7 24 9d 3d 0e 9b dc bd 04 02 19 be cc a8 3a be
       0.076730184 -0.10771762 -0.14942175 -0.18228453
000120 de 00 a0 bd b9 5b bc 3e 70 06 81 bc 3e 93 2b bd
       -0.078126654 0.3678873 -0.01575014 -0.041888468
000130 4a 61 a1 bc d7 70 8c 3d 7c 4e 0a be fb dd 98 bd
       -0.019699711 0.0685746 -0.13506502 -0.074642144
000140 9b 96 dd bd 8d 80 54 bc 92 81 83 3d 37 d7 70 bd
       -0.10819741 -0.012970102 0.06421198 -0.058798995
000150 4e 76 4d bd ad f6 4e bd ee 34 e3 3d 8a 89 f4 bd
       -0.050161652 -0.050528217 0.1109408 -0.11940296
000160 28 16 97 3d 57 46 2f be 30 09 8e bc 41 4d 57 be
       0.07377273 -0.17116676 -0.017338365 -0.21025564
000170 70 75 32 3e 73 8f d3 3d b8 d6 20 bc 04 e7 87 be
       0.17427611 0.10330095 -0.009816818 -0.26543438
000180 3f eb 15 3e fb ea 2e 3e c2 c4 df bd 47 3e 09 bd
       0.1464052 0.17081825 -0.109262004 -0.033506658
000190 7b d1 03 3d 6f a9 a6 3c e2 78 a9 3d 2e 99 ee be
       0.032182198 0.020344464 0.0827501 -0.46601242
0001a0 15 a1 4f 3e 1d 92 92 bd 08 45 56 3e 3c c5 86 be
       0.20276292 -0.07156775 0.20924771 -0.26322353
0001b0 d5 88 8f 3d 8c 0d 8d be 37 e8 da bb 31 5e 35 be
       0.070085205 -0.27549398 -0.006680514 -0.17711712
0001c0 be 4e 82 bd 0f fe 04 be 53 db 93 3c 43 e3 19 be
       -0.06362675 -0.1298754 0.018048918 -0.150281
0001d0 f9 13 88 bd 40 49 39 3e b0 2d 1a bd 39 ce ee bc
       -0.066444345 0.18094349 -0.037641227 -0.029151069
0001e0 1c bb 58 be 9d 7a 99 3d d6 1d 24 be 7a c8 21 be
       -0.21165127 0.0749409 -0.16027007 -0.15799132
0001f0 d3 0f ae bd 98 f4 55 3d 61 3a aa 3c dc 66 17 bd
       -0.08499112 0.052235216 0.02077979 -0.03696333
000200 de c7 d0 bc c1 0d 99 3d a0 03 b2 bd 5b 21 36 bd
       -0.02548593 0.074733265 -0.08692098 -0.044465404
000210 47 f3 df 3d f4 d4 4b be de dc 52 be 9f d5 ce 3c
       0.10935073 -0.19905454 -0.20592067 0.025248347
000220 78 8a ca 3d ad d3 d6 3c da 76 10 3e b7 dd c0 3d
       0.09889692 0.026223982 0.14107838 0.09417289
000230 5b 20 70 3d be 40 87 bd 48 e9 53 3d 7a 0f f7 bc
       0.058624607 -0.066041455 0.051736146 -0.030158747
000240 37 b4 66 bc 3c c6 4a bd 05 93 e2 bd 11 f8 9f bd
       -0.0140810525 -0.049505457 -0.11063198 -0.07810987
000250 08 13 f6 bd c1 6f 35 3e 5c 85 ae 3d 8b 6c 35 3d
       -0.12015349 0.17718412 0.0852153 0.044292968
000260 f6 13 d3 bd fd 4a 65 bc ed 9b 39 be 65 53 c0 bc
       -0.103065416 -0.013994929 -0.18125887 -0.023477266
000270 7d b6 7d bd 65 9b be bd e2 af 64 be 0b fd 12 be
       -0.061941613 -0.09306983 -0.22332719 -0.1435434
000280 81 38 82 bc e8 9b ab 3d 67 8f 1e 3e 92 61 b5 bd
       -0.015896084 0.08379346 0.15484391 -0.08856501
000290 79 96 37 3d da d7 b4 bd 34 27 3a bd bc 2d d1 bd
       0.044821236 -0.08830233 -0.045447543 -0.10213801
0002a0 fd 06 c0 3c 3e 5b 7d 3d 03 51 9b bd df dc e8 bc
       0.023440832 0.061854593 -0.07583811 -0.028425632
0002b0 d2 ea 6a bd 42 4b 33 bd a8 05 16 be c5 fa c2 3b
       -0.05735285 -0.043772943 -0.14650595 0.005950304
0002c0 9b ac 74 bd 91 be 99 3d 02 ca 8c 3c 46 c7 4e bd
       -0.059734922 0.07507051 0.017186169 -0.05048301
0002d0 4e 5a 92 3d 65 68 fc 3d 97 35 1a be 1d 92 b0 3d
       0.071461305 0.12324599 -0.15059505 0.08621619
0002e0 c6 72 1a 3d 6e 8a b4 bc 7c fe be 3d 92 80 92 bd
       0.037707113 -0.022038665 0.09325883 -0.07153429
0002f0 15 3a 00 be ca c4 64 be 22 09 e9 bd 8d 1e 5e bd
       -0.12522157 -0.22340694 -0.11378695 -0.054228354
000300 78 86 a3 bd f7 da 97 3d d7 6c 8b 3c 5b 54 91 bd
       -0.07984632 0.07414811 0.017019672 -0.07096168
000310 2c 77 12 3e 76 bb 4d 3c 73 b8 b0 3d 04 2d 3c bc
       0.14303273 0.012556901 0.08628931 -0.011485342
000320 13 7d d7 bd 4c b5 02 be d8 13 68 be e0 83 57 3e
       -0.10521903 -0.12764472 -0.2266382 0.210464
000330 4d 8b a6 bc 7a 59 c2 bc bb 9a 0e 3e 65 c5 be 3c
       -0.020330096 -0.023724306 0.13926212 0.023287484
000340 ca a0 8b 3d a8 13 cd bc d3 6b 43 bd 29 5e 0a 3e
       0.068177775 -0.025033787 -0.04771025 0.13512482
000350 78 a6 28 3e 43 8e 0e 3e 37 8e 90 bd 57 2d 85 3d
       0.16469753 0.13921456 -0.07058375 0.065027885
000360 58 ff 9a 3e 08 7a 0b bd c2 b6 de bd ea 7d 0c 3e
       0.30272937 -0.034051925 -0.10874702 0.13719907
000370 21 c0 66 3d c2 ad 08 3d b6 3a 6c bd 63 2c 82 3c
       0.056335572 0.033368833 -0.05767318 0.015890306
000380 da 2c 30 be 76 e0 13 be 93 62 35 be 0e a1 e9 bd
       -0.1720461 -0.14441094 -0.17713384 -0.11407672
000390 2e 17 0e 3e 10 1b 7b 3c 5f 67 8f 3d 3b 23 41 3e
       0.1387603 0.015326276 0.07002138 0.18861096
0003a0 08 2c 2a bd 98 05 10 3d 86 19 0a 3e 44 5c 46 3e
       -0.041545898 0.035161585 0.13486299 0.19371134
0003b0 1d 07 ba bd 96 c7 23 bd e1 4c 8c bc 35 b5 7d bd
       -0.09083388 -0.03998526 -0.017126502 -0.06194039
0003c0 df 9f 25 bd 7c 85 61 be 9d 38 59 3d 73 d2 5f bc
       -0.040435668 -0.22023576 0.053032506 -0.013661015
0003d0 62 62 88 3d 8c 5d 9c bd a8 81 72 bd d9 e7 5e bd
       0.0665939 -0.0763503 -0.05920568 -0.054420326
0003e0 e7 7b a8 bc 10 c5 51 be 4e e7 e3 3a a6 3e 05 3e
       -0.020566894 -0.2048533 0.001738766 0.1301218
0003f0 66 67 ef bd 10 f0 2b 3e 6a 34 e9 3d a4 e2 ac 3c
       -0.116896436 0.16790795 0.1138695 0.021104164

2.bias f4 [128]
000000 9c 44 29 bd 55 d5 60 be 55 3f 37 be 96 11 d3 bd
       -0.041325197 -0.2195638 -0.17895253 -0.103060886
000010 b9 61 17 3c e2 cd 23 bd 80 7c 37 be e6 4f 5c bd
       0.0092396075 -0.039991267 -0.17918587 -0.053787135
000020 2a 67 87 be be c9 61 be 56 85 2d be f9 50 e3 bc
       -0.26445895 -0.22049615 -0.16945395 -0.027748572
000030 cf 8c 34 be 7a 49 84 bd 72 7e 7a be 7e 2d 1e be
       -0.17631839 -0.06459327 -0.24462298 -0.15447041
000040 1f 18 8e 3c 5d 09 0a be 32 0f 91 bd 48 ed 4f 3d
       0.017345486 -0.13480134 -0.070829764 0.0507634
000050 9e fc 43 be 16 5e 5e be dd 6a 97 bb e8 e3 1a bd
       -0.19139335 -0.21715578 -0.0046208934 -0.037815005
000060 8c 89 9e 3d 0b f0 71 bd 85 22 c1 bd 6a 4a a0 bd
       0.07741079 -0.059066813 -0.09430412 -0.07826693
000070 f1 65 09 be 6c 6a ea bd f0 ab 71 bb d2 2c 0a bc
       -0.13417794 -0.114460796 -0.0036876164 -0.008433538
000080 b8 79 a4 bd ba bc d5 bc 63 ec 91 bd c3 66 cc bd
       -0.080310285 -0.026090968 -0.07125165 -0.09980538
000090 22 8a c0 bd 9f df 88 bd 74 c7 10 be b4 6c 9c bc
       -0.09401347 -0.06683277 -0.14138585 -0.019094802
0000a0 81 6b 3a be 58 50 57 be a8 07 1d be a9 54 61 be
       -0.18205072 -0.21026742 -0.15334952 -0.22004952
0000b0 17 c2 bb bd 04 7c fa bc e2 c0 3e bd 82 86 89 be
       -0.09167879 -0.030576713 -0.046570666 -0.26860434
0000c0 8c 01 10 be 6d a6 59 3e 25 59 3b be f5 0f 8d be
       -0.1406309 0.21254893 -0.18295725 -0.27551237
0000d0 a5 07 70 be d6 a4 18 3d 01 10 99 bd 6b 85 25 be
       -0.23440416 0.037266575 -0.07473756 -0.16164176
0000e0 18 9e a8 bb c7 26 62 be 21 5e 39 be 5f 56 b1 bc
       -0.0051457994 -0.22085105 -0.18102314 -0.02164763
0000f0 d1 28 67 bc 80 c4 f2 bd f6 f8 d8 bc 67 72 6f be
       -0.0141088525 -0.11853886 -0.026485901 -0.23383485
000100 15 2f bd bd 8d c9 1b bd 29 ca 4d bd 57 e4 0a be
       -0.09237496 -0.03803401 -0.050241623 -0.13563667
000110 c9 46 5c be 79 9a 0e be 42 00 0c be 76 c3 fd 3d
       -0.21511377 -0.13926114 -0.13671973 0.12390797
000120 67 64 41 be d3 cf 23 bd e6 6a e1 bd df b6 a6 3c
       -0.18885957 -0.03999312 -0.110067174 0.020350872
000130 76 cc 29 be 83 54 8f be 91 c0 b3 3d 3b 9c 0a be
       -0.16581902 -0.27994165 0.087769635 -0.1353616
000140 46 39 88 bd 05 60 07 bd a9 80 9a be 53 74 a4 3c
       -0.06651549 -0.033050556 -0.30176285 0.020074999
000150 a2 c1 5f 3d 45 fe 64 3d a0 48 db bd 89 3c 10 be
       0.054628022 0.055906553 -0.107072115 -0.14085592
000160 89 34 74 bd 1f 04 e0 bd 28 2f ca bc 79 b1 54 bd
       -0.059620414 -0.10938286 -0.024680689 -0.051927064
000170 49 34 17 be a5 0b 3d bd f5 1d f7 bc 00 0b f3 bd
       -0.14766039 -0.046153683 -0.030165652 -0.118673325
000180 8d 69 f3 bd f0 57 46 be b7 a5 37 be ec 0d 5b bd
       -0.118853666 -0.19369483 -0.17934309 -0.053480074
000190 fd 3a e4 bd b2 93 b7 ba 26 34 0e be f5 fb aa bd
       -0.111440636 -0.0014005809 -0.1388708 -0.08348838
0001a0 93 86 46 3d a1 6d bc bd b1 19 2e be 9e bf 49 be
       0.048468184 -0.092005976 -0.17001988 -0.19702002
0001b0 69 b2 21 be 5e 00 34 be fc fd 68 be 77 46 4c 3c
       -0.15790714 -0.17578265 -0.22753137 0.012467972
0001c0 ba 0e f9 bd 16 b0 65 3c 16 8e 59 3d 28 2f 66 be
       -0.12161012 0.014019033 0.05311402 -0.22478926
0001d0 ca a0 66 bd 40 94 83 be bf 27 83 bd 1e dd b6 bd
       -0.056305684 -0.25699043 -0.06404065 -0.089288935
0001e0 f3 47 18 3e 47 fe 18 be a7 30 ab bd 77 0a d9 bd
       0.14871196 -0.14940749 -0.08358889 -0.10597699
0001f0 46 2c c1 bd 95 fb c0 bd 6b 05 dc 3d 3e 42 f5 bd
       -0.094322726 -0.094229855 0.10743221 -0.11975525

4.weight f4 [128, 128]
000000 f3 60 02 be 07 92 ed 3c cb 0c 96 3c 1b 65 62 be
       -0.12732296 0.029000295 0.018316647 -0.22108881
000010 e5 a1 22 bd 27 ed 9b 3d 48 59 87 3d 09 29 b8 3d
       -0.039705176 0.076135926 0.06608826 0.08992202
000020 35 58 3c 3d 64 f0 b6 bc 2f 55 bf bd ad 68 ac bd
       0.04598256 -0.022331424 -0.09342419 -0.08418403
000030 ba f1 e3 bd 15 93 ae bd c0 0a 25 3e a4 f2 d3 3c
       -0.1113009 -0.085241474 0.16117382 0.025872536
000040 57 2d 57 39 3c b4 2c 3c 26 7f 31 3d c1 55 ca 3d
       0.00020520888 0.010541018 0.04333415 0.098796375
000050 16 34 4e 3d 25 d0 e3 bc 93 a0 1b 3d 28 fc e7 3d
       0.05034264 -0.027809212 0.037994932 0.11327392
000060 f2 36 33 3e fa 73 79 bd 7a 40 4b bd 8c 7c 00 bb
       0.17501429 -0.06090162 -0.049622037 -0.0019605486
000070 4c 7a 6c be 86 c5 30 bd 72 fc 3d be 63 3b 37 be
       -0.23093528 -0.043157123 -0.18553331 -0.17893748
000080 20 29 00 3e 5f d1 2c bd c1 e3 ba bd 43 64 a1 3d
       0.12515688 -0.04219186 -0.09125472 0.078804515
000090 1a 82 b7 3d a6 b2 97 bd 4f 46 71 3d af 92 01 bd
       0.08960362 -0.07407121 0.058904942 -0.03163403
0000a0 39 e7 bb 3d a2 71 c3 3b 27 71 cc bd 75 7d fa bd
       0.091749616 0.005964474 -0.099825196 -0.1223096
0000b0 b2 6f 5a bb 6d a5 52 bd 13 f4 5f bd a1 7f 02 3e
       -0.0033330736 -0.051427294 -0.054676127 0.12743999
0000c0 36 17 94 bd cc 7e e8 3c 4a ee f0 3c 82 aa 4c 3c
       -0.0723099 0.028380774 0.0294105 0.012491824
0000d0 35 d2 28 3e cd 2b 6f bd 80 4a 70 bd 03 e6 ce be
       0.16486438 -0.05839138 -0.0586648 -0.4040986
0000e0 66 b9 49 3d f5 9b 21 3e 14 4d ca 3d e3 fd 85 3d
       0.049249075 0.15782149 0.09877983 0.06542566
0000f0 b9 b0 a6 bd b9 70 0c 3c 5a 2a ae 3c 29 dd 31 3e
       -0.08139176 0.008571797 0.02126043 0.17369522
000100 bb c7 24 3e 7c f0 cc 3c 47 8c 8a 3d 71 b1 10 3b
       0.16091816 0.025017016 0.06765037 0.002207842
000110 51 b2 95 3b 58 aa e0 3b 1a cf e1 3b cb dd dd bb
       0.004568376 0.006856244 0.0068911435 -0.0067708245
000120 63 f4 f7 3d 45 b3 5f 3c c8 44 02 be 42 5c fc bc
       0.1210716 0.013653581 -0.1272155 -0.03080571
000130 49 1f b6 bc ab fe 0a bc 73 59 20 be 61 ce 3f bd
       -0.022231715 -0.008483569 -0.15659122 -0.046827678
000140 d4 d9 4f bd 88 92 43 bd 3a ad 4a 3e 35 7b 86 bd
       -0.050744846 -0.047747165 0.19792643 -0.065664686
000150 14 50 00 bd 80 c4 e0 3d 20 1b b0 bc 4c 75 d8 3d
       -0.03132637 0.109749794 -0.02149731 0.105692476
000160 65 88 bc bd 62 fc eb 3b 9e a8 df 3d 9c 85 0d 3d
       -0.09205703 0.0072017172 0.10920833 0.034551248
000170 0e 82 2f bd a8 71 7d 3d c6 dd 73 3d d3 ae fb bc
       -0.04284864 0.06187597 0.05953767 -0.030723011
000180 26 49 3f bd 83 14 dc bd df fb 9d 3d 82 37 a0 bd
       -0.04670062 -0.107461 0.07714056 -0.07823087
000190 d5 14 8d bc 57 3b ef 3c cb 65 8f 3d af 42 8e 3c
       -0.017221848 0.0292031 0.07001837 0.017365782
0001a0 d2 7c 1a 3d 5c be f8 3c 4c d6 9e bd f6 86 02 bd
       0.037716694 0.030364208 -0.07755718 -0.03186699
0001b0 75 5a 0f be 13 39 71 3d 04 7b 08 3e c7 d9 09 be
       -0.1399935 0.05889232 0.13328177 -0.13461982
0001c0 97 13 76 3e 92 98 76 3d 9b 5b 8e bd 4f 81 e6 3d
       0.2403091 0.060204096 -0.06951066 0.112551324
0001d0 01 74 44 be 98 97 14 bd 04 11 16 bc 26 8a 58 3d
       -0.19184877 -0.036277384 -0.00915933 0.052866124
0001e0 56 6e 3b 3d 43 a5 25 3b 29 a6 c7 3d 8d a8 8b bc
       0.04575952 0.0025275506 0.097484894 -0.017048145
0001f0 61 5e dd 3d 31 f5 2e 3b 06 5c 99 bd db a6 0b be
       0.10809017 0.0026696438 -0.07488255 -0.13637869
000200 24 8e 6e 3d 38 ec e4 3d 5f 65 fd 3c 5d f7 fb 3c
       0.058241025 0.11177868 0.030932127 0.0307576
000210 57 62 cc 3d c9 37 24 3d ef f5 8b bd 44 d3 94 bd
       0.09979694 0.040092263 -0.068340175 -0.07266858
000220 8a de c5 3c 66 df 57 bc d4 5f fc bd 7d 2a 98 3d
       0.024153966 -0.013175821 -0.12322965 0.07429979
000230 47 15 01 3e 16 90 ce 3c 01 86 eb 3c ee 07 f5 bd
       0.12605773 0.02521519 0.028750421 -0.11964403
000240 64 b3 13 bd 5b 09 84 bd 8c 8e 5c bd 11 59 a2 bd
       -0.036059752 -0.06447097 -0.05384688 -0.07927144
000250 56 9d 20 3d 0b f9 17 3c 50 0f 9a 3c 90 6e 4e 3d
       0.039212547 0.009275685 0.01880613 0.05039841
000260 53 e7 57 3d 38 61 f5 bd db 2d b2 3b 50 d5 68 be
       0.052710842 -0.11981434 0.0054375953 -0.22737622
000270 56 e8 1d bd 0f 97 44 3d 60 77 ce 3d fc 47 7b bd
       -0.03855165 0.047995623 0.10081363 -0.061347947
000280 1f 8e f1 3d a4 3f eb 3d 26 41 d1 3b eb d3 8b bd
       0.117946856 0.11486748 0.00638594 -0.068275295
000290 21 26 0e 3e ab 8f 7a 3c aa da 0a 3e d3 45 32 be
       0.13881733 0.015293042 0.13559976 -0.17409448
0002a0 19 33 ea 3d 21 1f 57 3e 78 3b f9 3c c9 6f 0b 3e
       0.11435527 0.21007968 0.030423865 0.13616861
0002b0 be 00 9d 3d 36 df 3a bd c0 7d 2b 3c 32 01 af bb
       0.07666157 -0.045623027 0.010466993 -0.0053407187
0002c0 7f 8c d4 bd c3 b9 34 bd 7c c8 12 3d 28 aa a9 3c
       -0.1037836 -0.04412247 0.035835728 0.02071102
0002d0 bb c6 7f 3d 9a cd ba bc 7a 01 8a bc 9a 96 4b 3d
       0.062445384 -0.022803117 -0.016846407 0.04970417
0002e0 ea 94 8f bd f1 6a 12 3e 4b e6 74 3d d9 d0 a6 3d
       -0.07010825 0.14298607 0.059789937 0.08145303
0002f0 c0 c1 d1 3c 3b cd 50 3d e2 99 26 3e 9e ab 6a 3d
       0.025605083 0.050976973 0.16269639 0.057292573
000300 f2 74 96 3c e0 fe 55 3c d6 3e bd bd f3 9d 64 3d
       0.01836631 0.013061255 -0.09240501 0.055814695
000310 ef 12 ae 3d 4d 6d 37 3d 6b 61 8d 3c a7 6d ad 3d
       0.08499705 0.04478197 0.017258367 0.0846818
000320 36 88 e3 bd 0c 6e 72 3c ff cf c9 bc b6 89 3a 3e
       -0.111099645 0.014796745 -0.024635313 0.18216595
000330 4b 31 7f 3b 27 f8 f1 bd ff 4b 8f 3c a2 b4 f2 bd
       0.0038939293 -0.118149094 0.017492292 -0.11850859
000340 4e 38 e4 3d c1 65 78 bd 7b fc 36 3d de 5d 57 3d
       0.11143552 -0.060643915 0.044674378 0.052579753
000350 dd e7 c3 bc 8b b9 df 3c 58 94 4a 3c 00 ea 03 bd
       -0.023914272 0.027310153 0.0123644695 -0.03220558
000360 ee dc b5 bd 35 39 00 be e6 3b b7 3d 92 fc dd bc
       -0.088800296 -0.12521823 0.089469716 -0.027097974
000370 c3 51 bd bd c2 f5 28 3d 8e 3c 52 be a8 fa b7 bd
       -0.092441104 0.041249998 -0.20530912 -0.08983356
000380 1e 47 86 3a 46 18 dd bc e0 6e 11 bd 03 42 9a 3c
       0.0010244583 -0.026989114 -0.03550613 0.018830305
000390 28 52 7d bd 2b 2c 6b 3d 18 dd 06 3d 8a f0 2d 3d
       -0.06184593 0.05741517 0.032925695 0.042465724
0003a0 bf 99 85 bd 8f f5 a1 3c 13 da ac 3d 3f 5d aa bd
       -0.06523465 0.019770412 0.08440032 -0.083185665
0003b0 00 4b 03 3d 9b 7b bf bd 92 1a 5a bd ab 57 c9 3c
       0.032053947 -0.09349748 -0.053247996 0.024577936
0003c0 fb a9 9e bd 26 98 99 bd 81 3a 8a bd 33 d0 0f be
       -0.07747265 -0.07499723 -0.0674944 -0.14044265
0003d0 93 39 aa bd d6 fd 92 bd a5 a2 9f bd 37 8c c3 bd
       -0.08311763 -0.071773216 -0.07794694 -0.09548228
0003e0 7f 10 bd 3c 4e 22 b0 3d 3d 2c 09 3e 5a f6 68 3d
       0.023079155 0.08600293 0.13395782 0.056875564
0003f0 48 17 b0 bc d4 94 a5 3c d7 fb f7 ba 48 28 00 3b
       -0.021495476 0.020212568 -0.0018919659 0.001955526

4.bias f4 [128]
000000 f6 cf 98 bd 41 73 91 bd cf 8b 33 be 66 3b e0 bd
       -0.074615404 -0.07102061 -0.17533801 -0.10948829
000010 90 31 79 be aa 7f cf bc f2 21 18 be 8f d8 5c be
       -0.24335313 -0.02532943 -0.14856699 -0.21566986
000020 9f 93 4d bd c1 fd 94 bc a9 2a 15 be dc 5d 0f be
       -0.05018961 -0.018187406 -0.14567055 -0.14000648
000030 2b 72 f9 bd 49 31 15 39 59 d8 94 bd 99 5e b6 bc
       -0.12179979 0.00014228107 -0.072678275 -0.022261905
000040 64 6f 7a bc b9 fe f7 bd 57 e0 28 bd b5 58 1e be
       -0.015285347 -0.12109131 -0.041229572 -0.15463527
000050 6f 8c ec bd 2f f8 ad bd 3b 3d e7 3a be 19 1f bd
       -0.11550223 -0.08494603 0.001764215 -0.03884291
000060 48 38 c8 bd 1d 20 3c bd 36 42 c1 bd 2d 73 65 bd
       -0.0977636 -0.045929063 -0.09436457 -0.056018043
000070 c8 7e 26 be 16 99 3d be 06 6c 84 3d 33 01 15 be
       -0.162593 -0.18515429 0.06465916 -0.14551239
000080 c8 28 b4 bd 47 b1 27 be 76 8a b4 bd 46 6d f1 bd
       -0.08796841 -0.1637622 -0.08815472 -0.117884204
000090 59 59 91 3d 30 31 8d bd 01 92 2b be a9 fd 3d be
       0.0709712 -0.068941474 -0.16754915 -0.18553795
0000a0 cc 34 fe 3a e0 7a 35 3d 42 76 d4 bd 2d 19 b9 bd
       0.0019394397 0.044306636 -0.103741184 -0.09038005
0000b0 6a d8 fb bd 5c 9f 8f 3d 32 1f 85 bd f9 44 33 bd
       -0.12297137 0.07012817 -0.06500091 -0.04376695
0000c0 67 48 84 be be dd e0 bd f8 56 c6 bd 1b 3d 04 be
       -0.2583649 -0.10979794 -0.09684557 -0.12913935
0000d0 cd d0 22 bd 60 2b 7a be 6b e2 0c be 3e 02 c1 bd
       -0.03974991 -0.24430609 -0.13758247 -0.09424256
0000e0 13 a5 19 bc d3 ac 23 3d c4 92 f0 bd 5f 32 46 be
       -0.009377736 0.03995974 -0.11746743 -0.19355153
0000f0 9f 2b e9 3d 36 c1 a3 3d ef 48 c7 3d 71 10 8b bd
       0.11385273 0.079958364 0.09730708 -0.06790245
000100 41 06 70 bd 71 47 b4 bd 9a e3 36 be 5f d2 29 be
       -0.058599714 -0.08802689 -0.1786026 -0.16584156
000110 eb ba 87 be f6 c8 c3 bb 00 1b 23 be b5 b2 0b be
       -0.26509795 -0.005974884 -0.15928268 -0.1364239
000120 ec 7b b4 3b 2b 26 05 be 68 1b 8a bd ee 84 fb bd
       0.0055079367 -0.13002841 -0.067435086 -0.12281214
000130 f4 60 86 3c e1 21 54 bd 8d 7b 6c 3d e2 67 90 bc
       0.016403653 -0.051790122 0.057735015 -0.01762766
000140 79 3b 17 be 3c 7e 45 be d9 42 3e be 65 d4 18 be
       -0.14768781 -0.19286436 -0.18580188 -0.14924772
000150 1a d6 ce bd 56 cb 50 be 0f af d4 3c 32 7f 16 be
       -0.100994304 -0.20390067 0.02596238 -0.14696959
000160 1a a0 e1 bd 3a 21 86 be 31 00 5c bb 4f 8f 5c 3d
       -0.11016865 -0.26197225 -0.003356945 0.053847607
000170 5d a4 95 3c e1 5d 76 ba 9c d2 3b be a3 cd e7 bc
       0.018266851 -0.00093981443 -0.1834206 -0.028296297
000180 e3 55 d9 bc e1 1a 9c bd 0a 2d 08 bd c6 c2 59 be
       -0.026530212 -0.07622314 -0.033246078 -0.21265706
000190 24 54 94 3b df a8 ff bd 71 6e dd bd 5a 85 9f 3c
       0.004526632 -0.124833815 -0.10812081 0.019472767
0001a0 66 d5 18 be bf 97 d0 bd de 97 fe bd f8 f3 77 be
       -0.14925155 -0.10185193 -0.1243131 -0.2421416
0001b0 fa f3 e7 bd c6 86 95 bd f2 c8 f1 bd c4 76 d8 bb
       -0.11325832 -0.073010966 -0.118059054 -0.006605955
0001c0 4b bc 0a be e5 f8 01 be 11 86 b7 3d a7 3e 56 be
       -0.1354839 -0.12692602 0.08961118 -0.20922337
0001d0 47 33 58 bc 41 93 bb bd 6c 9e 13 be 37 73 03 be
       -0.013195819 -0.09158946 -0.14415902 -0.1283692
0001e0 34 c5 fc 3b f0 b7 7e bd 5f 79 20 be df 33 1d bd
       0.007713938 -0.062187135 -0.156713 -0.038379546
0001f0 da 8c b8 bd 02 90 fb bd 9f 87 1e be 9c 5f db bc
       -0.0901124 -0.12283327 -0.15481423 -0.026778989

6.weight f4 [12, 128]
000000 0f 4a 7d 3d 02 bd d3 bc 25 0b 16 bd 43 70 18 3d
       0.061838206 -0.025846962 -0.036631722 0.037216436
000010 9d 08 d8 3c b2 88 9a bc 65 1b 1b 3d 1b ef 4f bc
       0.026371295 -0.01886401 0.037867922 -0.0126912845
000020 f3 b6 fa 3d 3c 9b cc 3c a6 5e 69 bd 78 35 a0 bb
       0.12241926 0.024976365 -0.05697503 -0.0048891865
000030 63 2f e0 3c 9e 07 d2 bc df 42 80 3c cc ea f1 bb
       0.027366346 -0.025638398 0.015656887 -0.0073827263
000040 00 b1 e4 bb 8b 64 fb bc 6f 2d 51 3c d9 ab f6 3c
       -0.006979108 -0.030687591 0.01276718 0.03011124
000050 f8 8e 72 bd 3c 23 26 b9 a0 af 99 3d 18 2b f9 bc
       -0.059218377 -0.0001584412 0.07504201 -0.030416057
000060 ce e6 b4 bc 40 29 1e 3c 5f 92 81 3c c9 6e c1 bb
       -0.022082713 0.009653389 0.015816865 -0.005903099
000070 51 ca 3c bc 2f ed ab 3d 4b 4e fd 3b 82 97 bc 3c
       -0.011522845 0.083948486 0.0077302805 0.023021463
000080 99 ae c3 bd 7f c6 6a 3d 50 7e 81 bd 74 3c d1 3c
       -0.09554786 0.057318207 -0.0632292 0.025541522
000090 48 b8 c1 bc 7f 8e 46 3c 79 83 5c 3c 0b 60 c4 3c
       -0.023647442 0.012118935 0.01345908 0.023971578
0000a0 56 86 61 bd 56 fa 19 bd 47 d1 6e 3c 8a 90 d4 bd
       -0.055059753 -0.037592255 0.014576263 -0.10379131
0000b0 a0 20 49 bc 6d f3 98 bd 92 f5 11 bd 12 f2 59 3c
       -0.012275845 -0.07468305 -0.035634585 0.013302343
0000c0 62 fe 95 3d 0c f7 8f bd 75 f3 73 3c 21 e3 29 bb
       0.0732391 -0.07029542 0.014889588 -0.0025922733
0000d0 56 4a 80 bd 51 5f ce 3d 10 ca 96 bc d4 de 99 3c
       -0.062641785 0.10076774 -0.018406898 0.01878301
0000e0 a9 da 9e bc 33 25 0f 3c 3f d7 83 3d ee 01 5c 3d
       -0.019391375 0.008736896 0.06437539 0.053712778
0000f0 6f 36 bb bb 1a 4d 17 bd cf 03 2c bd 8b 37 6b 3d
       -0.005713276 -0.036938764 -0.04199582 0.057426017
000100 da 37 19 3c 31 a7 b9 bc 4d a5 e9 3c e1 b9 07 bd
       0.009351695 -0.02266273 0.028521204 -0.033136252
000110 64 63 16 3e d2 ff b8 3c 75 f3 f1 3a 42 f3 c5 3c
       0.14686352 0.022582922 0.0018459397 0.024163846
000120 11 02 a3 bc 33 78 fd 3c 63 66 84 bb 43 0c d8 3c
       -0.019898446 0.030941105 -0.0040405258 0.026373034
000130 84 d5 23 bc 3f 56 e1 bc 5c ca 28 bd ac 3b c2 3c
       -0.009999637 -0.027506946 -0.04120861 0.023710094
000140 bb 0b 25 3c 9a 7f 47 3d 58 ae 0b 3d 2f 25 39 bd
       0.010073598 0.048705675 0.034101814 -0.045201477
000150 e6 fc 71 bb 95 a5 ab bd 07 1e 91 bc c7 00 15 bc
       -0.003692442 -0.08381192 -0.017714513 -0.009094424
000160 b2 80 e3 ba 85 ee b4 3c 7b ae 9f 3c 5c 00 24 bd
       -0.001735708 0.022086391 0.019492378 -0.040039405
000170 91 56 8a 3b 72 ac 24 3d ac 14 55 3c ba 56 81 3c
       0.0042217453 0.04020352 0.013005417 0.015788425
000180 67 28 0c 39 0e c0 77 3c 6e 6d fb 3c c2 21 d1 3c
       0.00013366491 0.015121473 0.030691829 0.025528792
000190 e3 ad 75 bc e2 d1 be 3d af 1a 58 3c 88 7c 4c 3d
       -0.014995071 0.09317376 0.013189956 0.04992345
0001a0 98 71 f4 3c d7 7f 1a 3e 2f e9 88 3d 60 e8 1a bd
       0.029839322 0.1508783 0.06685101 -0.037819266
0001b0 00 1e 49 bd 16 29 77 bd 8c 2e ca bd 4b ee 3e b9
       -0.049100876 -0.060341917 -0.09872159 -0.00018208583
0001c0 03 92 32 bc 71 d5 a6 bd 10 7f 8c bb c0 8a 96 3d
       -0.01089907 -0.081461795 -0.004287608 0.07350683
0001d0 dc f3 39 3d 35 c8 82 bd cd 97 d1 3b 51 07 12 bc
       0.045398578 -0.06385843 0.00639627 -0.008912877
0001e0 4f 4d e2 3b f7 66 ea bc 36 90 40 bd 4e 79 2a 3c
       0.0069061886 -0.02861355 -0.04701253 0.010404898
0001f0 78 3d be 3c 16 2b cd 3c 41 46 18 bc 35 26 0f bd
       0.02322267 0.025044959 -0.009294094 -0.034948546
000200 1f 06 c0 bc f2 37 0e 3c f0 db 9e 3d 0a 71 b1 bd
       -0.023440419 0.008680331 0.077567935 -0.086641386
000210 cb d3 5f 3d ab ef e0 bb 73 e6 a6 bc bb 90 45 bd
       0.05464534 -0.006864508 -0.020373559 -0.04823373
000220 72 6e 9c bd 95 dd 57 bc dc 97 be 3c ff 81 49 bd
       -0.07638253 -0.013175388 0.023265772 -0.04919624
000230 71 61 3c bd 34 cc 8e b9 fd 26 4f 3c fa 7e 06 3c
       -0.045991365 -0.00027236494 0.012643573 0.0082089845
000240 e6 8d 7c 3b a0 a7 38 bc b0 89 02 bd 2a f0 5e 3c
       0.0038536726 -0.011270434 -0.03186959 0.013607064
000250 2d 8a a0 3c 2a cc 19 3e 48 bb 2e bd c2 88 46 bc
       0.019597137 0.15019289 -0.042659074 -0.012117567
000260 8b c7 20 bd d0 0f be 3c 6e 7f 92 3c f2 dc e4 bb
       -0.0392528 0.0232009 0.017883029 -0.0069843465
000270 fd 4d fa bc e7 df 2d bd 2a 24 17 3d 75 30 fb bc
       -0.030554766 -0.042449858 0.036899723 -0.030662755
000280 c5 0c b4 3c b0 f3 ac 3b 1e 61 c8 3b a5 57 46 3d
       0.021978745 0.0052780733 0.006115093 0.048423428
000290 87 c2 fd bb 73 97 ec 3b 08 c9 3a bd 35 f4 af bc
       -0.0077441367 0.0072202026 -0.045601875 -0.021478752
0002a0 5d b2 1d 3d 80 dd 00 bd fb 4a 21 bd 34 81 5e 3d
       0.03850018 -0.03146124 -0.039378148 0.054322436
0002b0 55 37 32 bd 96 08 13 3d f2 0d 5e bd ff 0e 91 bb
       -0.0435098 0.03589686 -0.054212518 -0.0044268365
0002c0 1f b5 2c bd 81 ca 6e bd 89 21 44 bc ef 45 4d bd
       -0.042164918 -0.05829859 -0.011970886 -0.050115522
0002d0 d3 cb 20 3d 43 b5 8a ba 9c 44 ab bc fa d1 dc bc
       0.039256882 -0.0010582585 -0.020906739 -0.026955593
0002e0 90 e6 c0 bc ac 0e f7 3c e5 c1 19 3d c4 2a 9b bd
       -0.02354744 0.030158363 0.037538428 -0.07576516
0002f0 3c 2c 3b 3c 34 44 8f ba 1f 8c 28 bd 30 23 f2 3c
       0.0114241205 -0.001093036 -0.041149255 0.029557794
000300 73 4e d4 3b b2 f1 87 3c 55 7f 99 bd 90 c3 1b bb
       0.0064790784 0.016594741 -0.0749499 -0.0023767687
000310 b4 69 6a bd f5 98 54 bd cf a3 f3 3b ac af 16 3c
       -0.057229713 -0.051903684 0.007435299 0.009197157
000320 ba df 9c bb 19 9c 69 3c 8f e1 c1 bd 38 ff d6 bc
       -0.0047874125 0.014258408 -0.0946685 -0.026244745
000330 5c 74 b9 bc 53 2e a8 3d 5b f9 65 bd 9e f2 09 b9
       -0.022638492 0.08211961 -0.056146007 -0.0001315572
000340 2d 28 9c bd e7 bf c7 bc c4 84 a5 ba ee 43 25 3c
       -0.076248504 -0.024383498 -0.0012628068 0.0100869965
000350 97 39 0e 3d d4 50 6a 3d fa aa e6 3c 38 e1 a2 3d
       0.03472289 0.05720599 0.0281577 0.07953113
000360 d6 57 6b 3c 26 29 77 bd 3b ea 25 bd 63 b8 82 3c
       0.014364203 -0.060341977 -0.040506583 0.015957063
000370 f3 35 ba 3c 08 86 66 3c c3 19 a8 bc 05 0e 16 3c
       0.022730803 0.0140700415 -0.020520097 0.009158616
000380 0b ad 4d bc 26 7c 86 3d 92 57 3b 3c 48 e3 de 3c
       -0.012553464 0.06566648 0.011434453 0.027207986
000390 2f 45 1c 3d af aa 8f bd 37 b9 a4 bc 08 39 67 3d
       0.038151916 -0.07014977 -0.020107849 0.056450874
0003a0 da fe 01 be fb 3a 07 bd 84 e8 99 bc cf 27 de bc
       -0.12694874 -0.033015233 -0.01878763 -0.027118592
0003b0 46 a1 ce bc 63 03 f8 bb fd 76 ca 3c b4 e6 2e 3c
       -0.025223386 -0.007568763 0.024714941 0.010675121
0003c0 6c 3d 80 3d 53 3a a4 3c 8a 73 93 bc 10 aa 9a bc
       0.06261715 0.020047342 -0.01799943 -0.01887992
0003d0 8f d6 a3 3c 37 df 9e 3c 28 50 05 be 1a d7 ed bb
       0.01999977 0.019393547 -0.13018858 -0.007258308
0003e0 3c f6 f1 bb 84 07 c8 3b 76 28 af bc 1d 7c c8 3d
       -0.0073840898 0.0061044116 -0.021381598 0.09789298
0003f0 42 06 96 bc 26 94 28 3d aa 71 8a 3d b3 42 21 bc
       -0.01831353 0.04115691 0.06759961 -0.0098425625

6.bias f4 [12]
000000 cd ec 47 3c 4d 89 29 bd 33 f7 20 3d ad e7 d3 bc
       0.012202454 -0.041390706 0.039298248 -0.025867308
000010 ca 5e 10 be 0f c5 f7 bc 19 33 d7 3d 7e 9c ad 3d
       -0.14098659 -0.030245332 0.10507793 0.08477114
000020 c2 65 57 3d e7 0d 45 bd f4 78 42 3e 74 87 e5 3d
       0.05258728 -0.04810896 0.18991452 0.11207476
