onnx_inference/data/model.onnx (onnx, 192987 bytes, 8 tensors)

0.weight f4 [128, 104]
000000 41 74 4c be 02 51 9e bf 50 41 72 3e 57 ee 94 be
       -0.19966222 -1.2368472 0.23657727 -0.2908809
000010 26 62 a3 bf ca 42 08 3e b6 e3 47 3d e5 0b 3c 3e
       -1.2764328 0.13306728 0.048801146 0.18363912
000020 0d cc c0 3e 53 e8 33 3e 6e 9c 07 3f 83 73 02 3e
       0.37655678 0.17569093 0.5297307 0.12739377
000030 fd 92 91 3c b7 63 1b bd b2 b6 36 3b 58 fd 90 bd
       0.017770285 -0.037936892 0.002787989 -0.070795715
000040 de ac 97 bd ee d4 db 39 c9 e7 ab 3e 6a 2b 06 bd
       -0.07406019 0.0004192958 0.33575276 -0.032756247
000050 02 46 4c 3f b4 bb 8e 3e fa a4 dc bb 0c a1 3f 3f
       0.79794323 0.2787758 -0.006733534 0.74855113
000060 12 f3 77 be f8 a1 3e be 37 bc bd 3e 9f f7 59 3e
       -0.24213818 -0.18616474 0.3705766 0.21285866
000070 39 f6 ed 3e 17 2d 2e 3f 67 c4 22 bf 0b 48 19 3f
       0.46476915 0.6803755 -0.63580936 0.59875554
000080 2b b8 bf bd 96 9e fb 3e 79 13 ea 3c f8 0c 94 bc
       -0.09361299 0.4914443 0.028573738 -0.01807259
000090 c0 bd 8c be 14 9e 74 be 7e d0 00 3f 48 a1 d4 3e
       -0.27488518 -0.23888427 0.50318134 0.41529298
0000a0 b1 e6 aa 3e d6 7a 43 3f 56 db 08 bf a0 61 05 3f
       0.3337913 0.7635931 -0.5345968 0.5210209
0000b0 bd 65 84 bd b5 24 33 3f a7 45 08 3d b1 b7 76 bd
       -0.064647175 0.69977885 0.03326955 -0.060233776
0000c0 80 98 57 bd 63 f2 e0 bd 04 9c e5 3d d5 d7 c1 3d
       -0.05263567 -0.109837316 0.11211398 0.09464995
0000d0 a2 94 fe bc bf 4a 9d 3d 73 72 12 3e 49 ec 21 be
       -0.031076733 0.07680272 0.14301471 -0.15812792
0000e0 90 86 9d bc 99 be ff bd 1d 11 f2 bd db 1b a6 bd
       -0.019229203 -0.124875255 -0.1181967 -0.08110782
0000f0 c7 b2 c9 3d 65 e3 24 bd 29 7c b1 bc 95 f1 11 3c
       0.09848552 -0.040255923 -0.02166565 0.008907695
000100 4e 46 91 bc 01 a0 09 3e a2 65 16 3e 61 cc fc bd
       -0.01773372 0.13439943 0.14687207 -0.1234367
000110 ca 10 57 bd 3a c4 3e 3d 10 df 94 bd 88 9e c7 bd
       -0.052506246 0.046573855 -0.07269108 -0.09747034
000120 8c a1 4c bd 6f 35 a0 be e4 ce c6 3d ea 4a 03 3e
       -0.04995875 -0.31290767 0.0970743 0.12821546
000130 21 1a ab bd 74 b2 16 3c 7c af 1d bd ad bc 92 bd
       -0.08354593 0.00919782 -0.038497433 -0.07164893
000140 b8 83 3c be 8b 77 c6 bd 66 5a 20 be ec 28 39 bd
       -0.18409622 -0.0969077 -0.15659484 -0.04520504
000150 d7 57 24 bd 48 32 9c be 8a b1 99 bc 44 ba da 3d
       -0.040122833 -0.30507112 -0.018761415 0.106800586
000160 19 69 c1 3c f3 dc a9 3d a9 35 92 3e 40 7c 20 3e
       0.023609685 0.08294096 0.28556564 0.15672398
000170 63 85 b4 bd ec 15 77 3e c2 f4 9f bd f3 63 7a 3e
       -0.08814504 0.24129456 -0.07810356 0.2445219
000180 1c 7c 82 bd 86 5d 62 be b8 1f ab bd b8 1a 6f bd
       -0.06371328 -0.22105989 -0.08355659 -0.05837509
000190 ac 01 a2 bd 20 a4 ee bd 98 da 9e bd 5a e3 b4 bc
       -0.07910475 -0.11652398 -0.07756537 -0.022081066
0001a0 17 90 10 bf c3 0d 5b bf 2e 09 80 3d 89 6f 10 bf
       -0.56469864 -0.85567874 0.06251751 -0.5642019
0001b0 1a 6e 72 bf e0 4e 61 bd aa 69 14 3e 5e f5 af bd
       -0.9469925 -0.05500686 0.14493433 -0.08591722
0001c0 c4 91 dd 3d e8 0e c7 3e 08 1e 1d bd b4 ec 0c 3f
       0.10818818 0.3887856 -0.03835872 0.5504868
0001d0 55 41 9c bc 0b 81 7c 3c 56 0b 65 bc 64 39 0e bd
       -0.019074121 0.015411626 -0.0139797535 -0.0347227
0001e0 9c b7 a6 3c f1 00 8c 3c 51 cb 78 3d ce 3f f1 bd
       0.020351224 0.017090293 0.060740773 -0.11779748
0001f0 ab e9 cb be 8e 33 7e 3e ee d5 b1 be d6 c5 b8 be
       -0.39826712 0.24824354 -0.34733528 -0.36088437
000200 32 86 d8 3e a2 be 47 3f 89 2d b8 bc f2 a1 43 be
       0.42289883 0.7802526 -0.02248265 -0.19104746
000210 34 80 5d be 48 9d d2 3d b8 91 8d 3e 2d 0c dd 3e
       -0.21630937 0.10283905 0.27650237 0.43173352
000220 89 dc a7 3e 30 7f a1 be b5 a9 b8 3d b0 09 02 3e
       0.32785442 -0.3154235 0.09016744 0.12699008
000230 64 71 1d 3f c7 3a 7d 3f 6c 25 59 3c fa 48 16 bc
       0.61501145 0.9891781 0.013253551 -0.009172672
000240 ca 47 3e be 39 b2 25 bd e1 d5 e7 3e 92 07 80 3e
       -0.18582073 -0.04045317 0.45280364 0.25005776
000250 62 ac 9d 3e c6 98 03 bf b1 4e 1f be 5c 17 cb 3d
       0.3079558 -0.5140499 -0.15557362 0.09916565
000260 d5 a0 a9 3d 49 8f 11 bd 6f 4d 91 bd c3 0a 18 bc
       0.082826294 -0.035537038 -0.070948474 -0.00927991
000270 92 bf 2c bc 2d 4e af 3d cd ec b1 3d aa 7a 27 bd
       -0.010543721 0.08559833 0.08687744 -0.040888466
000280 7b ea 6a bd 60 b7 06 3c c7 00 66 bd d1 9d 67 bd
       -0.057352524 0.008222431 -0.056153085 -0.05654699
000290 99 7c 25 3d 3c b8 77 3d 1f 9a 03 bd e8 a3 8c 3d
       0.04040203 0.060478434 -0.032129403 0.068672
0002a0 57 45 f6 bb be 82 ab 3d 6a 47 9b bd ad 45 04 3e
       -0.00751559 0.083745465 -0.075819805 0.12917204
0002b0 0c 65 a8 3d 6d de 5e 3d 68 da c4 bd 04 f7 8b 3c
       0.08222398 0.05441134 -0.0961197 0.01708556
0002c0 72 cc 84 bd d2 0a 11 3c 19 ad bd 3d 8a 94 16 3e
       -0.06484307 0.008852677 0.092615314 0.147051
0002d0 0d 7c 03 3e 8d fb 7e bd d4 e8 33 3e bf bc 58 3d
       0.1284029 -0.062251616 0.17569286 0.052914377
0002e0 d3 e8 a2 3b b1 ae 1f 3d 13 34 e6 3d bd e0 76 3e
       0.0049716025 0.038984958 0.11240401 0.24109168
0002f0 97 63 e2 3e 28 7e 3f bb 62 eb ba 3e df d2 c3 3e
       0.44216606 -0.0029219482 0.36507708 0.3824682
000300 0a 36 d4 3d fb 53 21 3d 48 05 0b 3e cb 23 77 3d
       0.1036187 0.03938673 0.13576233 0.06033687
000310 03 a2 43 be 5e 1c 51 3e bf 3d 49 3e 6d c7 69 3d
       -0.19104771 0.20420977 0.1965246 0.057074953
000320 43 1d bc bd 07 d0 d4 3c 5a 9e a0 bd 4e 73 28 3d
       -0.09185269 0.025978101 -0.07842703 0.041125588
000330 89 7f 1b be fb 1f 8f 3d 81 58 7a 3d 77 4b 84 bd
       -0.1518537 0.06988522 0.06111956 -0.06459706
000340 76 52 53 be 27 db 54 3f 8a bd 42 3e 85 c0 43 be
       -0.20636925 0.831469 0.19017616 -0.19116409
000350 d8 ff 78 3f 17 9c 7e 3e ae f7 97 3c 9c 7c 98 3e
       0.97265387 0.24864231 0.01855072 0.2978257
000360 53 1f 86 bd 71 63 59 be 22 5d 35 bd e1 84 06 be
       -0.06548943 -0.2122934 -0.04427827 -0.13136627
000370 9e eb 2f 3c 1e 01 16 bd 0f 1c 36 bc 0a 8c 28 3c
       0.010737328 -0.03662216 -0.011115088 0.010287294
000380 95 c7 08 3e bd 63 9c bd 0f 11 58 be d4 07 5c 3e
       0.13357385 -0.07636211 -0.21100257 0.21487361
000390 94 4b 0d be 67 7a 59 be a8 d8 cf 3e bc 46 95 bc
       -0.13798362 -0.21238099 0.40594983 -0.018222205
0003a0 c3 e9 e1 be 43 d0 6b 3e da 0a 5c 3d ad 01 41 3c
       -0.4412366 0.23028664 0.053721286 0.011780185
0003b0 c1 fd 21 3e 39 95 f3 be ce fb 93 3b 87 74 25 bf
       0.15819456 -0.47574785 0.0045161014 -0.6463093
0003c0 3f 91 a3 3e c3 a5 ca 3d 03 61 88 3d 7b 12 e2 3d
       0.3194675 0.09894898 0.066591285 0.11038681
0003d0 d0 2c 1a bf b2 28 5a 3e d6 1b b8 bd 14 99 8c 3d
       -0.6022463 0.21304587 -0.08989684 0.06865135
0003e0 16 b7 d9 3c e4 38 fe be be 51 c3 3d c6 a2 f7 be
       0.02657656 -0.4965278 0.095370755 -0.48366374
0003f0 a6 97 a7 3e 9c 3b 75 3e 78 4c 00 3d 2b 3b 5d 3d
       0.32732886 0.2394852 0.031322926 0.054011505

0.bias f4 [128]
000000 21 e9 e6 bd 7a 3a b6 bd 74 7d 6e be b8 36 0c 3d
       -0.112749346 -0.08897872 -0.23290044 0.03423187
000010 01 ce f6 3d 50 ea dd bd 1b 2e 0e be f4 64 9d bc
       0.12051011 -0.10835707 -0.13884775 -0.019213177
000020 41 63 c7 bd bb d3 2d 3c 95 a3 36 3d d9 1a 69 3c
       -0.09735728 0.0106095625 0.044589598 0.014227592
000030 d1 2f 00 be 8e cc df 39 76 dc d2 bd 52 de 1a 3e
       -0.1251824 0.0004268628 -0.10295956 0.15123871
000040 e9 c6 ad 3d db 33 97 bd 5b 98 01 3d d4 bf 5d bb
       0.08485205 -0.073829375 0.031639438 -0.0033836262
000050 3f 2b 9d bd 8f 91 18 3c 56 cd 0a 3d 8d 31 01 3d
       -0.07674264 0.009312048 0.03388723 0.031541396
000060 6a fd 35 bd d5 6f ae bd f7 fa a4 3c 41 f0 78 bd
       -0.044431128 -0.08517424 0.0201392 -0.060776
000070 de dc 7f 3d 26 bd d9 3d 67 8e e8 3c 27 4c 07 bc
       0.062466495 0.1063178 0.028388215 -0.008257902
000080 e1 09 aa 3c 2d 0e 21 be 1b 9e d8 3d bf 90 de bd
       0.020756664 -0.15728064 0.10577031 -0.10867452
000090 6d 57 f2 bd f4 3f ab 3c 4a bf 07 be 70 bb 92 bd
       -0.118330814 0.020904519 -0.13256565 -0.07164657
0000a0 e0 9e e1 3c 8e a5 71 be ce 0e da 3c 6f ad 6a bd
       0.027541578 -0.2359831 0.026618388 -0.057294305
0000b0 c2 fc d8 bc b2 1b fc bc 83 49 2d 3d 7f 9b 11 be
       -0.026487712 -0.030774925 0.042306434 -0.14219473
0000c0 3c 75 30 3d cc 07 97 3d fb b3 45 bd f9 ff 6b bd
       0.043080553 0.07374534 -0.048267346 -0.05761716
0000d0 18 77 2c 3c aa aa 23 bd ae 3c 75 bd dc 4d e8 bc
       0.010526441 -0.03995768 -0.05987232 -0.028357439
0000e0 da 4a 7e bd 37 c2 11 be 39 1d 47 bd 92 b7 a9 bc
       -0.062083103 -0.14234243 -0.048611853 -0.020717416
0000f0 a2 e7 65 be 93 f5 ca bc 3a f7 07 be e1 2a 52 bd
       -0.22451642 -0.024775302 -0.13277903 -0.051310424
000100 b1 3a 27 bd c7 06 df 3d 1c 8d 84 bc 7d 1d d0 bb
       -0.040827457 0.108899646 -0.016180567 -0.0063511715
000110 2e bf 55 3d 9e 3f 4c 3b db 1f 5d 3d b6 50 49 bd
       0.052184276 0.0031165848 0.053985458 -0.049149238
000120 1a 7e 03 be 9c ad 0c bd a2 15 fe bd 2b 31 5d 3c
       -0.12841073 -0.034345254 -0.1240647 0.013500492
000130 a2 9b 8a bc d9 af f9 3a 2a b7 f8 bc 1b 1d b9 3d
       -0.016919915 0.0019049599 -0.030360777 0.090387546
000140 f0 89 dc be a3 08 38 be cd 9e 74 bd 2d ff 85 bd
       -0.43073988 -0.17972045 -0.059721757 -0.065428115
000150 10 30 49 3d 93 c5 fd 3d 9c 7a 0a be b5 fb 03 be
       0.0491181 0.123912 -0.13523334 -0.12888987
000160 3d 59 a3 b9 14 5a e1 bd 5a 34 67 bd 39 8b f2 3d
       -0.0003115627 -0.11003509 -0.05644641 0.11842961
000170 06 20 ea 3b cc ce e3 bc d1 ca 5c bd 9a f2 96 3d
       0.007144931 -0.02780857 -0.05390436 0.07370491
000180 d9 44 4b bd e5 01 c3 3d 2a 4a d1 bb 08 4f fd 3d
       -0.049626205 0.09521846 -0.006387015 0.1236859
000190 da b3 8c 3d 2a 3e 85 bd 6e a1 d5 bc 41 4b 97 bc
       0.068702415 -0.065059975 -0.026077952 -0.018468501
0001a0 2b 0b 0a bd 77 1b dd bd 7c f5 d4 bd 58 a4 a8 3d
       -0.033702057 -0.10796254 -0.10398385 0.08234471
0001b0 c1 2c 86 3c 13 66 cf bd d4 a9 65 3d c8 0d 20 bd
       0.016378762 -0.10126891 0.056070164 -0.039075643
0001c0 fe a6 a8 bc 86 59 b1 bd b5 a6 84 bd d2 7e bf 3d
       -0.02058744 -0.08659653 -0.06477109 0.09350361
0001d0 d9 fb 87 bd 2e 50 bd bd 70 aa 35 3d 06 3b 98 bd
       -0.06639833 -0.09243809 0.044351995 -0.07433133
0001e0 2c 43 ae 3d 42 d9 22 3c eb 41 0b be c9 b7 07 3d
       0.08508906 0.009939494 -0.13599364 0.033134256
0001f0 f1 72 35 3d 4f 70 f8 bd 7f 45 8c 3d 25 10 fe bd
       0.04429907 -0.12130796 0.06849193 -0.12405423

2.weight f4 [128, 128]
000000 11 36 29 3e 0c 12 9b 3d 7f a6 35 3d f2 2b 28 be
       0.16524531 0.075718015 0.044348236 -0.16423014
000010 60 10 1e 3e 10 23 77 be 6c f3 dc 3c 8b d4 3c bd
       0.15435934 -0.24134469 0.026971541 -0.046101134
000020 a6 2c 2b bd b1 8d 9d 3c e7 8f cf 3d ea a9 d5 3d
       -0.041790627 0.019232603 0.10134869 0.10432799
000030 28 cf 70 3d 8c bc 27 3e 2a 47 be bd d7 48 76 bd
       0.05879131 0.16380519 -0.09290917 -0.06012806
000040 da 65 4d be f8 16 19 bd 81 4a 56 be 06 06 dc bb
       -0.20058385 -0.03737542 -0.20926858 -0.0067145852
000050 04 8c 0e 3d 99 dd 1c bc 56 dc 17 bb 0e ee 6d 3c
       0.034801498 -0.009574317 -0.0023172102 0.014522089
000060 ba 87 c8 3d 9a 06 3b bd 56 07 0e bd d9 b5 10 bd
       0.09791513 -0.045660593 -0.034674965 -0.035329673
000070 18 bf 11 bc 8e 8d 10 be e4 01 15 bd 72 c6 1a bc
       -0.008895658 -0.14116499 -0.036378756 -0.009446727
000080 58 a4 15 3e d1 e2 09 be e5 f6 16 be 43 c5 bd bd
       0.14613473 -0.1346543 -0.1474262 -0.0926614
000090 91 08 13 bd 38 f7 63 3d 5e 2a 5a 3d 21 38 80 bd
       -0.03589684 0.055655688 0.05326306 -0.06260706
0000a0 1e b6 5b 3c a0 af 88 3c bc 5d 60 be 3c 76 29 bd
       0.013410119 0.016685307 -0.21910757 -0.041372523
0000b0 27 0d 9f 3d 00 c4 0f 3e b6 df 55 3d d6 6f 05 3d
       0.077661805 0.14039612 0.0522153 0.03257736
0000c0 2e 87 9b 3c 08 d1 ab bd c5 b2 65 be 63 f7 e8 bd
       0.018985357 -0.08389479 -0.22431476 -0.1137531
0000d0 a3 47 ef 3d 88 ef 18 3e b6 ae 9a bd 34 22 56 be
       0.116835855 0.14935124 -0.07552855 -0.20911485
0000e0 f3 77 eb bd 90 e5 12 bc 88 01 df 3d f0 3b 38 3c
       -0.11497488 -0.008965865 0.10888964 0.011244759
0000f0 02 48 60 bc 0d 54 a6 3c 56 07 7e 3e b7 01 c1 bd
       -0.013689043 0.02030375 0.24807486 -0.09424155
000100 c6 38 01 3d e8 08 0b bc b8 98 55 bd f9 8f a4 3d
       0.031548284 -0.00848601 -0.052147597 0.08035273
000110 a7 10 db 3c 60 71 a8 bd 26 6e 8c 3c 6e da 9c 3c
       0.026741339 -0.082247496 0.017142367 0.019147124
000120 fe 30 b1 3d da 02 a4 3d 90 60 23 bd 86 a1 d7 3d
       0.08651923 0.080083564 -0.03988701 0.10528855
000130 96 9a 0a be 5e e4 1b be 74 c4 a3 3d e2 42 16 be
       -0.13535532 -0.15223834 0.07996455 -0.14673951
000140 40 dc 29 3d 13 d7 04 3d fc 9d a7 bc 39 79 d2 bb
       0.041469812 0.032431673 -0.020461075 -0.0064231423
000150 57 a3 07 be 21 d4 ac 3c 2b b9 c7 bb 72 ae 21 3e
       -0.13245903 0.021097245 -0.006095072 0.15789202
000160 02 8d 12 3c cb b0 ee 39 9e f8 0c 3d 18 bd 15 be
       0.008944752 0.00045526618 0.034416787 -0.14622915
000170 65 9c 1d 3d 17 5e aa 3c be 71 d4 3d 33 34 2e bc
       0.038479228 0.020796819 0.10373257 -0.010632562
000180 b1 f2 4b bb 29 0a b5 bb b8 61 99 3c fd 75 b4 3c
       -0.0031119997 -0.005524893 0.018723354 0.022028917
000190 9f 35 c5 bd 57 ee a1 bd 0a d0 39 be dd 7e ac bd
       -0.09629368 -0.07906788 -0.18145767 -0.08422635
0001a0 49 9a e8 bd 91 81 85 bd c0 92 91 3d 76 42 e4 3c
       -0.113575526 -0.065188535 0.071080685 0.027863722
0001b0 93 3b 44 3d a3 dd 87 bd 1d 21 91 3d ce c8 d7 bd
       0.047908377 -0.06634071 0.07086394 -0.10536347
0001c0 6d e0 8c bd 41 22 1f bd 9e 2d f4 bd a4 a2 c2 be
       -0.06878743 -0.038851026 -0.11922763 -0.3801471
0001d0 c7 25 89 3d f8 88 c1 3d 0f 2b f9 3a da f6 1c 3d
       0.066966586 0.09449953 0.0019010025 0.038321353
0001e0 51 1e 28 3d d8 50 6c 3c 51 d1 e9 3c 9d a0 07 3d
       0.041044537 0.0144235715 0.028542193 0.033112157
0001f0 46 79 8b bd 8b d8 4c be b8 a9 1c bf 5c ad 07 bd
       -0.068102404 -0.2000448 -0.6119647 -0.033124313
000200 db 51 42 3e d1 19 ff bc b9 b5 58 be 38 7a bf 3d
       0.18976538 -0.03114024 -0.21163072 0.09349483
000210 62 69 9f bd 68 22 3f 3e 67 a0 6a bd dc 4b b1 bc
       -0.07783772 0.18665469 -0.057281878 -0.021642618
000220 e9 10 25 3e 02 0e 4e bd d2 8c 8c be a4 3f 39 3e
       0.16119732 -0.050306328 -0.27451187 0.18090683
000230 9c 83 9e 3d 5f 3e 7c 3c 4e 67 5e be 7a da fc 3d
       0.07739946 0.01539573 -0.21719095 0.123463586
000240 fe 8a 52 be e1 26 56 bc e8 4c 05 be 3d 89 05 3e
       -0.20560834 -0.013070793 -0.13017619 0.13040633
000250 5e 2a ae 3c 5b a1 87 3d 8c f5 2a 3d 74 89 cf bd
       0.021260437 0.06622573 0.041738078 -0.10133639
000260 94 45 99 bd 23 68 bd bd 06 9a a5 bd fe 7e 12 bc
       -0.07483974 -0.09248378 -0.08086018 -0.00894141
000270 52 08 b9 3d f6 7d 15 3d db cd e2 3c 00 46 24 bd
       0.0903479 0.03649708 0.02768605 -0.04010582
000280 4c b5 ed bd 8b b3 35 be c5 ce be 3c 26 1b aa bd
       -0.11606845 -0.17744271 0.023291955 -0.083059594
000290 ad 94 0a 3e fc 1c 40 be c2 9d 62 bb 99 94 a8 bc
       0.13533278 -0.18761057 -0.0034578894 -0.02057867
0002a0 b4 b2 ed bd a1 e3 ff 3b ee c8 50 3d e2 7a 8b bd
       -0.116063505 0.007809118 0.05097287 -0.068105474
0002b0 8f 63 10 be 29 d4 b0 bc 4a 4d 01 3e 0e 35 24 bc
       -0.14100479 -0.02158554 0.1262714 -0.010022415
0002c0 d1 cc be 3d f6 ba 49 3d 93 74 20 be e3 75 80 be
       0.093164094 0.049250565 -0.1566947 -0.2508994
0002d0 ee 44 9e bc c5 b5 05 be e7 ce c5 bd e4 8d f0 bc
       -0.019319978 -0.13057621 -0.09658604 -0.029364534
0002e0 95 2c bf bd 3b 32 d6 bb 29 72 19 3e c1 c9 17 be
       -0.09334675 -0.0065367497 0.14984955 -0.14823057
0002f0 fd b1 e7 bd 39 f6 aa 3d f5 33 e0 bd 38 f0 91 be
       -0.113132454 0.083477445 -0.1094741 -0.28503585
000300 ad ff 80 3d bc 08 17 bd e7 6f a8 3c a1 a5 59 3d
       0.06298766 -0.036873564 0.020561172 0.05313647
000310 27 d6 58 3e cd 19 19 3d 50 5d 3d be e9 e5 26 3d
       0.21175443 0.03737812 -0.18492627 0.040746603
000320 2a c1 0d 3d e4 84 9a bc 31 c7 75 3d 21 1b 41 3b
       0.034608044 -0.018862195 0.060004417 0.0029465633
000330 bd d4 83 3d 8f d3 00 3e 44 37 26 3d 42 7e 36 bc
       0.06437061 0.12580703 0.04058005 -0.011138501
000340 b7 ca ce 39 09 99 02 3d 5a 6f 97 be 33 3c 84 3d
       0.00039442416 0.031884227 -0.29577142 0.064567946
000350 fd c4 9a bd 2f ac 4d bd 3e 38 d9 bd 30 e0 74 bb
       -0.07557104 -0.050213035 -0.106064305 -0.0037365071
000360 ca b8 b7 3c 5f 8a 8c bd 78 68 74 3e 84 e6 10 3c
       0.022426981 -0.0686233 0.23867977 0.008844022
000370 3d 07 62 bc df ba 59 3d 5e a0 0a bd 70 bd 13 be
       -0.013795671 0.05315673 -0.033844344 -0.14427733
000380 32 8a 4d 3c 4a 80 91 3d 0d 20 8e be 57 b1 10 be
       0.012545155 0.07104547 -0.27758828 -0.1413015
000390 fd 0d 17 3e 23 16 a7 bd 6c 73 5b bc 9b de 5f 3d
       0.1475143 -0.08158519 -0.013394218 0.054655652
0003a0 0b ab 8e bb 71 57 bd bd 5c 6b ee bd a0 86 0b 3d
       -0.004353886 -0.09245194 -0.11641571 0.034063935
0003b0 6e 40 cd 3d 6a 61 9c 3c b9 fb c0 3c ee a4 d6 3a
       0.100220546 0.01908942 0.02355753 0.0016376057
0003c0 28 5e be bd 0e 6e 94 3d 09 0e bf bc 23 50 45 be
       -0.09295303 0.07247554 -0.023322122 -0.19268851
0003d0 be 5b 51 3d a6 69 c2 bc ec a9 26 3d 29 67 0b 3e
       0.051112883 -0.023732018 0.040689394 0.13613571
0003e0 e7 84 0f 3d 83 49 6d 3c 47 73 29 3e 1b 63 34 3d
       0.035038855 0.014482859 0.16547881 0.044039827
0003f0 c9 0a 93 3e d5 c9 55 be f4 f3 92 be ab 9f ae 3d
       0.28719166 -0.20877774 -0.28701746 0.08526548

2.bias f4 [128]
000000 9d d3 a9 bc 00 1f 10 be 6a 2b 48 be a8 7d 05 3c
       -0.020730788 -0.14074326 -0.19547811 0.008147635
000010 2e b8 c3 3c a9 5a 38 be 1c 15 bf bd 8b 4e 1f bd
       0.023891535 -0.18003334 -0.09330198 -0.038893264
000020 68 b4 c4 bd ad 42 7b be f6 83 e8 3d d0 24 38 3a
       -0.09604722 -0.24537154 0.113532946 0.00070245285
000030 87 86 80 bd 6d 95 bb bd 10 c0 bc bc 6a c4 aa bc
       -0.06275659 -0.0915936 -0.023040801 -0.02084561
000040 67 35 5d bd 8a ec 05 be 42 45 80 bc 91 ed 21 bd
       -0.054006007 -0.13078514 -0.015658025 -0.0395332
000050 4b 04 44 be de b7 92 bc 6e 53 31 3d 55 55 c6 bd
       -0.19142263 -0.01790994 0.043292455 -0.096842445
000060 a5 f5 cf bd 3f 69 02 be 15 95 b2 bd 49 b3 d6 bd
       -0.10154275 -0.1273546 -0.087198414 -0.10483415
000070 c5 79 0d 3c f8 1c 5e 3c c9 61 0f be 2a 2b a0 bd
       0.008634989 0.013556711 -0.14002146 -0.07820733
000080 60 52 66 ba a9 ba 3d be eb f9 d6 bc 74 9c a0 be
       -0.00087860785 -0.18528236 -0.026242217 -0.31369364
000090 0a 29 07 be c3 a6 fe 3c 10 c9 51 be 60 f4 a7 bd
       -0.13199249 0.031085378 -0.20486856 -0.08200908
0000a0 b5 d3 e4 bb 87 a8 78 bc 8e d9 41 3d 50 4e be be
       -0.0069832453 -0.015176899 0.047326617 -0.37169123
0000b0 d6 b9 16 be ec 8b 9e 3c 2e 46 fc bc 71 c3 18 be
       -0.14719328 0.01935383 -0.030795183 -0.14918305
0000c0 09 6d 76 bd d3 52 b8 3c 6c b6 c1 bd b5 8e ce bd
       -0.060162578 0.022500431 -0.09458622 -0.10085813
0000d0 ce 3a 3a bd 00 e7 20 bd 51 55 22 3a 3f 21 0c be
       -0.045466237 -0.0392828 0.00061925227 -0.13684557
0000e0 2b 56 91 be 03 b2 50 3d 15 75 fc bd 69 90 1c be
       -0.28386053 0.050951015 -0.12327019 -0.15289463
0000f0 a5 55 43 bd 8f 94 65 bd 1e 1b 06 be e9 41 70 be
       -0.0476891 -0.05604988 -0.13096282 -0.23462643
000100 21 a4 d5 3d f7 d0 95 bd 84 8c df bd 56 f8 f2 bd
       0.10431696 -0.073152475 -0.10915473 -0.118637726
000110 81 4a db bd 4a a3 fe bd 13 be cd bd 9e 5e e7 bd
       -0.1070757 -0.12433489 -0.100460194 -0.11297344
000120 ca e0 a9 3d 8e bc 3b be 79 9b 7b 3c fc 4b 0a bd
       0.08294828 -0.18333647 0.015356892 -0.03376387
000130 15 81 99 bd e5 90 a5 3b 6f bf c7 bd cf 4f df 3c
       -0.074953236 0.005052673 -0.0975331 0.027259735
000140 21 b9 36 3c 53 8c 2b be 01 df f7 bb 08 1a 04 bc
       0.011152537 -0.16752748 -0.007564426 -0.008062847
000150 16 cf 49 bd 06 ff 1b 3d f6 39 63 bc 88 92 08 3d
       -0.04926976 0.038085006 -0.013868799 0.033342868
000160 0d 78 93 bd 17 14 7f be 7e b1 17 3c 0e 76 97 bd
       -0.07200632 -0.24910007 0.009258626 -0.07395564
000170 28 78 32 be ae 3d de bc 8b a5 0e bc 29 9d 08 bd
       -0.17428648 -0.02712902 -0.008706461 -0.033353005
000180 20 f7 0b be e3 24 ee bc 65 ab cb bd fe 0e cf 3d
       -0.1366849 -0.029070323 -0.099448 0.101102814
000190 20 3d 48 be f3 97 03 3d 60 53 c3 bd 0e 3b 9e bc
       -0.19554567 0.032127332 -0.09537387 -0.019315269
0001a0 ee 7b dc bd 6b 8e 07 3d 28 07 45 3d 51 77 d5 bb
       -0.10765825 0.033094805 0.048102528 -0.0065144678
0001b0 fb e7 a5 bd 0b 0a 82 bd f3 4c 1c be c8 12 13 be
       -0.081008874 -0.06349572 -0.15263729 -0.14362633
0001c0 47 02 db bc c6 cc c4 bd 09 38 e4 3d 6e 3f 99 bc
       -0.026734484 -0.0960937 0.111435 -0.018707003
0001d0 86 23 d7 bd 38 19 4f bd 87 fd 7d be b5 a1 c8 bd
       -0.105048224 -0.05056116 -0.24803744 -0.09796468
0001e0 3d 5a e7 bd 4f d0 f1 3d 85 b1 66 bd ad a1 17 be
       -0.112965085 0.1180731 -0.05632164 -0.14807768
0001f0 3c cb 8d be 36 90 41 bd 18 b1 24 bb 1c 33 fa 3d
       -0.27694118 -0.04725667 -0.002512997 0.122167796

4.weight f4 [128, 128]
000000 5d ae a3 b9 84 3b 35 3b 2d da e4 bc bf b9 86 3d
       -0.00031219693 0.0027653882 -0.027936066 0.06578397
000010 10 66 be 3b 27 4b 1b be d5 53 87 3d 0f 17 15 3d
       0.0058105066 -0.15165387 0.066077866 0.036398944
000020 89 76 47 bd c4 1d b6 3c 45 c7 9e bd 6e d3 dd bd
       -0.04869703 0.02223099 -0.077528514 -0.10831343
000030 7b 95 ab 3c 1c 67 f4 bd e4 cd 7b 3d 24 0a 2b 3d
       0.020945301 -0.11933729 0.06147565 0.041757718
000040 a8 86 dc ba d5 f8 67 bd a2 72 d7 bc 1a 92 d8 bd
       -0.0016824799 -0.05663379 -0.026299778 -0.10574742
000050 2c b2 b4 bc 12 50 27 be ac 04 71 be 96 23 2b 3e
       -0.022057615 -0.16339138 -0.23536938 0.16712794
000060 0c 76 a7 bc db 7d 1f bd 39 6f 43 3e 3d 93 86 bd
       -0.020442031 -0.038938385 0.19085397 -0.06571052
000070 1a d7 74 3c 3f 61 66 3d 8b c9 e8 3d 82 f3 70 bd
       0.014943862 0.056245085 0.11366566 -0.058825977
000080 88 94 26 3c e3 3b cd 3b 3b dd 10 bd e4 e4 da bd
       0.010167249 0.0062632426 -0.03536723 -0.10688189
000090 24 19 cd bd c7 48 0a be d0 96 c1 3d e9 86 07 3e
       -0.10014561 -0.13504325 0.09452593 0.13235058
0000a0 a7 3c 90 be d8 8b 45 3d bd 1c 50 3d 54 52 e3 ba
       -0.28171274 0.04822907 0.050808657 -0.0017343261
0000b0 f2 00 3c bb 30 fe 51 be 57 50 00 bd 17 39 27 be
       -0.0028687087 -0.20507121 -0.031326618 -0.16330372
0000c0 25 18 20 be 2b b7 ea bc ac 8b 64 be 3d d4 42 3d
       -0.1563421 -0.028651794 -0.22318906 0.047565687
0000d0 f9 d7 35 3d 65 da ce 3d 69 0a 46 3d 75 de 49 3e
       0.04439542 0.10100249 0.04834977 0.19713767
0000e0 99 c0 2f 3d 41 17 99 3a 18 10 1a 3e 03 2f 84 3d
       0.042908285 0.0011679904 0.15045202 0.06454279
0000f0 3c e4 12 be 0d ec a0 bd 4d 96 72 bd f3 6f 06 3d
       -0.14344877 -0.07857523 -0.05922537 0.032821607
000100 fb d1 16 3e c5 70 89 bd db 96 ee 3d 25 b3 a3 3d
       0.14728539 -0.06710962 0.11649867 0.079931535
000110 4c 83 02 be 23 42 db bc 56 45 88 3c 40 9b b4 ba
       -0.12745398 -0.026764935 0.016634624 -0.0013779178
000120 30 1d 30 3d ff 80 81 bd 50 3a c6 3c 82 58 22 bd
       0.042996585 -0.06323432 0.024197727 -0.03963519
000130 5c 41 b4 bd c6 30 e1 3d 18 76 23 3d 44 57 1d 3d
       -0.08801529 0.10995631 0.039907545 0.0384133
000140 b6 0a 7c 3d 43 22 c1 3c bb 3d d8 3d 0c 73 86 bd
       0.061533652 0.023575908 0.10558649 -0.06564912
000150 e1 9e 8e bd fe f4 42 bd 16 df 25 3e dc 19 77 3b
       -0.069638975 -0.047596924 0.16198382 0.0037704622
000160 61 34 b3 3c 4d 2e 81 3d 7a dd 21 be c5 e1 14 bd
       0.021875562 0.06307659 -0.15807143 -0.036348123
000170 5b cc a6 3d 41 76 9b 3c 21 35 d8 3b 09 56 85 be
       0.081444465 0.018977286 0.0065981303 -0.26042202
000180 d1 f5 10 3c 3a 28 f1 3d 1c 17 c6 bd b0 6b a3 3c
       0.00884767 0.11775251 -0.096723765 0.01994881
000190 2e 8c 36 3d 89 98 c0 bd 07 0f 2f 3e 04 d6 da 3c
       0.04456728 -0.09404094 0.17095576 0.026713379
0001a0 4c 56 57 bc 8d 4a 5b bd 9e ca 34 bd c8 23 ed bd
       -0.013143133 -0.053537894 -0.044138543 -0.1157909
0001b0 b0 b4 2b bd db e3 c8 bd 22 84 93 3d a1 30 d4 bc
       -0.041920364 -0.09809085 0.07202937 -0.025902094
0001c0 39 44 c1 3c 54 28 1f 3c a2 97 d1 bc b7 70 09 bd
       0.023592101 0.009714205 -0.025585 -0.03355476
0001d0 f7 45 f5 3c 63 09 9e 3d c4 33 21 3e e2 0c e0 bb
       0.029940588 0.07716634 0.15742403 -0.0068374733
0001e0 af 10 26 be 3a 02 ee bc 16 d1 1a bd 94 ef c3 3d
       -0.16217302 -0.029053796 -0.037797056 0.0956718
0001f0 69 05 4d bd 27 03 47 3d d8 3c 4c bd 74 b1 18 be
       -0.050053988 0.04858699 -0.049862713 -0.14911443
000200 39 6d 3c bd 8f 6f 21 bd 30 93 56 3d e8 35 ae 3c
       -0.0460026 -0.03941303 0.052386463 0.021265939
000210 59 b6 11 be be 15 72 3d 66 9d a0 3d de 4c 19 3e
       -0.14229716 0.059102766 0.07842521 0.14970729
000220 ce 51 1e be e7 b6 50 bd 12 e1 41 3c 7d f4 12 bd
       -0.15460894 -0.05095568 0.011833446 -0.035877693
000230 25 1a 0f bd b1 2c 80 3d b8 76 55 be 1e db 72 3d
       -0.034937043 0.06258524 -0.20846069 0.059290998
000240 28 b9 d5 bd 7c 32 b8 bd 36 c9 f9 bd cb 13 09 3d
       -0.104357064 -0.08994004 -0.12196581 0.03346614
000250 8d ba a1 3c 7a 99 99 3d db 4b 3c be 98 05 02 3e
       0.019742275 0.074999765 -0.18388312 0.12697446
000260 2d c5 b1 bd 56 a0 b4 3c 6a 5a d7 3d 86 30 53 bd
       -0.086801864 0.02204911 0.10515292 -0.051559947
000270 44 c7 73 be e0 89 73 3b c7 36 04 3d 3f 53 dd bc
       -0.23806483 0.0037161037 0.032278802 -0.027017234
000280 6b 48 62 bd 4d 50 11 be 4f ed ab 3c 47 bd aa bd
       -0.055244844 -0.14190789 0.020987181 -0.08336883
000290 7d 92 27 3b 98 99 1c be 88 69 17 3e 39 e9 5b be
       0.0025569492 -0.15292966 0.1478635 -0.21475686
0002a0 dd f6 1e 3c 2b cd 36 3e 84 36 10 be 68 98 a9 3d
       0.0097024115 0.17851703 -0.14083296 0.08281022
0002b0 79 6e 63 3c 89 01 0b 3c f2 f8 09 3e 76 5e 8b bd
       0.013881319 0.008484253 0.13473871 -0.06805126
0002c0 71 b7 67 3d 2e 79 4e 3d 33 d1 02 3d eb 95 01 3d
       0.056571428 0.050408535 0.03193779 0.031637114
0002d0 33 fe 61 3e 1a c5 ae 3d 14 99 5b be ac f2 95 bd
       0.22069626 0.08533688 -0.21445113 -0.073216766
0002e0 6f 7b 47 3e 80 9a e3 3d 63 56 7c bd d3 a8 b2 3d
       0.1948068 0.11113453 -0.061605822 0.08723607
0002f0 89 a1 c7 3c cd 07 9f bd ca e0 27 3e 74 3f 8d 3c
       0.024369018 -0.0776516 0.16394344 0.01724217
000300 28 d4 60 3d ec 63 a1 3d fb 92 29 bc 6d a0 df bb
       0.054889828 0.07880387 -0.010349984 -0.006824544
000310 36 43 ac 3d a3 4a 84 bc 4d ae cc bd 25 3e a5 bc
       0.08411257 -0.01614887 -0.09994183 -0.020171234
000320 4d c3 a9 bd ea ba 60 3d ea 6a f1 3c 10 9a 3d 3c
       -0.08289204 0.054865755 0.029469926 0.011572376
000330 5f 8f b2 bd 54 de 9c 3d c7 a5 13 3d 6f 67 0f be
       -0.08718752 0.07659593 0.03604677 -0.140043
000340 ef f8 ae 3b 0f ed 13 3d 10 82 49 3d 42 30 c0 bd
       0.005339734 0.03611475 0.049196303 -0.093842044
000350 b3 c3 6f 3d a1 a5 fc 3d a3 c9 ed bc fe e5 46 be
       0.058536243 0.12336279 -0.029026812 -0.19423673
000360 f3 c0 7b 3c 2e 08 a1 3d a8 81 80 bc 83 e8 27 3e
       0.015365827 0.07862888 -0.015686825 0.1639729
000370 19 26 2c be 97 7c 63 b9 c6 92 7c bd e0 cd a2 bc
       -0.16811408 -0.0002169482 -0.06166341 -0.01987356
000380 f9 62 9c bd 96 b2 43 3d 8a 43 60 3d a0 8a 1a bd
       -0.07636065 0.047777735 0.05475191 -0.03772986
000390 0c 3a 49 3c b4 bd b2 bd 97 2e 50 3e 65 4c 29 bd
       0.012281906 -0.08727589 0.20330273 -0.04133262
0003a0 c4 cc 22 bd c7 fa a9 bd c2 13 72 be 06 49 6a bd
       -0.03974606 -0.08299785 -0.2364035 -0.057198547
0003b0 09 67 9c 3d a7 ee da 3d 02 bd 5a 3d f9 c0 14 3e
       0.0763684 0.106900506 0.05340291 0.14526738
0003c0 09 cf 1e 3b 0c 2c 9b 3d 60 94 a9 3d 7c 80 f6 bc
       0.002423229 0.07576761 0.082802534 -0.030090563
0003d0 63 1f 04 be 49 33 61 be bb 5a ca 3d 4d f2 a2 bd
       -0.12902598 -0.2199222 0.09880587 -0.079563715
0003e0 62 6e 40 bd 7e e9 88 3d 1a 71 c4 bd d7 57 69 3d
       -0.04698027 0.0668516 -0.09591885 0.056968536
0003f0 4e 7c 13 3e eb 46 be bd 75 c4 a4 bd 1e da 32 be
       0.14402887 -0.0929087 -0.08045284 -0.17466018

4.bias f4 [128]
000000 24 e9 b1 bd 74 f0 0e be f9 b2 c7 3c c7 46 1d be
       -0.08687046 -0.13958913 0.024377333 -0.1535903
000010 75 05 e9 bd ab fd dd bd 2c 0f 8e bc 71 55 60 bd
       -0.11377994 -0.10839399 -0.017341219 -0.054768983
000020 aa 49 72 3c 74 e1 7e 3d 1e 97 03 be c0 ce ad bd
       0.014788071 0.062226728 -0.12850615 -0.084867
000030 f8 a1 b2 3c 10 74 51 bc a5 2c af bd ab 1d 1b be
       0.021805748 -0.012784019 -0.08553437 -0.15148036
000040 f9 90 2d be a8 31 74 be ba 0b 06 bd 7b 69 50 bd
       -0.16949834 -0.23847067 -0.032726027 -0.050881844
000050 b3 6e 64 bd f7 97 b7 3c d6 bd 7e bd 64 b0 14 bd
       -0.055769634 0.02241133 -0.06219276 -0.03630103
000060 df 4e 2a 3d ab 4d 0a be 80 74 c6 bb a9 55 68 3c
       0.041579124 -0.1350619 -0.0060563684 0.014180579
000070 2d e2 6d bc 9a e2 3b bb 8a 47 67 be d6 be 3f be
       -0.014519257 -0.0028669 -0.22585884 -0.18725142
000080 a4 c8 d5 bd 49 d9 fc bd 98 34 b8 bd 14 48 f6 bd
       -0.1043866 -0.12346131 -0.089944065 -0.120254666
000090 fc d5 08 bd 77 c9 08 be 29 d3 ea bc eb 61 52 bd
       -0.033407196 -0.13358103 -0.028665142 -0.051362913
0000a0 dd f8 01 be 6b 55 3c 3d ea 1a c3 bd 46 17 01 bc
       -0.1269259 0.0459799 -0.09526618 -0.007879084
0000b0 17 66 3f be 63 d8 40 be f5 fe 40 3d 68 99 3d be
       -0.18691288 -0.18832545 0.047118146 -0.18515551
0000c0 70 4b a7 3c e1 1a 7b be f8 60 52 be 14 bb 5f be
       0.020421714 -0.24521972 -0.20544803 -0.21848708
0000d0 7d f8 57 bc 8f 61 63 3b d5 8b a3 bd 95 6c 85 bd
       -0.013181803 0.00346956 -0.07985655 -0.06514851
0000e0 83 1f b1 bd 11 bf 9a bd 69 b1 a6 3d c1 7e 92 3d
       -0.086485885 -0.07555974 0.08139307 0.07153083
0000f0 92 22 4b be b9 86 a0 bb a4 25 a3 bd b7 52 2d bd
       -0.19837406 -0.0048988727 -0.07966164 -0.04231521
000100 2a 31 0a 3d 5b b2 07 be 11 bf 17 be c0 54 90 bd
       0.033738293 -0.13251631 -0.1481898 -0.07047415
000110 76 bb ce 3d 48 0d 95 be 74 59 58 bb 59 d7 7b bd
       0.10094349 -0.29111695 -0.0033012303 -0.06148467
000120 2e 95 3d bd c8 41 95 bd b6 e2 e0 bc d0 42 fd bd
       -0.046284847 -0.072879374 -0.027451854 -0.12366259
000130 86 31 35 3d 97 a7 e6 bd e6 d6 12 be e7 b3 12 be
       0.044236682 -0.11262434 -0.1433979 -0.1432644
000140 1c d6 3b be aa e0 5b bd 36 97 b0 bd ca b6 1f bd
       -0.18343395 -0.053681053 -0.08622591 -0.03899268
000150 5f 5e f0 bd f6 c6 34 3d 08 1e 04 3d 97 a3 3f be
       -0.1173675 0.044135056 0.032255203 -0.18714748
000160 05 2a 15 be 68 5d 05 bc 87 1a be bd 9a 5a 84 bd
       -0.1456681 -0.008139946 -0.092824034 -0.064625934
000170 eb 1f 94 bd 10 ff fc bd 20 41 01 be b1 3e a8 bd
       -0.0723265 -0.12353337 -0.126225 -0.082150824
000180 b6 b1 9d bd b3 5d 6c 3c f8 cf 1b be 39 3c 8b bd
       -0.07699911 0.0144266365 -0.15216053 -0.06798596
000190 f3 ec 6c bd 79 0e 26 be c8 d9 2a be e7 66 b1 bd
       -0.05784316 -0.16216458 -0.1668464 -0.08662205
0001a0 69 7d ae bd f7 b6 51 3c b7 9a 6c bd 56 fc a6 bd
       -0.08520014 0.01279997 -0.057764735 -0.08153598
0001b0 9c ae aa bd e9 43 36 bc c4 f5 8b be 58 7b be bd
       -0.08334085 -0.0111245895 -0.27335942 -0.0930087
0001c0 dc 2c e2 bc 9b 82 a1 3c 88 b0 b7 bd ee 43 72 3d
       -0.027609281 0.019715598 -0.089692175 0.059146814
0001d0 14 11 3b be e2 ba 90 3d 90 1c a5 bd fd 76 94 bc
       -0.18268234 0.07066895 -0.080620885 -0.018123144
0001e0 7c 92 e9 bd 9a 35 11 be d7 4c 1c 3d 67 93 86 be
       -0.11404893 -0.14180604 0.038159218 -0.26284334
0001f0 1b 93 41 be 3a 58 c6 bd a9 e7 f8 3b c3 91 25 3d
       -0.18903773 -0.09684797 0.0075959754 0.040422212

6.weight f4 [12, 128]
000000 8c 6d f8 3a 67 c7 51 bd 18 dd 14 3d 38 ca dc 3c
       0.0018953546 -0.051215556 0.036343664 0.026951894
000010 51 c6 c4 3b d6 01 0a be c7 aa 43 3c 7f 51 8a 3d
       0.0060050865 -0.13477263 0.011942572 0.067538254
000020 01 fa ff bc cf 1d 15 bd 50 09 1b 3d 18 b0 73 bc
       -0.03124714 -0.03640538 0.037850678 -0.014873527
000030 8e de 22 bd a1 72 65 bc ce cf 39 3d e6 f6 c9 3d
       -0.039763026 -0.01400438 0.045364194 0.09861545
000040 66 78 36 3d 4d 56 7c 3d 7b df 90 bc 09 80 b6 3c
       0.044548415 0.06160574 -0.017684689 0.022277849
000050 0f 8a cb bc a1 8d 16 bc c7 3f a5 bd 09 e5 46 3d
       -0.024846105 -0.00918904 -0.08068805 0.04855827
000060 01 f7 fb bd 2c c4 86 3d 94 5f 28 bd b7 3d 83 3c
       -0.12302972 0.065803856 -0.041106775 0.016020639
000070 01 23 7f 3c 5c 36 00 bd ef a7 b2 3c ea b2 11 3d
       0.01557231 -0.03130184 0.021808593 0.035571016
000080 ad 7e 45 3c f5 7d 27 ba af 92 30 3d 6d 9d 45 bd
       0.012054128 -0.00063893135 0.04310864 -0.048245836
000090 12 ea a8 3b 19 69 36 bd 01 28 89 bc 9c c8 f0 3c
       0.0051548565 -0.044533823 -0.016742708 0.029392533
0000a0 64 f5 a2 3c e1 50 6f 3c 3e 6b 45 3d 08 a2 c6 bb
       0.019892402 0.014606685 0.048197977 -0.006061796
0000b0 dc 39 a8 3d f5 6a a2 3c 44 fb 06 3c d8 55 cb bc
       0.08214161 0.019826392 0.008238617 -0.024821207
0000c0 0a 97 bb 39 36 97 0e 3c 7d 31 15 bc 59 74 1c 3d
       0.00035779952 0.008703044 -0.009106037 0.038196895
0000d0 b1 71 b3 bb db 89 4b bd 27 8f 2b bd 00 65 2e bb
       -0.0054761996 -0.049692016 -0.041884568 -0.0026610494
0000e0 54 a7 e1 bc 9a c5 af 3c ad 2f b9 3b 21 99 2b bd
       -0.027545609 0.021456528 0.0056514353 -0.041894082
0000f0 45 b9 8e 3d 05 8d c4 bb 72 ff 0c 3d 7c 64 cd 3c
       0.06968931 -0.005998256 0.0344233 0.025072329
000100 c8 8d 0c 3b e6 6c fd bb 2e 2e ae 3d 50 1c d6 bd
       0.0021446813 -0.007733929 0.08504902 -0.10454619
000110 9c 5a 01 3d 37 92 9b 3c d3 0c 59 3d f3 0f 0c 3c
       0.031580552 0.01899062 0.052990746 0.008548724
000120 c9 05 fd 3c 76 76 10 bd d5 08 45 3c 24 65 a9 bd
       0.030886548 -0.035269223 0.0120260315 -0.08271244
000130 e8 0c 65 3d 47 13 25 bc e6 c6 d2 3c e4 03 bb bc
       0.05592051 -0.010075397 0.025729608 -0.022829004
000140 35 bd 8a bd 7b d7 76 3d c5 b0 3f 3d df 96 4d bd
       -0.067743696 0.060264092 0.04679944 -0.05019271
000150 a7 a0 2b 3d ea c2 b4 bc aa be 9a bd 14 78 88 bd
       0.041901257 -0.022065599 -0.075558975 -0.06663528
000160 4d 08 9e bc 05 07 b8 3c 78 4c 88 3c c1 f1 87 bc
       -0.019291067 0.022464285 0.016638026 -0.01659477
000170 86 66 8c bc 3a 46 9e 3b df e1 9b 3c 61 fb 8a 3b
       -0.01713873 0.004830149 0.019028602 0.0042413925
000180 e3 a0 fb bb 41 2d a1 3c c5 a3 83 3c 16 d6 07 bd
       -0.0076790913 0.019674899 0.016069302 -0.033163153
000190 66 5e b1 3c 4e 7c 8f 3d 8c 65 2e bd 95 86 2c 3d
       0.021651458 0.07006131 -0.04257731 0.042120535
0001a0 01 db 07 3c 58 09 de bb 0b ad f4 bc 76 14 d3 bc
       0.008291961 -0.006776016 -0.02986767 -0.025766592
0001b0 fe 91 b2 bc 4d 2f f2 3b ab 42 89 bc e6 86 3c bc
       -0.02179813 0.0073908926 -0.016755423 -0.011506772
0001c0 63 96 73 bc f0 89 24 bd c5 dc 89 3d 87 d8 48 bd
       -0.014867398 -0.04017061 0.067315616 -0.04903462
0001d0 aa c0 2a 3c c3 22 c1 3a bb a5 99 3d 2b e3 9d bc
       0.010421911 0.0014735091 0.07502314 -0.019273361
0001e0 67 90 e6 bc 31 22 75 3d 93 fc 17 bd 57 40 8d 3d
       -0.028145028 0.05984706 -0.037106108 0.068970375
0001f0 36 cd 34 bd e8 99 51 bd 05 33 58 bd 73 34 db bb
       -0.044141017 -0.051172167 -0.05278303 -0.006689602
000200 58 69 6e bc 7e 75 00 3d 75 69 01 be 38 b3 ff bc
       -0.014551483 0.03136205 -0.12637885 -0.031213388
000210 cd 09 50 3a 06 a5 18 bc 43 2e 1a 3d 4d 00 82 bc
       0.0007936031 -0.009316688 0.037641775 -0.015869284
000220 92 e6 ba 3c eb 8e f6 3b 41 87 cd 3c bd 66 8f 3d
       0.022815023 0.0075243614 0.025088908 0.07002018
000230 ef c5 89 3d e3 3b be 3c 15 b2 02 bc 42 01 df bb
       0.06727206 0.023221916 -0.007977028 -0.00680557
000240 0a 2e 38 3b 37 4b 15 bd ec f3 b8 bc d5 58 f2 bc
       0.0028103613 -0.036448684 -0.022577249 -0.029583374
000250 f1 35 3a 3d de c7 e1 3c 2c 1c 75 bd ab b7 91 3c
       0.0454616 0.027561124 -0.05984132 0.017787775
000260 bd 19 14 3e 81 69 a6 3c 1d 27 1f 3d 3d 6f ec bc
       0.14462943 0.02031398 0.03885566 -0.028861636
000270 c4 20 b3 bd e9 00 22 3b 63 c1 6e bd 5d 6b 70 bc
       -0.08746484 0.002471978 -0.058289897 -0.014674035
000280 78 e3 c1 bc 3f 42 02 3d ea 1b 95 bd 30 b0 4d bd
       -0.023668036 0.03180146 -0.07280715 -0.050216854
000290 8c 48 0e 3d aa 0b e5 bb 62 4a a4 bc 45 6d 74 3c
       0.034737155 -0.006989916 -0.020055 0.01491863
0002a0 64 4c 2c 3d 5a cb 5d 3d a8 42 05 3c b8 be 2f bd
       0.04206504 0.05414901 0.008133568 -0.042906493
0002b0 6e 72 82 3c 8c b0 7f bc e3 47 b5 3c d2 9e 57 bc
       0.015923705 -0.015606057 0.022129005 -0.013160424
0002c0 5d 7e 93 bc a2 40 6f bd 8d ab 06 3d 33 d1 ae 3c
       -0.01800459 -0.058411248 0.032878447 0.021339988
0002d0 f0 b7 26 3d 70 1f 1c bc 94 ea 39 3b 59 d7 a2 bc
       0.04070276 -0.00952898 0.002836858 -0.019878076
0002e0 07 d6 8b 3c 24 a1 06 bd 8d 66 37 bd 11 3f b0 3c
       0.01706983 -0.03286852 -0.044775534 0.021514447
0002f0 b3 d6 5b bd 22 57 81 3c 87 f1 dc bc 62 88 98 3c
       -0.05367155 0.015788618 -0.026970638 0.01861972
000300 b2 88 18 bd 82 b2 54 3c 3f c3 bb bd 24 e8 a1 3d
       -0.037239738 0.012982013 -0.091680996 0.079056054
000310 02 00 20 bc 64 ed 26 3c 9e 9c 6b bc f4 94 11 3d
       -0.009765627 0.010188434 -0.014380602 0.035542443
000320 ef 64 98 bc d2 b1 43 bd 13 1c 3f 3d 90 22 59 3c
       -0.018602816 -0.047777005 0.046657633 0.013252869
000330 5a 31 b7 3c 80 b0 21 bc 16 88 14 3c 63 e3 7b bb
       0.0223624 -0.009868741 0.009065649 -0.0038435094
000340 8d da 79 3c 24 9e 52 3d 25 6a f6 bb 9f ce 72 bd
       0.0152498605 0.051420346 -0.0075199776 -0.05927908
000350 4f 1d 7d 3d 28 39 04 bd 1c 32 c1 bb bb 2f a1 bd
       0.06179553 -0.03228107 -0.005895866 -0.07870432
000360 3a c5 88 bc 00 41 30 3b d6 aa eb 3a 1a bb a1 3c
       -0.016695607 0.0026894212 0.001797999 0.019742537
000370 b4 92 7e 3d 11 39 e4 3c e7 2a 87 bd 56 4c 03 bc
       0.062151626 0.027859243 -0.0659998 -0.008013805
000380 62 8c 83 3b 7b 89 80 bc 28 7e 95 3c 4d 2d 86 bc
       0.0040145377 -0.015690556 0.018248633 -0.016379023
000390 98 7c 6c bd d1 ac 00 bd 4b a8 aa bd 5d 1e fb bc
       -0.05773601 -0.03141481 -0.083328806 -0.030654127
0003a0 41 28 66 bb 00 33 13 bd 8c 4f 1c bd b4 8e 83 3c
       -0.0035119208 -0.03593731 -0.0381618 0.016059257
0003b0 a1 96 fd bc aa 11 96 3c 8f 2c 0c bc d5 2e 0b bc
       -0.030955615 0.01831897 -0.0085555455 -0.008495052
0003c0 23 2a 62 bc 2c eb 63 3c e4 c8 5a bc 5f 19 2b 3d
       -0.0138039915 0.01391105 -0.01335356 0.041772243
0003d0 76 f2 8a 3d 2d 55 49 3d dc f4 1d bd bc c1 05 3d
       0.06784527 0.049153496 -0.038563594 0.032655463
0003e0 0b b0 07 bc c1 ff 97 bb 8d e0 fb bb ad ce de bd
       -0.008281718 -0.0046386425 -0.0076866806 -0.10879264
0003f0 b5 3a 22 bb 2b 13 a9 3d c8 56 8e 3d 56 19 28 3d
       -0.002475423 0.08255609 0.06950146 0.041039787

6.bias f4 [12]
000000 cd 24 a6 3c e1 88 54 3d d1 71 c2 bc 36 06 96 ba
       0.02028122 0.05188835 -0.023735913 -0.0011445943
000010 73 fc 16 be 37 3f 95 bd f8 f3 2f 3d 1f d8 92 3d
       -0.14744739 -0.07287448 0.042957276 0.07170128
000020 62 27 08 bd 19 b3 f3 3c 36 0c ad 3d d3 78 f7 3d
       -0.033240683 0.029748486 0.08449595 0.12083592
