onnx_inference/data/model.onnx (onnx, 162779 bytes, 8 tensors)

0.weight f4 [128, 45]
000000 b9 fc ef ba d3 ac 35 bd be 6f 1f 3d e4 3b 1d bc
       -0.001830957 -0.04435427 0.038924925 -0.009596799
000010 14 a2 47 3d f8 ac c9 bd 29 fe 02 bf 5e 75 7a be
       0.048738554 -0.09847444 -0.5116907 -0.24458835
000020 3b 0f 80 be d2 f8 cf bd b9 87 82 3b 0e ea 88 be
       -0.2501162 -0.101548806 0.0039834646 -0.2674107
000030 89 43 43 3e 88 b8 1e 3e 6c d7 90 3e 12 75 d4 be
       0.19068731 0.1550008 0.28289354 -0.41495568
000040 0c 62 92 3d 27 38 4a 3e cf 4c a0 3e 4d f4 05 be
       0.07147607 0.19747983 0.313086 -0.13081475
000050 84 7c de 3d b0 2d 4a 3d 46 bf dc bd 10 9e c6 3d
       0.10863593 0.049359977 -0.1077867 0.09698117
000060 86 41 c2 3b b7 48 cd bd f2 54 3a bc 1f cf 04 bb
       0.005928221 -0.10023635 -0.011372792 -0.0020265055
000070 ea 3f 95 3d 67 fa 88 3d 63 de 02 be e4 8d 15 3c
       0.07287581 0.066883855 -0.12780146 0.009128068
000080 8e fb 55 bd 2a 02 e0 bd 56 1b d2 bd b6 8f f2 3d
       -0.052241854 -0.10937913 -0.1025912 0.11843817
000090 9d 83 23 be 81 db 2a bc 0c cc d6 bc 0a ae 2b bd
       -0.15968175 -0.01042831 -0.026220344 -0.041914023
0000a0 59 8b 06 be 10 1f 94 3e 82 54 23 3e 58 ff 53 be
       -0.13139094 0.2892995 0.15950206 -0.20702875
0000b0 2c 42 38 bd 18 59 ff 3d bb 6c 9e 3d 3c a8 38 3c
       -0.04498498 0.12468165 0.077355824 0.011270579
0000c0 43 76 28 3e aa ce 85 3d 10 62 31 3e 37 3c f5 be
       0.16451363 0.06533559 0.17322564 -0.47897503
0000d0 37 26 9f bd 8f bd 81 be e7 57 b4 3e 4d e3 12 3f
       -0.07770961 -0.25339934 0.35223314 0.57378083
0000e0 7a cf 14 3f be 35 aa 3e a5 de 97 3e 9a 3f 10 bd
       0.58129084 0.33244127 0.29662052 -0.035216905
0000f0 27 fc e5 3e 1a a6 43 be ed b3 ee 3d de e3 10 3e
       0.4491894 -0.19106331 0.11655412 0.14149424
000100 16 29 f1 bd 65 2a d5 3d c2 03 72 bd 1d 48 74 bd
       -0.11775415 0.10408477 -0.059085615 -0.059639085
000110 44 38 65 3d 98 28 72 bd 47 00 07 3d 33 23 9f bd
       0.055961862 -0.059120744 0.03295925 -0.077703856
000120 d0 62 00 bc 78 05 1e bd cd 7f 20 3d 45 33 d4 bc
       -0.007836059 -0.038579434 0.03918438 -0.025903353
000130 f6 c7 b5 bd 06 3a 83 be 06 f6 40 3e 9a 3d 89 3e
       -0.0887603 -0.25630206 0.1884385 0.2680481
000140 4b 44 3f bc d7 38 07 3e b5 4c 2e 3e 61 a4 12 be
       -0.011673997 0.13205276 0.17021449 -0.14320518
000150 44 69 a0 bd 64 dd 4d be 17 32 89 3d cb 2d 08 bd
       -0.07832578 -0.20103985 0.06699007 -0.033246797
000160 52 e2 1d 3e be 77 db 3a 54 78 1c 3e cf c1 14 3d
       0.15418366 0.001674406 0.15280277 0.036317643
000170 ab b8 c8 bd 78 c2 47 be a9 3b 6d 3e 75 bc 12 3e
       -0.098008476 -0.19507778 0.2316729 0.14329703
000180 00 9e a9 3e 0a 3a 53 bf 90 af da 3d bc 64 3a 3e
       0.33128357 -0.82510436 0.10678017 0.1820249
000190 0e 08 37 be 7b 31 10 3d fb 41 12 bd 10 57 58 3d
       -0.17874166 0.03520344 -0.035707455 0.052817404
0001a0 de 47 2a bb 8a 5d f3 3e 0e 65 1b 3f d8 f6 02 3e
       -0.0025982778 0.47532302 0.6070107 0.12789476
0001b0 a9 07 74 3d 96 79 9e 3e 66 3e ad 3d d5 08 3b bd
       0.059577618 0.30952138 0.08459167 -0.04566272
0001c0 94 65 29 3e be bf cf 3d 2c d4 2d be 49 55 db 3d
       0.16542655 0.10143994 -0.16975468 0.10709626
0001d0 e4 a2 ce 3d 7a e2 a6 bd 46 49 17 be 4a 38 53 3d
       0.10089663 -0.08148666 -0.14774045 0.051567353
0001e0 cf 76 de 3d a1 9f 4d 3c 24 27 7d be 83 60 a8 3d
       0.10862505 0.0125502655 -0.24721962 0.08221533
0001f0 fa e8 e5 bd fe 05 c2 3d 63 c6 0b bd 49 1c 99 3d
       -0.112260774 0.09473799 -0.034124743 0.07476098
000200 e7 67 e0 bc 6d 74 00 bd dd 62 f0 3d 3b bb 00 3e
       -0.027393294 -0.031361032 0.11737607 0.12571423
000210 21 be 04 3d d1 b1 ee 3e 1a 86 11 be 7b 9b 2e 3e
       0.032407884 0.46620038 -0.14211312 0.17051499
000220 dc 04 70 bd c3 5c a6 3c 07 86 ec bd 8e 39 01 3c
       -0.058598384 0.020307904 -0.11549001 0.007887257
000230 07 6b 9b bd 17 9c 0e 3e 38 e4 28 be 1c 96 cd 3e
       -0.07588773 0.13926731 -0.16493309 0.40153587
000240 45 08 89 be 43 cf 14 bf 0e c1 80 3e 7a 51 56 be
       -0.26764122 -0.58128756 0.2514729 -0.20929518
000250 0c 5f 66 be 75 ca 09 3f b8 8b cf be b4 3e 46 3d
       -0.22497195 0.5382455 -0.40536284 0.048399642
000260 07 c0 6e 3e 79 54 70 3e 7f f5 8a 3e 9d 8f 89 be
       0.2331544 0.23469724 0.27140424 -0.2686738
000270 19 72 05 be ab 6f 4f 3d 4b 97 ff 3c e0 76 08 bd
       -0.13031806 0.050643604 0.031200072 -0.033316493
000280 5e d0 27 bd 9c 19 1e be 56 15 9c bd 95 09 bf bd
       -0.0409702 -0.15439457 -0.07621257 -0.093279995
000290 ce 7a 7e 3c fc 78 db 3d 8c ca 0f be 1b 34 9c 3c
       0.015532209 0.10716435 -0.14042109 0.019067815
0002a0 92 8a 23 bd 21 7d ce 3d be 32 1b bd f6 7b 48 3e
       -0.039927073 0.1008246 -0.03789019 0.19578537
0002b0 c6 0d cf bc e9 6c 64 3e 88 88 8a be 7a ea d3 3d
       -0.025275122 0.22307171 -0.2705729 0.10347457
0002c0 a8 46 57 be 44 cd c1 bd 89 2d 42 3e fb cd 62 bd
       -0.21023047 -0.094629794 0.18962683 -0.05537222
0002d0 e7 fe 42 3d 4a 6f 8d bd eb 66 94 3b 81 5e 01 be
       0.047606375 -0.06905992 0.0045288703 -0.12633707
0002e0 f8 8e be 3d 9f d6 f1 be dd 32 45 3e bb f6 0c 3e
       0.09304613 -0.47234055 0.19257684 0.13765995
0002f0 2f d6 45 3f 28 cb 1c bf 6e 23 1e bf ec 51 51 3c
       0.77279943 -0.6124749 -0.6177281 0.012775879
000300 f1 22 bd be e3 8e 10 bf d9 ac 9f 3e b2 04 24 bf
       -0.3694072 -0.5646803 0.3118656 -0.64069664
000310 52 33 ab 3e 38 1a a7 bd 21 79 c0 3d 91 ff 4d 3e
       0.33437592 -0.08159298 0.093981035 0.20117022
000320 f3 11 72 3d 72 e7 8d 3c 37 2c eb bd 65 ba 07 3d
       0.05909915 0.017322276 -0.11483043 0.033136744
000330 28 5b b6 bc b9 4c 01 3e 26 a2 d3 3c 7e 6b 49 3d
       -0.022260264 0.12626924 0.025834154 0.04917478
000340 63 ef 91 bc 5c 5a 92 3d b1 0f c7 bc 7a 19 a7 3b
       -0.017814344 0.07146141 -0.024299474 0.0050994726
000350 81 ee 20 3d 5c 74 f1 bd 18 f1 21 be a1 c7 35 be
       0.039289955 -0.11789772 -0.15814626 -0.17751934
000360 fc c0 20 be 68 2b 3f bd 5d e7 de bd 12 c2 05 3d
       -0.15698618 -0.046672255 -0.10883973 0.032655783
000370 88 ae 02 be e2 8e 06 3d 19 1c 5e bd 6e 88 02 be
       -0.12761891 0.032851107 -0.054226015 -0.12747356
000380 60 7a f8 3d 60 f5 73 be 31 49 9c 3c d6 93 3a be
       0.12132716 -0.23824072 0.01907787 -0.18220457
000390 cf 5e 05 be 67 e3 69 3e 52 52 30 3e 65 1f ed 3d
       -0.13024448 0.22840653 0.17218903 0.11578254
0003a0 72 10 87 3c 2d 8c 95 bc 29 80 51 3e ac 3f a5 3d
       0.016487334 -0.018255318 0.20459045 0.08068785
0003b0 c2 b3 56 be 76 d7 81 3e 14 e4 e9 3d f5 aa 5d 3e
       -0.2096701 0.25359696 0.114204556 0.21647246
0003c0 bf 0e fe 3e a0 3e a0 3e c0 0a 79 3e e8 f6 28 3e
       0.49620625 0.3129778 0.24320507 0.16500437
0003d0 be c2 ea 3d f5 b6 ea bc 65 de 94 3d 87 60 14 bb
       0.114629254 -0.028651694 0.07268981 -0.0022640543
0003e0 93 92 b9 bd 0a 73 32 be 64 3d dd 3c f0 35 01 3e
       -0.0906116 -0.17426696 0.027006812 0.12618232
0003f0 e4 3c 31 3c 42 fe 04 3e a6 43 12 3e d0 22 93 bd
       0.01081774 0.12987617 0.14283618 -0.07184374

0.bias f4 [128]
000000 d1 1e 0d be 61 c1 08 be 74 9a c1 bb c3 9f 5e be
       -0.13781287 -0.13355018 -0.005908305 -0.21740632
000010 26 d5 d0 bd 35 44 d2 3d 34 42 b9 bd 27 30 c7 3c
       -0.10196905 0.10266916 -0.0904583 0.024314953
000020 0c f1 0b 3e 90 8c f2 bd 91 de 12 3e 98 02 e3 bb
       0.13666171 -0.118432164 0.14342715 -0.0069277994
000030 c3 79 04 3d cf 19 aa bd b3 1d 0e be 27 75 f5 bc
       0.032342684 -0.08305704 -0.13878517 -0.02996309
000040 4e 02 0d 3d fc 4a e2 3d 2c e7 61 bc dc 12 f7 3d
       0.034426026 0.110494584 -0.013788026 0.12064144
000050 d7 fb 3b bc b8 b8 13 bd 6e 27 b9 bd ea 1a 6e 3d
       -0.0114736175 -0.036064833 -0.09040724 0.058131136
000060 1c b7 55 be c9 2f 28 3c 68 3e 5d bd 09 e4 43 be
       -0.20870632 0.010265299 -0.054014593 -0.19129957
000070 ad c3 91 bc ad 9d 45 bd 8a d8 82 bd 67 76 2d 3d
       -0.0177935 -0.048246074 -0.06388958 0.042349245
000080 f5 85 0c 3e 96 d3 3c 3d 83 65 ee 3b ba 67 02 3d
       0.13722976 0.04610022 0.0072752847 0.031837203
000090 26 bf fa bc 82 49 11 3d ad cc d5 bd f8 d9 83 3d
       -0.030608725 0.035470493 -0.104394294 0.064380586
0000a0 bf 12 04 bd d6 28 92 3d 92 d0 d3 bd 46 11 14 bd
       -0.03224444 0.07136695 -0.10342516 -0.036149286
0000b0 a6 f9 12 3e b5 d1 86 3d d0 ed 69 bd ca de e8 bc
       0.14353046 0.06582967 -0.05711156 -0.028426547
0000c0 2b 24 09 3e f7 7c f9 bd ee f6 16 be 83 af 5a 3e
       0.13392703 -0.12182038 -0.14742634 0.21356015
0000d0 2c 99 24 3c 1b 41 9c bd 22 cb 2a bd 6a 75 4d bd
       0.010046285 -0.076296054 -0.04169763 -0.050160803
0000e0 ed 4f 7b bd 97 75 13 3d 15 61 6d 3c ce ed 0d be
       -0.06135552 0.036000814 0.014488478 -0.13860247
0000f0 76 6b cb bd 16 0c a5 3d a8 eb bd bc 20 5a 90 bd
       -0.09932606 0.08058946 -0.023183659 -0.0704844
000100 0c c7 2a 3d 10 de 0a bd 62 87 47 be 72 3a d2 3d
       0.041693732 -0.03390318 -0.19485238 0.10265054
000110 44 32 1a bd 39 2e 16 3d 0f cc 1a 3d b6 69 e7 bd
       -0.037645593 0.036665175 0.03779226 -0.1129946
000120 78 ea 3e bd c2 88 4a bd 79 50 2b bd 13 00 82 3d
       -0.046610326 -0.04944683 -0.04182479 0.063476704
000130 b2 d0 c0 3c eb b0 0b 3e d5 a6 eb bc 73 a6 90 bd
       0.023537014 0.13641708 -0.028766075 -0.07062998
000140 fd ba 13 3e 1b 61 1b bd 4a 37 f3 3c fe 53 6d be
       0.14426799 -0.037934404 0.02968945 -0.23176572
000150 96 dc b3 3c 4e 9f 45 3d ac e8 1b 3c a8 2a 89 3d
       0.02195577 0.048247628 0.0095159225 0.06697589
000160 2d 92 4a bd 0a 72 44 3d 4f d9 cb bc 04 73 34 3d
       -0.04945581 0.04796032 -0.024883894 0.044055
000170 f4 16 52 be 35 93 87 bd 27 78 85 bd 1b 40 22 be
       -0.20516568 -0.066198744 -0.06517058 -0.15844767
000180 f8 d6 99 3c 4b 3f 36 be 72 b4 ed bd aa 77 27 3e
       0.018779263 -0.17797582 -0.11606683 0.16354242
000190 33 d7 87 3e 38 60 18 bd 42 41 d4 3d a6 7c e8 bd
       0.2653137 -0.037201136 0.103640094 -0.113519
0001a0 00 72 42 bc 52 83 48 be 5b 7c c3 bc 5e 43 c6 3c
       -0.011868 -0.19581345 -0.023863008 0.024202045
0001b0 5c 5e 53 3e 78 c1 bb bd 0e 69 38 3c bb 92 8b bd
       0.20641464 -0.091677606 0.011255516 -0.06815096
0001c0 8d 47 c4 bd 25 0b 91 bd cf 6e 8d bc 7f c6 01 3d
       -0.0958396 -0.07082204 -0.017264752 0.03168344
0001d0 b0 31 cf bd ee fd a9 3c 72 98 69 3d 45 6a 4f 3d
       -0.10116899 0.020750966 0.05703015 0.050638456
0001e0 f3 4b 3f be 2e ea 09 be f0 e6 00 bd 3c 27 ba bd
       -0.18681316 -0.13468239 -0.03147024 -0.090895146
0001f0 85 95 25 bd 51 91 0c bc b6 8a bb bd b4 68 03 be
       -0.040425796 -0.008579568 -0.091573164 -0.1283291

2.weight f4 [128, 128]
000000 37 32 85 bd fe 40 08 bc 2c 07 27 bd 1a 72 93 3d
       -0.06503718 -0.008316277 -0.040778324 0.071994975
000010 2a f0 38 3d b8 27 30 3d 02 b4 7c 3d fb 0a c3 3d
       0.045150913 0.04300663 0.061695106 0.09523579
000020 22 9d 1f bd 7c 48 65 bd c1 13 47 3c 2d a7 4d bc
       -0.038968213 -0.05597733 0.012150706 -0.012552065
000030 85 e0 b1 bc 21 b8 6a bc 03 97 11 3d 60 ff b1 3d
       -0.021713505 -0.014326126 0.035544407 0.08691287
000040 77 f8 bd 3d e5 da be 3d 39 4b 00 bd 10 e5 f7 bc
       0.092759065 0.093190946 -0.031321738 -0.030260593
000050 ee 66 c8 bd b5 76 29 bd 0d 7b 92 bd a1 6e 13 3d
       -0.09785257 -0.041372973 -0.07152376 0.035994176
000060 7c 70 e4 bd 61 29 0a be 96 5c ac bc 3b bc 70 bd
       -0.11154267 -0.13492347 -0.021040242 -0.05877326
000070 21 66 ba bd 0e 4c 66 bd ac a4 f4 bd 31 75 fa 3b
       -0.09101511 -0.056224875 -0.11945471 0.007643365
000080 84 bd 90 bd b1 61 56 3c 7a c5 75 3d 98 76 56 3c
       -0.07067397 0.013084815 0.06000278 0.013089798
000090 9d 35 80 3d b1 ad 24 3d c8 a2 30 3d d2 76 fa bd
       0.06260226 0.040204708 0.04312399 -0.122296944
0000a0 67 be bb bd 4e f9 a6 3d 17 cb dc bd 3f ac 53 3d
       -0.09167176 0.0815302 -0.10780924 0.05167794
0000b0 8e 5f da bd 6d c0 00 bd cc c9 e7 bd 75 ba b7 bd
       -0.10662757 -0.03143351 -0.113177866 -0.08971111
0000c0 a9 a4 96 bc e0 e9 46 3c 32 83 c0 3d a0 15 02 3c
       -0.018389063 0.012140721 0.094000235 0.007939726
0000d0 fb 10 0b 3d db da d8 3b 81 fc c9 bb 23 5d 3a bd
       0.03395174 0.0066178865 -0.006164134 -0.04549898
0000e0 8b 46 8d 3d 73 ac 81 3d d0 06 1d 3d 3a b5 0d bd
       0.06898221 0.0633172 0.038336575 -0.03459666
0000f0 76 aa a9 bd f1 fb 97 ba 6d a3 b9 3c 32 cc 03 bd
       -0.08284466 -0.001159547 0.022660935 -0.032177158
000100 16 e8 0d be 6c ee ad bd 7a 73 2b bc 1f a5 ac bc
       -0.13858065 -0.08492741 -0.0104645435 -0.02107483
000110 64 ab e9 bd 87 e4 fe bd d9 50 bb bc 5f 38 9e bd
       -0.11409643 -0.12445932 -0.0228657 -0.07725596
000120 12 79 7d bd 9b f9 49 3d 07 6d 8e bb 28 3f 28 bc
       -0.06188304 0.049310308 -0.004346493 -0.010268964
000130 9e 31 09 3b 92 4d aa bc 6c de 31 3d 81 36 2a 3c
       0.0020934115 -0.020788942 0.04342501 0.010388971
000140 f7 c1 7e bd d9 79 95 bd f6 d4 95 3c 12 39 82 3c
       -0.062196698 -0.07298631 0.018290024 0.015896354
000150 59 a0 be bd 9f a9 ff bd 4c 4d 8c 3d eb a7 c8 bd
       -0.09307928 -0.124835245 0.06850681 -0.09797653
000160 7d 4b 35 bd 06 2c a7 3d 84 40 6e bd af 14 5a 3d
       -0.044261444 0.08162694 -0.058166996 0.05324238
000170 a4 2f 0a 3d a1 82 0c 3c 1c 66 fa 3c bb 9c c5 bd
       0.03373684 0.008576066 0.030566268 -0.096490346
000180 65 d5 84 bc 12 e6 6e 3c e2 e8 80 3c 52 e1 d7 bd
       -0.016215036 0.01458122 0.015736047 -0.10541023
000190 c9 93 80 3c 2e 95 41 bc 8d b3 c2 bd 99 30 d3 3d
       0.01569547 -0.011815352 -0.09506903 0.10312004
0001a0 a3 46 4e 3d f2 39 88 3d 2c cc 6c 3c 14 9c 6a 3d
       0.050360333 0.06651677 0.014452975 0.057277754
0001b0 25 45 e1 3b f0 40 6d 3d 2e a1 c4 bd e1 de 88 3d
       0.0068746977 0.057923257 -0.09601055 0.06683136
0001c0 09 cc 93 bd cc 17 79 3d e6 6d 52 3d 06 b1 a6 bd
       -0.07216651 0.06081371 0.05137434 -0.08139233
0001d0 70 73 a4 bd 7f 50 67 3b 36 c4 10 be 98 08 f2 bc
       -0.080298305 0.0035295782 -0.14137349 -0.029545113
0001e0 c3 b5 36 bd cd 4b 5d bc fc 07 74 3a ec e7 09 bc
       -0.044606935 -0.013506842 0.0009309051 -0.008417111
0001f0 fd 63 11 3d b4 6a aa 3d 65 e0 1d be d8 f6 c5 bd
       0.035495747 0.08321133 -0.15417631 -0.09666222
000200 7f ac b4 bd bd b3 e2 3b 0a fa 1d 3d f1 0b 1c bd
       -0.088219635 0.006918399 0.038568534 -0.038097326
000210 85 d4 9e bd 81 76 05 bc 8b d2 30 bc 5f 08 c0 bc
       -0.07755379 -0.008145929 -0.010792385 -0.023441492
000220 89 e1 3f be e6 ae 61 bd c6 ea 6f 3d 6a 04 9e 3c
       -0.18738379 -0.055098437 0.058573507 0.019289214
000230 15 40 9a bc c8 cf 0b bd e1 4d 2c bc a0 4a 88 3d
       -0.018829385 -0.034133703 -0.010516615 0.066548586
000240 a2 18 87 bc b8 af 22 bc 2b b5 54 bd 26 93 6b bd
       -0.016491238 -0.00992959 -0.051930588 -0.05751338
000250 55 7f 72 3d df 45 e9 3c bb cc e7 bd 3d 7d ed 3c
       0.059203465 0.0284757 -0.11318346 0.028990382
000260 1f 39 f4 bd cc aa 23 bb ee db 89 3d 99 07 5a 3c
       -0.119249575 -0.002497363 0.067314014 0.0133074755
000270 12 84 9e bc c4 25 dc bc 46 db 98 bd 02 cf 92 3d
       -0.019350085 -0.026873477 -0.07463698 0.0716839
000280 06 70 6f 3c 0b d8 52 be 53 00 48 bc 4b 8c e7 bd
       0.014614111 -0.20590226 -0.012207109 -0.11306056
000290 4e 82 42 bd 9b a3 01 bd 1e b7 48 3d 8a df 73 3d
       -0.04748755 -0.031650167 0.04900276 0.059539355
0002a0 23 fb 57 be 0b 49 10 3d 7a ad a3 3d 48 32 7d bb
       -0.21091895 0.03522591 0.079920724 -0.0038634706
0002b0 2c c9 dd 3c 2b 5d 53 3d 83 77 33 3c 1e bd d0 bd
       0.027073465 0.051602524 0.010953787 -0.10192321
0002c0 ad d1 48 3d d0 52 da 3d 17 9d 5f 3d 0b bb 08 be
       0.049028087 0.106603265 0.054593172 -0.13352601
0002d0 41 ab 2e 3d fa 12 89 bd 1a 86 89 3d 48 bb 02 be
       0.04264379 -0.066930726 0.06715031 -0.12766755
0002e0 42 29 e9 bd b8 1c be 3d e7 b0 00 bd 04 c1 0c be
       -0.113848224 0.092828214 -0.031418707 -0.13745505
0002f0 29 e0 c2 3d 4a cf 42 3c 54 ec b8 3a d6 9e 0d 3d
       0.095154114 0.011890242 0.0014108517 0.034575306
000300 d6 17 1f 3d 72 7a b6 bb 8b 59 2c 3d 98 9a 17 3d
       0.03884109 -0.005568796 0.042077582 0.037012666
000310 ea f1 2b 3d bb 61 95 3c fe 03 a4 3d 90 0d 1d 3d
       0.041978754 0.018235078 0.08008574 0.038343012
000320 6b 1b de 3c 7a f8 a6 3d 56 4b 80 bd ac ae 0c be
       0.027112683 0.08152862 -0.06264369 -0.13738507
000330 20 03 e5 bb e1 98 cc bd 24 65 c6 bd 8a 61 90 bc
       -0.006988898 -0.09990097 -0.0968726 -0.017624635
000340 c1 c8 62 bd 21 eb cc bd da 04 3e 3c 74 2d f4 3c
       -0.055367235 -0.10005785 0.011597836 0.02980683
000350 09 d6 7e 3d 54 e5 b3 bd df f8 9e 3d 92 32 58 be
       0.06221584 -0.08783975 0.07762312 -0.21113041
000360 9c 36 6d bc 87 62 bb bd 48 6b 8a bc fa 60 bb 3c
       -0.014478352 -0.09149652 -0.016896859 0.02287339
000370 46 8e 6b 3c 19 34 ce bc c2 04 c4 bc f2 d8 a6 bc
       0.014377182 -0.025171326 -0.02392805 -0.02036712
000380 cc 1a 27 3c 99 48 80 3d 99 f1 43 bc 6a 9c 13 be
       0.01019926 0.06263847 -0.011959457 -0.14415136
000390 f5 be 78 bd cc 50 06 3d 86 2d 56 3c 81 9d ab 3d
       -0.060728986 0.032791898 0.013072377 0.08379651
0003a0 ed 07 8f 3d fd a8 7e bb 23 e2 f5 bd da cc 3e bd
       0.069839336 -0.003885805 -0.12006023 -0.04658208
0003b0 5f a8 db bd d2 94 88 3c 95 99 aa bd 9a a3 51 3d
       -0.107254736 0.016672526 -0.08330075 0.051181413
0003c0 21 af 5a bd c2 ab 6e 3d 07 5f a6 bc 05 98 76 bd
       -0.053389672 0.05826927 -0.020308984 -0.06020357
0003d0 e7 77 a8 3d cf 57 ed bc 3b 32 95 bd 2c 76 01 bd
       0.082259946 -0.028972534 -0.07284971 -0.031606838
0003e0 99 5b c9 bd b8 05 32 bd d4 9e d6 bd c1 89 8c 3d
       -0.09831924 -0.043462485 -0.10479513 0.06862212
0003f0 95 c8 c2 bb 8a e7 68 bd 7b 6a 67 3d 46 59 87 bc
       -0.0059443214 -0.056861438 0.056498032 -0.016522061

2.bias f4 [128]
000000 9e db 4b bd bf 63 3c be 93 0d 00 be 8e 02 37 be
       -0.04976999 -0.18397425 -0.12505178 -0.17872068
000010 34 83 d3 3d aa 3a dc bd dc de d3 3d eb 28 19 3c
       0.103277594 -0.10753377 0.103452414 0.0093481345
000020 01 54 b5 bd 7c b2 63 bd 86 08 7d 3d c0 17 81 bd
       -0.08853913 -0.055590138 0.061775707 -0.06303358
000030 e2 34 dd bd 5b 83 d5 bd 23 e2 9b bd bb c5 cb bc
       -0.10801102 -0.10425445 -0.076114915 -0.024874559
000040 c7 d2 39 bd ba 0e d9 bd b7 91 02 3c 82 48 c0 bd
       -0.04536703 -0.10598512 0.007969311 -0.0938883
000050 26 18 2f 3d bf b4 bd 3b 28 d3 00 be 59 89 db bd
       0.04274764 0.005789369 -0.1258055 -0.10719556
000060 fb 6a ab bd 45 6d c1 bd 82 1e 01 be b0 c5 9b bd
       -0.08370014 -0.0944467 -0.12609294 -0.07606065
000070 cc ad 1c 3d 6a 61 c0 3c 80 ce 85 bd 8a 99 49 bd
       0.038251683 0.02348395 -0.065335274 -0.049218692
000080 14 85 4a bd 2a 6e 66 bc c4 74 07 3c 3e 58 87 b9
       -0.04944332 -0.014064351 0.008267585 -0.00025814952
000090 a0 fb 1f bd 0d 39 b9 bd 24 02 6c bd c7 2f 23 be
       -0.039058328 -0.09044085 -0.05761923 -0.15936194
0000a0 66 f7 bb bd 06 e7 a3 bb ad 33 1f bd 8c e8 f1 bd
       -0.09178047 -0.0050019054 -0.03886764 -0.11811933
0000b0 2e a9 18 bd 14 b0 1f bd fb 27 35 bc ae a7 a4 bc
       -0.037270717 -0.03898628 -0.011056895 -0.020099487
0000c0 72 d3 82 bd 75 5e 5a bd a6 dc b5 bd 01 a5 ef 3c
       -0.06387986 -0.053312737 -0.08879976 0.029253485
0000d0 eb fc af bd 67 b8 a9 bc 9a cf f3 bd c9 3d 08 be
       -0.08593162 -0.020717813 -0.11904831 -0.13304819
0000e0 35 d8 b9 3c c6 09 7d bd f7 b9 ea 3b c8 b1 00 be
       0.022686103 -0.0617769 0.007163282 -0.12567818
0000f0 f7 f5 91 bd ad b1 b5 bd 91 61 b9 bd 47 ae 04 be
       -0.07126992 -0.088717796 -0.090518124 -0.12957107
000100 d2 cc 73 bd 0a b3 04 3c be 95 19 be 5f 55 50 bc
       -0.059521504 0.008099327 -0.14998528 -0.012715667
000110 b8 e5 c7 3d 75 de 12 be 92 78 5b 3d 2b ac 09 bd
       0.09760612 -0.14342673 0.05358178 -0.033611458
000120 84 05 9f bd 91 e4 50 bc 4c 0d f3 bd c2 0c 21 be
       -0.07764724 -0.012749807 -0.118677706 -0.15727523
000130 13 06 b4 bc 13 4e e8 bb 0b 53 83 3d 53 40 c7 bd
       -0.021975553 -0.0070893853 0.064123236 -0.09729066
000140 54 f6 7f 3d 0a 3f 18 be 7a 5d 3c bd f2 c6 60 bd
       0.062490776 -0.14867797 -0.045987584 -0.05487723
000150 60 cf 96 3d ca f7 a4 bc 6f aa cb bc c1 4e 0f be
       0.073637724 -0.020137686 -0.024861543 -0.13994886
000160 63 c9 8e bd e4 ac 92 bd d5 43 eb bd ef ba e3 bd
       -0.06972005 -0.071618825 -0.11487547 -0.11119639
000170 16 cf a2 3d 93 2a 3e bd 68 6f de bd 6f 92 f9 bd
       0.07949655 -0.04642732 -0.10861093 -0.12186133
000180 7c 46 b6 3c bf f9 bb bd c9 26 45 bb ff 1f 80 bb
       0.022250406 -0.09178495 -0.0030082932 -0.003910064
000190 18 31 fb 3c 87 ba 99 3c 22 fc d9 bd 95 3d 19 be
       0.030663058 0.018765701 -0.10643794 -0.14964898
0001a0 51 74 80 3d 18 0b dc 3c e1 a4 93 3d 66 e2 73 3c
       0.062721856 0.026860759 0.072091825 0.014885521
0001b0 a9 01 0a bd 83 3d d6 3b c6 21 93 3c 38 1c a4 bd
       -0.03369299 0.0065380945 0.01796044 -0.08013195
0001c0 d2 37 f2 bc e5 20 f4 bc 10 f1 f4 bd a1 4c 30 3c
       -0.029567633 -0.029800842 -0.119600415 0.010760457
0001d0 dc bd 37 bd 9c 55 23 bd 70 58 96 bd a5 86 d3 bc
       -0.0448588 -0.039876565 -0.07341087 -0.02582104
0001e0 45 a5 5a 3c 44 8f 44 bd b9 68 c6 bd f7 ad 41 3d
       0.013345067 -0.04798819 -0.09687943 0.047285046
0001f0 5d df 86 bd 3e b3 c2 bd b2 3e 1d bd 20 9b eb bd
       -0.06585572 -0.09506844 -0.03838987 -0.11504197

4.weight f4 [128, 128]
000000 0e 0d bd bd c2 72 0a 3e 00 04 a0 b9 4e 17 1d bd
       -0.092310056 0.13520339 -0.00030520558 -0.038352303
000010 bf cc cb 3c 96 dc d0 3c 4c 6e a7 bd 71 99 ab bd
       0.024877904 0.025495809 -0.08175334 -0.08378876
000020 14 92 45 bd 38 d5 ac 3d 77 f4 c5 bd 49 9d 57 bd
       -0.048235014 0.08439106 -0.096657686 -0.052640233
000030 7a fc 08 3d 3f 51 c1 3c d8 87 9f 3d a7 58 05 bd
       0.033443905 0.023598311 0.07789582 -0.03255525
000040 77 0c f9 bc c9 19 3f 3d c4 7d cc 39 2a cd 2c bd
       -0.030401452 0.04665545 0.00039003615 -0.042187847
000050 fd 93 ae bd 49 0e 2c bd ad f4 b0 bc df aa 5e bd
       -0.0852432 -0.04200581 -0.021601046 -0.054362174
000060 65 14 59 bd ce b3 9f bc ad bc 5d bc 14 9a c8 3c
       -0.052997965 -0.019494917 -0.013533753 0.024487533
000070 2b f4 ab 3c 3c 4b 63 3d 1b 15 b9 3c 6f e3 9f bd
       0.020990452 0.05549167 0.022593072 -0.078070514
000080 92 b1 b2 bc 74 d7 e7 3d fb 52 b6 bc 89 19 57 bd
       -0.021813188 0.11320391 -0.022256365 -0.052514587
000090 ea ea 1f bb a5 e4 ce 3d c0 2c 16 3d dc 2b aa bd
       -0.0024401494 0.10102204 0.03666377 -0.08309147
0000a0 53 ba d3 bd 49 92 83 bc 7d 99 18 bd b9 02 7a bc
       -0.10338273 -0.016060965 -0.037255753 -0.015259438
0000b0 2c 61 85 3d 52 e8 aa bc 91 57 c9 bc 1f 25 89 bd
       0.06512675 -0.020862732 -0.024577888 -0.066965334
0000c0 4d d1 58 bc 1c 26 bf 3c cb 16 6a bd 3a c1 1c be
       -0.013233495 0.023333602 -0.057150643 -0.15308085
0000d0 cd a1 16 bd 41 ad 60 bd 95 3d 67 3d 35 76 9d 3d
       -0.0367754 -0.054852728 0.056455214 0.07688562
0000e0 c6 4b a0 bd 70 4c dd bc fb ef 4f bd 65 05 99 bd
       -0.07826953 -0.027013987 -0.050765973 -0.07471732
0000f0 48 b1 5d bd 23 51 d4 3c a6 bb f4 3b fd 98 eb 3d
       -0.054124147 0.025917595 0.0074686585 0.115037896
000100 31 8d 3d 3d 71 8d 24 be b8 3d 4b bd 9a c8 88 3c
       0.04627723 -0.1606958 -0.049619406 0.016697217
000110 df b1 13 3d 72 74 97 bd 56 d5 1b be 95 f4 ae 3d
       0.036058303 -0.07395257 -0.152181 0.08542744
000120 6c f6 82 3d 8e 35 80 3c ea 92 1a 3e ed 41 35 3d
       0.063946575 0.015650537 0.15095106 0.044252325
000130 a3 5a 71 bd f1 ee 8c bd e6 41 11 3e 78 39 b5 bc
       -0.05892433 -0.06881512 0.14185295 -0.02212213
000140 2a 0c 79 bd 1a 7a 96 39 c5 9d 1c 3d 26 6f 2e bb
       -0.060802616 0.00028701202 0.0382364 -0.0026616543
000150 a7 94 0b bd 62 71 88 bc fd 7e be bc 85 09 e3 bc
       -0.034077313 -0.016655628 -0.023253912 -0.0277145
000160 8d 70 85 3d 30 3f 37 bd 22 53 32 3d 1a 52 26 3d
       0.06515608 -0.044737995 0.043536313 0.040605642
000170 6e d5 f0 bb ed 53 85 3d da 32 ff 3d 14 b3 13 bd
       -0.0073496616 0.06510148 0.12460871 -0.036059454
000180 3f ec b4 3d cb 3d 40 bd 21 29 1a 3c b6 42 e4 bc
       0.08834123 -0.04693393 0.00940922 -0.027863842
000190 b4 0a c1 3d 0b 5e 49 3d 2d e0 7f 3d b7 e7 7c bd
       0.094258696 0.049161952 0.06246965 -0.061744418
0001a0 3b bf 0f 3d 21 14 ff 3c 3f fc e8 3c 4d 07 3d 3e
       0.03509448 0.031137528 0.028440593 0.18459816
0001b0 c9 69 90 3d 11 e5 04 3e 6b 46 81 3d 10 c8 9a bd
       0.07051427 0.12978007 0.06312259 -0.0755769
0001c0 f2 ea d7 bd 53 f9 91 3d 58 ec f8 3c 4e 3e 96 bc
       -0.10542859 0.07127633 0.030386135 -0.018340256
0001d0 7a 28 ae bd 6b cd 4c bd 09 5d 4b bd 33 d3 f5 bd
       -0.08503814 -0.05000059 -0.049649272 -0.12003174
0001e0 0f a8 be bd 0b 27 aa 3d 82 c6 0d 3d a7 2b 3b bd
       -0.093093984 0.08308228 0.03461314 -0.045695927
0001f0 62 10 cd 3d 8e 24 8e bc 69 47 a8 bd a9 47 09 bd
       0.100128904 -0.017351415 -0.082167454 -0.033515606
000200 61 ab 16 bd 5f c6 96 3c 8a 5d 44 3d 8a 11 67 bd
       -0.036784533 0.018405138 0.04794077 -0.05641321
000210 48 9b 93 3d 54 94 ca bd 29 95 12 bd e2 bb 8e bc
       0.07207352 -0.098915726 -0.03578678 -0.017423574
000220 9d 3e 9e 3d 32 f7 d9 3c 41 e8 8a bd ca de d1 bc
       0.07726786 0.02660713 -0.0678258 -0.02561893
000230 db e2 03 3e 09 f1 7a 3d a5 3d 4d bd 66 3e 8f bd
       0.12879507 0.061265025 -0.050107617 -0.069943234
000240 fb cc c8 3c b9 93 8d 3d c1 4c 1f bd 7e 47 5f bd
       0.024511805 0.069129415 -0.038891558 -0.05451154
000250 2b 88 93 bc b4 68 df bb 58 9c 0b bd c5 a7 e3 b9
       -0.018009266 -0.0068179015 -0.034084648 -0.00043421812
000260 c6 17 ce 3c 69 32 30 bd b2 54 1d 3d 03 d1 a3 bd
       0.02515782 -0.043016825 0.03841085 -0.0799885
000270 a4 8c 88 3d 3e 64 b1 3c 1c 1b f7 3d 86 6f b9 bd
       0.0666745 0.021654245 0.120657176 -0.090544745
000280 21 2a 86 3d 98 8f db 3d 4a 5d 3d bd 03 ed 0d 3d
       0.06551004 0.10720748 -0.046231546 0.03464986
000290 87 c0 09 bd 29 44 46 3d c0 83 6f 3c f1 06 02 bb
       -0.033630874 0.048404846 0.014618814 -0.0019840563
0002a0 cc 89 a6 bd e8 e0 bb 3d 2a e6 4d bc 5d 2d 09 3d
       -0.081317514 0.09173757 -0.012567082 0.033490527
0002b0 6d 61 6d bd b6 6c 86 bd 52 5a aa 3b c9 70 96 bd
       -0.05795424 -0.06563704 0.0051987553 -0.07345731
0002c0 ee 26 85 bd 4e 5b 17 3d 6d 72 70 bd 4e c0 65 bd
       -0.06501566 0.03695231 -0.058702875 -0.0560916
0002d0 0a ff 2f bd 8f 7f e9 3c 93 da 52 3d 4e 0e ef bc
       -0.042967834 0.028503207 0.05147798 -0.029181626
0002e0 bc 5e d7 bc 6f ec 00 3e ff 91 9c bd 68 20 f7 bc
       -0.02629029 0.12590192 -0.07645034 -0.03016682
0002f0 e3 7a ff bc 8c e6 21 bd ad 85 d9 3b 38 a7 74 bd
       -0.031186527 -0.039526507 0.00663825 -0.059729785
000300 b4 6b d8 bd af b5 c4 bd f4 98 17 bb c7 c3 e7 3c
       -0.10567418 -0.09604966 -0.0023131939 0.028291596
000310 36 f6 76 bd 45 3d 0d 3d eb 8d a0 bd 0a ac c9 bd
       -0.0602934 0.03448226 -0.07839569 -0.09847267
000320 72 25 28 3d b3 d9 e0 3c c5 35 66 3d 12 6b 50 bd
       0.041051336 0.027447557 0.056203622 -0.05088336
000330 81 65 65 bd e2 54 29 3d a4 70 f6 3c ba 6e fa bc
       -0.056005005 0.041340716 0.030083008 -0.030570377
000340 50 cd 14 bd c9 e8 a3 bc 9b 71 11 bd 92 c1 48 bd
       -0.036328614 -0.020008462 -0.035508733 -0.049012728
000350 c1 32 3d bd 1a 1e ed bd 8b 84 19 3b 69 f3 a3 bd
       -0.04619098 -0.11578007 0.002342495 -0.08005411
000360 4a 43 6a bc 2f 31 9a 3d 69 97 b6 3c d0 65 b8 3d
       -0.0142982695 0.07528912 0.022288995 0.09003794
000370 6e a1 fa bc a1 61 82 bd b2 85 9d 3d 01 91 76 bd
       -0.030594554 -0.063662775 0.07691516 -0.06019688
000380 dc 28 83 3d 15 41 35 bd a2 4a 62 bd b3 10 84 bd
       0.06404278 -0.04425152 -0.055246957 -0.064484976
000390 9a 17 86 3d 73 0f 35 3d 76 a7 56 bd 3d 49 95 3d
       0.065474704 0.044204187 -0.052405797 0.0728936
0003a0 be 31 b9 bd ae 0c 8e 3c 7c f9 82 bd 24 ba 0c 3d
       -0.09042691 0.01734003 -0.063952416 0.034357205
0003b0 ca ec af 3d 10 b3 a5 3c 0e 42 69 3d 89 97 a2 bb
       0.08590086 0.020226985 0.05694776 -0.004961912
0003c0 73 86 9a bd df 13 bf bd b8 e3 75 bc cc 58 26 bd
       -0.075451754 -0.09329962 -0.015007906 -0.040612027
0003d0 10 fc fa 3c cb 2c c3 bd e5 00 64 3d 68 2a c6 bc
       0.03063777 -0.09530028 0.055664916 -0.024190143
0003e0 b5 bd 3f bd 01 64 3a 3d b4 c1 da 3d 77 8d 6a bd
       -0.046811778 0.045505527 0.10681477 -0.057263818
0003f0 d4 d2 a3 3c cd 26 0e 3d 34 3a 3c bb d5 10 4a bd
       0.019997992 0.034704972 -0.0028721215 -0.04933246

4.bias f4 [128]
000000 09 31 1b bb b5 df 97 bd 14 7c 90 3c c7 2f 86 bd
       -0.002368035 -0.074157156 0.01763729 -0.065520816
000010 1c 2b c5 bd 85 67 62 bd 85 b7 1c bd d5 a5 a3 bd
       -0.09627363 -0.055274505 -0.038260955 -0.07990614
000020 d9 1e 09 be fa 02 a3 3b 3d 1f 72 3a 41 ad 4f 3d
       -0.13390674 0.00497472 0.0009236222 0.050702337
000030 d6 b5 c9 3c 97 fd df bd a4 a4 d0 bc 7a cb e7 3c
       0.024622839 -0.1093704 -0.025469132 0.028295267
000040 fa dd ac 3c 1f 66 e4 bd b5 22 74 bd 34 10 c6 bd
       0.02110194 -0.111522906 -0.05960341 -0.09671059
000050 2c 89 ac 3d 49 71 af 3d f4 12 83 bd c9 23 b7 3d
       0.08424601 0.08566529 -0.064000994 0.08942372
000060 94 4a 1b 3d 03 6c af bd fd e3 a1 bd be e0 fc bd
       0.03791292 -0.085655235 -0.079048134 -0.12347554
000070 39 be df 3d 55 e0 bb bd 91 05 b5 bd ca 3b b1 bc
       0.10924954 -0.09173647 -0.08838952 -0.021634955
000080 2d 7c 9a 3c 47 2d dc bd 31 62 6e bc 3d 02 16 3d
       0.01885804 -0.107508235 -0.014549778 0.03662323
000090 81 56 fd bd c5 8a 92 bd 9d 93 30 3b d1 59 6e bd
       -0.12370015 -0.071553744 0.0026943453 -0.058191124
0000a0 ce 48 ec bd f3 d5 8c 3d 57 7c 91 bd 4b 3e 1e bd
       -0.11537324 0.06876745 -0.07103794 -0.038633626
0000b0 da 45 4c bc 29 27 01 bd 07 30 bf bd 64 8d ee bd
       -0.012467826 -0.031531487 -0.09335332 -0.11648062
0000c0 ee 2a ee bc 4f 5c 62 3d 4d a2 f7 bd 1a a7 22 bd
       -0.029073205 0.055263814 -0.12091503 -0.03971014
0000d0 4c a5 6c 3d b4 c1 94 3c e7 ff 20 bc e6 f6 9d bd
       0.057774827 0.018158771 -0.009826637 -0.07713108
0000e0 65 49 5b bd 5b d0 87 bc 0f 93 54 bd 9d 43 30 bd
       -0.05353679 -0.016578844 -0.05189806 -0.04303323
0000f0 a2 b2 15 bd 96 e3 23 3c 22 bb b1 bd 57 07 b5 bd
       -0.03654731 0.010002991 -0.08678271 -0.088392906
000100 9e 77 a1 bd eb f1 ff 3c 58 62 46 bd 96 a3 cc 3c
       -0.07884143 0.031243285 -0.04843363 0.024980348
000110 b0 6e 7f 3d d1 bf d4 3c 6c 2a 08 be 84 f3 d6 3a
       0.06236142 0.025970371 -0.13297433 0.0016399478
000120 6b 5b 2c 3c 89 fe 37 bd 14 10 11 bd 22 f0 7a 3c
       0.010519843 -0.044920478 -0.035415724 0.015316041
000130 d2 cd 7c bd 80 af 8e bd cd 19 aa bd 05 d1 ea bc
       -0.061719723 -0.06967068 -0.08305702 -0.028664121
000140 4e ed d0 bc e3 a5 21 3c 9b 48 54 bd 9f aa 80 bd
       -0.02550378 0.009866211 -0.051827054 -0.062825434
000150 f0 15 f3 bc 3b 72 d5 bd 87 f5 01 3d 13 08 b8 bd
       -0.029673547 -0.10422178 0.031728294 -0.08985915
000160 06 97 d5 bc 4e 39 c0 3d b5 3c 14 be e5 5b 88 bc
       -0.02607299 0.0938593 -0.14476283 -0.016645381
000170 f3 2b 1b bd 4f b5 c5 3d 92 6e 4a bc ea 7d a3 3d
       -0.03788371 0.096537225 -0.012355464 0.079830006
000180 4a 56 73 bd 85 9c f8 bb 6c 02 6f bd f1 43 0e 3d
       -0.059408464 -0.007587018 -0.05835192 0.034732763
000190 b2 84 ed bc 7f d0 1e 3c 77 20 1b be ca 14 6a bc
       -0.028993938 0.009693264 -0.15149103 -0.014287183
0001a0 d2 b4 7f ba 88 b3 f0 3c 92 5b a7 3c 79 63 46 bd
       -0.00097544224 0.029382482 0.020429406 -0.04843471
0001b0 37 18 25 bd 9f dd 72 3d 52 1c e0 bd 8c c8 10 bb
       -0.040306296 0.059293386 -0.10942902 -0.0022092192
0001c0 03 4f 8b bd b0 c5 0d bd db cc 34 bd ec 21 0f bd
       -0.0680218 -0.034612358 -0.044140678 -0.03494446
0001d0 4c 18 17 3c 07 57 8a bd 00 f6 12 bd 16 a6 a3 3c
       0.009222101 -0.067548804 -0.035879135 0.019976657
0001e0 83 96 31 bb 74 04 2d 3c 94 8a 79 bd b7 83 92 3d
       -0.0027097769 0.010560144 -0.060923174 0.07154029
0001f0 7f be 48 bd 27 b5 b6 3d 18 cf 41 bd 82 6e 71 3b
       -0.049009796 0.08921271 -0.04731664 0.003683955

6.weight f4 [12, 128]
000000 53 25 32 3c 8d ce 12 bd 09 92 03 3c d2 40 a3 3c
       0.010873157 -0.035841513 0.008030423 0.01992837
000010 84 54 85 3a dc 9a 4e bd 05 8b e4 3c 56 34 20 3d
       0.0010172282 -0.050440654 0.02789832 0.03911241
000020 7c 8b b9 3c c3 56 53 bc 48 7b 09 3c ef 20 1e 3d
       0.02264952 -0.012899104 0.008391209 0.038605627
000030 5e dc 55 3c 31 e4 44 bb 48 4f 75 bc 4a 78 a7 3b
       0.013053028 -0.003004324 -0.014972515 0.005110775
000040 82 7d 29 bc 3b e0 f1 3c ae 9e 38 3d 2f eb d3 3c
       -0.010344865 0.029525867 0.045073204 0.02586898
000050 c9 1f b3 bc 13 27 24 bd b9 f1 18 bc 03 cc ba bc
       -0.021865742 -0.040076327 -0.009334975 -0.022802358
000060 8b 92 78 3c c6 33 bd bb a6 f4 0c 3d cb 1b 12 3c
       0.015171657 -0.005773994 0.034413002 0.008917759
000070 cd e5 b8 3b 12 f8 70 bc 6f 04 4c bc 1d 5e ce bc
       0.0056426288 -0.014707582 -0.012452229 -0.025191361
000080 c2 2e e3 3b 60 f2 a0 bd 7b b2 bb 3c 1f 6f 82 bc
       0.006933064 -0.07858729 0.022912255 -0.015922127
000090 d2 5e 0c bd ff ea 49 3b e3 92 0d bc a9 9f 44 3d
       -0.034270115 0.0030810235 -0.008640978 0.048003826
0000a0 ad f7 8b bd 2b 5f a4 3b 39 37 ba 3b 09 5d 88 3c
       -0.0683435 0.0050162277 0.0056828526 0.016645925
0000b0 e5 31 17 3c 61 de 86 bc ec ec ad 3a a9 8d d5 3b
       0.009228204 -0.01646346 0.0013269461 0.0065171313
0000c0 ab 59 04 bc f9 07 d4 3c ce ca b8 ba 75 b0 89 3b
       -0.008078019 0.025882708 -0.0014098526 0.0042019435
0000d0 b8 f3 ab 3b ec d8 f7 bc 0f 25 53 bb 7b ff 11 3c
       0.0052475594 -0.030254804 -0.0032218134 0.008911009
0000e0 88 0b 0b 3c 5a 10 83 bc 42 67 10 bd a0 91 9c 3b
       0.008486636 -0.015999008 -0.035254724 0.004778102
0000f0 36 6f 25 3c b5 e7 82 bc 0d 30 8a 3c 0b 8e ed 3a
       0.010097316 -0.015979627 0.016868616 0.0018123997
000100 1f 88 2d 3c 8a ab ae bb ab 8d 97 3b ef 32 aa 3c
       0.010591536 -0.0053305076 0.0046250424 0.02077624
000110 02 6e 47 3c 57 b0 64 3b a1 c7 e0 3c 9a a9 8a bd
       0.012172224 0.0034895146 0.02743894 -0.0677063
000120 ea 2a 11 bd 5c 55 b5 bc 2f 5e 1f bd 9a 95 3d bd
       -0.035441317 -0.02213543 -0.03890818 -0.04628525
000130 c3 9b 84 bc 19 d8 0e 3c ae db d4 ba 75 0e 6b bc
       -0.016187554 0.008718514 -0.0016239786 -0.014346709
000140 42 7b ac 3b 28 7a 91 bd 67 1d 06 bc 73 96 12 bc
       0.005263717 -0.071033776 -0.008185721 -0.008947003
000150 ae f7 82 bc 3d bd c4 3b 6b ac a5 bc bd 9f 9f bc
       -0.015987244 0.0060040043 -0.020223817 -0.019485349
000160 ce b6 3e 3d f0 be be bc e7 b7 17 3d 13 1a 1c bc
       0.046561055 -0.023284405 0.037040617 -0.009527701
000170 b4 3b 9f 3d 16 34 01 bc 21 06 1d b9 c5 d3 08 3c
       0.07775059 -0.007885953 -0.0001497497 0.008351271
000180 81 91 25 bc 9b 93 09 3b e1 51 fd 3c c9 aa 6f bc
       -0.010105492 0.002099252 0.030922832 -0.014628121
000190 2d ab 17 3d 63 9e 87 3c 47 a3 a4 bc 96 d4 b9 3c
       0.03702848 0.016555017 -0.020097388 0.022684377
0001a0 63 6f 96 39 2f f7 79 3b 5b fe 3a bb f4 db de bc
       0.0002869322 0.0038141718 -0.0028532955 -0.027204491
0001b0 c6 ce d2 3d cc 4f 52 bc 8a 96 09 3c 26 35 b5 3c
       0.10293345 -0.012836408 0.008397708 0.02212007
0001c0 f7 ea eb 3c 8f 92 08 3d 10 f9 fe bb d4 ee 25 3d
       0.028798563 0.033342894 -0.0077811554 0.040510967
0001d0 99 70 98 bc 1d 92 83 bd 8a 5d 09 bb 5e 05 22 bd
       -0.018608378 -0.06424353 -0.0020960295 -0.0395559
0001e0 74 2e f5 3c 18 89 5e bd 5f 00 20 3d 34 7a cb bc
       0.029929377 -0.05432996 0.039062854 -0.024838544
0001f0 27 e4 1a 3c 55 dc 46 bc 77 bc 04 3d 35 6a 97 bc
       0.00945381 -0.012137492 0.032406297 -0.01848326
000200 5c 28 d2 3c 1e 29 85 3c 47 96 df bb 04 f7 49 bd
       0.02565401 0.016254958 -0.0068233344 -0.049307838
000210 60 d8 af 3b 90 f6 6d 3d f1 45 40 bc 3c 02 7c 3c
       0.00536637 0.05809647 -0.011735425 0.015381392
000220 11 46 b0 bc 74 18 dc 39 ca 95 c9 3c 72 f7 04 3c
       -0.021517785 0.0004197989 0.024607558 0.008115636
000230 27 e7 95 3c b8 db 0f bc 84 fe 59 3c 96 e1 a1 3c
       0.018298699 -0.008780412 0.01330531 0.019760888
000240 1e bb cb bc 6e d2 2a 3c 04 e1 a6 3d ad 35 92 bc
       -0.024869498 0.010426147 0.08148387 -0.01784786
000250 79 59 95 3a 09 8e 03 bc 9e 7e f4 bc bc 87 4a 3c
       0.0011394463 -0.008029469 -0.029845532 0.012361463
000260 48 0d 1c 3c b2 06 b2 bc 00 16 2d 3c 28 c2 b0 bc
       0.009524651 -0.021731708 0.010564327 -0.021576956
000270 24 8f 35 3c d4 91 b4 3c a6 9a bf 3b a7 e1 ac bb
       0.011081491 0.022042193 0.005847293 -0.0052759233
000280 ad da e2 3b e5 ec 02 3e 9c 8e 97 bc d4 fd 14 bd
       0.006923041 0.1278568 -0.018500619 -0.036374882
000290 28 de a5 ba a4 0f 2d bd 04 b8 0b b9 d5 9a d2 3b
       -0.0012654709 -0.042251244 -0.00013324624 0.006427149
0002a0 6a df 4f 3c af b5 a1 3c 84 d5 f2 bc b1 1a e5 3b
       0.012687543 0.019739954 -0.029642828 0.0069917073
0002b0 78 1e 89 bc 85 86 5e bc 09 78 59 3d d6 0e a9 3b
       -0.016738161 -0.013581877 0.05309299 0.0051592393
0002c0 54 84 a0 bb 51 b7 18 bd 57 a6 fb 3b 85 56 cc bc
       -0.0048985872 -0.0372842 0.0076797414 -0.0249436
0002d0 5e be 75 bc d1 1b 3d bd 32 85 66 bc 96 85 15 3d
       -0.014999 -0.046169106 -0.014069842 0.03650435
0002e0 46 20 a2 bb 6f 65 8c bd 4a 22 ac 3c 42 ec 1f 3c
       -0.004947695 -0.068552844 0.021012444 0.009760918
0002f0 b7 29 1b bc 9d 56 00 3c db c8 b8 3a ec 94 16 bc
       -0.009470395 0.00783315 0.0014097946 -0.009190779
000300 e9 88 4f 3d 83 f4 0a 3c 5a 31 43 bb 6c 99 90 bc
       0.050667677 0.008481148 -0.0029784054 -0.017651282
000310 ef 22 9b 3b 92 70 fb 39 e9 bd be 3b 0a 1a 85 bc
       0.004734389 0.00047958322 0.005820979 -0.016247768
000320 aa 7d 05 bd c8 68 60 bd a5 21 8b bb 4e 7e 1e 3c
       -0.032590546 -0.054787427 -0.004245954 0.009673668
000330 49 d9 ea bb 41 61 ee bc 58 50 a0 bb b1 53 2f 3c
       -0.0071670157 -0.029099109 -0.00489239 0.010701106
000340 12 81 86 bd 6e 7a 6b bd d1 f6 dd bc 13 28 e3 bc
       -0.06567587 -0.057489805 -0.02709523 -0.02772907
000350 08 e2 99 3c cf e0 c3 3c f0 db d6 3b 49 1a cd 3c
       0.018784538 0.023910908 0.0065569803 0.025036948
000360 25 6e b2 bc d8 82 0b 39 ee 64 87 ba 92 c8 66 39
       -0.021781037 0.00013304816 -0.0010329762 0.00022009228
000370 90 de 3a bd 8b 08 51 3d b2 86 1c 3c 5e 2d f2 bc
       -0.04562241 0.051033538 0.009553598 -0.029562648
000380 fd f4 ef bc 3e ee 0f bc a0 7c a0 bc 95 97 8e bb
       -0.029291624 -0.008784829 -0.019590676 -0.004351566
000390 9b 0c cd ba 15 36 2e 3b c8 80 2e bb 29 c8 22 3d
       -0.0015644016 0.0026582528 -0.0026627053 0.03974167
0003a0 a7 8c e0 3b 4b ab d7 bb 71 4b c0 3c e5 df e5 bc
       0.0068527046 -0.006581699 0.023473473 -0.028060863
0003b0 eb 2d 0c 3d 61 70 d9 39 b9 38 16 bc 5d 9b 52 bc
       0.03422348 0.00041473194 -0.009168797 -0.012854424
0003c0 1b 17 4f 3d d9 5e 4c 3d a8 3c 78 3b 7d ad 08 bd
       0.050559144 0.04989514 0.003787795 -0.033368576
0003d0 97 40 11 bd c3 63 39 3d 1f 24 7d 3c 66 1c c8 bc
       -0.03546199 0.045261156 0.0154505065 -0.024427604
0003e0 95 13 ad 3c bc df 3e bc 68 8d 95 3c 79 9f 25 3d
       0.021127502 -0.011650022 0.018255904 0.040435288
0003f0 33 61 b6 bb 82 d5 6c 3c 43 e1 1f bd 70 2e 16 3c
       -0.0055657863 0.014455201 -0.039033186 0.009166345

6.bias f4 [12]
000000 95 49 dc 38 c7 c1 96 3b dd db 21 bd 2d 99 46 bd
       0.00010504123 0.004600737 -0.03951632 -0.048485924
000010 c4 d8 f9 bd 51 26 36 be 71 7f 02 bd 44 a5 34 3e
       -0.12199548 -0.17788054 -0.03185982 0.17641169
000020 6b d5 79 bd eb 2b e5 bd 9a 87 42 3c 14 f3 9f bc
       -0.060994547 -0.11190017 0.01187315 -0.019525088
