onnx_inference/data/model.onnx (onnx, 166363 bytes, 8 tensors)

0.weight f4 [128, 52]
0	0x3f489ff5	0.78369075
1	0x3dfbce58	0.12295216
2	0x3e053524	0.13008553
3	0xbcb79d65	-0.022413919
4	0xbce36d6f	-0.027762143
5	0x3ae66a0f	0.0017579215
6	0xbe31de75	-0.17370017
7	0x3c7165e5	0.014733766
8	0xbed8277d	-0.42217627
9	0x3e84db60	0.2594862
10	0x3e4ca255	0.199838
11	0x3e186648	0.14882767
12	0xbeb00e23	-0.34385785
13	0x3f0cbf34	0.5497925
14	0xbe8ea97a	-0.27863675
15	0xbcb4d935	-0.022076229
16	0x3e1a3c7d	0.15062137
17	0x3f400678	0.7500987
18	0x3eb4af61	0.35290053
19	0x3df451a1	0.11929632
20	0xbe5cead0	-0.21573949
21	0x3f8d9390	1.1060658
22	0xbd8c0a32	-0.06837882
23	0x3ec6186f	0.38690516
24	0x3c5348d7	0.012895784
25	0x3cc3b39f	0.023889361
26	0x3d970c8d	0.07375441
27	0x3e07bd69	0.13255848
28	0x3db37354	0.087622315
29	0xbc8943ab	-0.0167559
30	0xbd0f007a	-0.034912564
31	0xbda31f11	-0.0796491
32	0x3e4000fb	0.18750374
33	0xbb5681db	-0.0032731208
34	0xbcfcf2ea	-0.03087755
35	0x3e0fcdfb	0.14043419
36	0xbed97250	-0.42470026
37	0xbdc06719	-0.09394664
38	0x3dd6913d	0.10476921
39	0x3db8616b	0.09002956
40	0xbcbef940	-0.023312211
41	0x3dd9ecd2	0.10640873
42	0x3e18d097	0.1492332
43	0xbe1557fd	-0.14584346
44	0xbd8d7956	-0.069079086
45	0x3e34f54a	0.17671695
46	0xbd183405	-0.037158985
47	0xbcf0dcba	-0.029402126
48	0xbd412f81	-0.047164444
49	0xbdaa8643	-0.0832639
50	0xbd989bd0	-0.07451594
51	0xbd986250	-0.074406266
52	0x3f6457d6	0.89196527
53	0xbfccadc7	-1.5990533
54	0x3eb31285	0.34975067
55	0xbd1d6450	-0.038425744
56	0xbbbddb41	-0.0057939594
57	0x3c33edf7	0.010982028
58	0xbdc24b1d	-0.09486983
59	0x3ebdc92d	0.37067547
60	0xbd3085aa	-0.043096222
61	0x3ee65423	0.44986066
62	0xbf1562a7	-0.58353657
63	0xbd8ae48b	-0.06781872
64	0xbdf4949c	-0.119424075
65	0x3edd1a47	0.4318411
66	0xbf79b6d5	-0.97544605
67	0x3f12e5ee	0.57382095
68	0x3ed51aad	0.41621915
69	0x3f515d29	0.81782776
70	0xbdb02178	-0.08600134
71	0x3ed6a82f	0.4192519
72	0x3f28e278	0.65970564
73	0xbd126c9c	-0.03574811
74	0x3f18fabb	0.59757584
75	0xbcafd0eb	-0.021461925
76	0xbd76b855	-0.060234386
77	0xbd9b387a	-0.075791314
78	0x3df6c747	0.12049728
79	0x3b2f2528	0.0026725028
80	0x3c93230e	0.017961051
81	0x3a030fc0	0.00049996004
82	0xbc2255ab	-0.00990812
83	0xbd4c6dfb	-0.049909573
84	0xbdce3654	-0.10068956
85	0xbc89610e	-0.016769912
86	0x3d0a5722	0.033774503
87	0x3d60e139	0.05490229
88	0x3b1e55c7	0.0024160014
89	0xbd63626a	-0.055513777
90	0xbe28fba6	-0.16502246
91	0xbd78cb89	-0.06074098
92	0x3cb44e1c	0.022009902
93	0xbe1212e7	-0.14265023
94	0x3e649f36	0.22326359
95	0x3e05982a	0.13046327
96	0x3dd8bb4c	0.10582599
97	0xbeb5b462	-0.35489184
98	0xbde7893f	-0.113054745
99	0xbd50d8cf	-0.050988015
100	0xbe1b3c65	-0.15159757
101	0x3e1a998e	0.15097639
102	0xbefed5d8	-0.49772525
103	0x3cb501ff	0.022095678
104	0x3db31562	0.08744313
105	0xbed389c0	-0.41316032
106	0x3e9639d3	0.2934099
107	0x3bfdfc26	0.0077510057
108	0xbc123a59	-0.008925044
109	0x3c3f8d86	0.011691457
110	0x3d834e85	0.06411461
111	0x3c50436e	0.012711389
112	0x3e4e0495	0.20118935
113	0xbd2a7048	-0.041610986
114	0x3de1c892	0.11024584
115	0xbe9e3b72	-0.30904728
116	0x3f183188	0.5945058
117	0x3f254957	0.6456503
118	0xbe9a6575	-0.3015553
119	0x3f5ef6c6	0.87095296
120	0x3ef22ee0	0.47301388
121	0x3d8c9a0a	0.06865318
122	0x3f1dd609	0.61654717
123	0x3e1c9046	0.15289411
124	0x3ed9e475	0.4255711
125	0xbe2250e2	-0.15851167
126	0xbf3c6279	-0.7358776
127	0x3f2b4e6e	0.6691655
128	0xba9067eb	-0.0011017298
129	0x3cde83b5	0.027162412
130	0x3d1ae40b	0.037815135
131	0xbdb0d2cc	-0.08633956
132	0xbd1ef28d	-0.038805533
133	0x3d05ba0e	0.03264814
134	0x3c8bbfc4	0.017059214
135	0x3d47791e	0.04869949
136	0xbca413fb	-0.020029059
137	0x3bd47caf	0.00648459
138	0xbbf55c78	-0.00748783
139	0xbd120c25	-0.035656113
140	0x3e996146	0.29957026
141	0x3dd96e73	0.1061677
142	0x3e476524	0.19472176
143	0x3da4bb30	0.08043516
144	0x3c856910	0.01628545
145	0x3cb79fa5	0.022414992
146	0x3dbbfcaf	0.09179055
147	0x3d858914	0.06520286
148	0xbe829998	-0.25507808
149	0x3d601b85	0.054713745
150	0xbe60b1a7	-0.21942769
151	0xbe01cc34	-0.12675554
152	0xb8d05585	-9.934142e-05
153	0x3cb553ab	0.022134623
154	0x3e15bbcf	0.14622425
155	0xbe202796	-0.15640101
156	0x3db90895	0.0903484
157	0x3f4b0b9f	0.7931461
158	0x3dbe4318	0.09290141
159	0xbc784393	-0.01515283
160	0x3be5e47a	0.007015762
161	0x3c3be8f9	0.011469119
162	0x3bd75297	0.006571125
163	0xbc693b65	-0.014235352
164	0x3d0ed332	0.03486938
165	0xbf1320d6	-0.5747198
166	0xbe2717a5	-0.16317613
167	0xbeca13b4	-0.39468157
168	0x3ed201b7	0.41016933
169	0xbf1e8438	-0.619205
170	0xbfa39be2	-1.2781947
171	0xbe4a7e11	-0.19774653
172	0xbf72dda9	-0.94869477
173	0x3f2707a2	0.6524602
174	0x3e230fac	0.15923947
175	0xbeaf6d3c	-0.34263027
176	0xbc420f21	-0.011844427
177	0x3d0707a4	0.03296627
178	0xbf1bfb72	-0.6093055
179	0x3ee53ab7	0.44771358
180	0xbc8cce56	-0.017188232
181	0x3bb3089f	0.005463674
182	0xbca9a748	-0.020709649
183	0x38c9de06	9.625782e-05
184	0x3d883629	0.06650955
185	0xbd3b3b20	-0.045710683
186	0xb7e8f35b	-2.7769876e-05
187	0x3bf45266	0.0074561117
188	0x3d7ee537	0.062230315
189	0x39f40aa2	0.0004654723
190	0xbd561678	-0.05226752
191	0x3c82d722	0.015971724
192	0x3dd7fc8c	0.10546216
193	0x3d702abe	0.058634512
194	0xbea6b29a	-0.32558137
195	0xbea48a15	-0.32136598
196	0xbba584eb	-0.0050512454
197	0x3c4d1723	0.012517723
198	0xbe816b5b	-0.25277218
199	0x3e97639b	0.2956818
200	0x37c1d7b7	2.3107843e-05
201	0xbd2ca58d	-0.04215007
202	0xbdca3d81	-0.09875012
203	0x3d734add	0.059397567
204	0xbcdaee2a	-0.026724894
205	0x3d4d4b27	0.0501205
206	0x3ed3b05f	0.41345498
207	0xbe4c5436	-0.19953999
208	0x3e59164e	0.21199915
209	0x3ef2d728	0.47429776
210	0x3dc4e296	0.0961353
211	0x3d14ace3	0.03629769
212	0x3d6618d5	0.056176025
213	0xbae0faa4	-0.001716454
214	0x3c14cdce	0.009082271
215	0x3d07c19b	0.03314362
216	0x3ea28178	0.31739402
217	0xbf2b5786	-0.66930425
218	0x3f4e93bc	0.80694175
219	0xbf7fe2fc	-0.99955726
220	0x3c4a93c4	0.012364332
221	0x3e77207f	0.2413349
222	0xbe671f19	-0.22570457
223	0x3d44ad04	0.048016563
224	0x3f4eda83	0.8080217
225	0xbf1529b3	-0.5826675
226	0x3ebed151	0.3726907
227	0xbea81251	-0.32826474
228	0x3f2a54b8	0.6653552
229	0x3e9d34dd	0.30704394
230	0x3ef59fe0	0.47973537
231	0x3f22b0bf	0.63550943
232	0xbc9ee480	-0.019396067
233	0x3de47bfa	0.11156459
234	0xbd20877b	-0.039191704
235	0xbcb8ab92	-0.022542749
236	0x3cb86eab	0.022513708
237	0xbce0da1b	-0.02744775
238	0xbaa3fe4c	-0.00125117
239	0xbcb94bd1	-0.02261916
240	0xbc2208b7	-0.009889773
241	0xbdd3c771	-0.10340775
242	0xbcb31999	-0.021862792
243	0xbcbb5ca3	-0.022871321
244	0xbd213d77	-0.039365258
245	0x3ddd1290	0.10794556
246	0x3e568611	0.2094958
247	0x3d4e3ff3	0.050353955
248	0xbe82ffc3	-0.25585756
249	0xbebcfa01	-0.36909488
250	0x3da905e8	0.0825308
251	0x3e8f5f02	0.28002173
252	0x3e073ef9	0.13207616
253	0x3cbd19df	0.023083625
254	0x3e91e6e2	0.28496462
255	0xbdff85ed	-0.12476716

0.bias f4 [128]
0	0xbd024883	-0.031807434
1	0xbe276d89	-0.16350378
2	0xbe7dc5ac	-0.24782437
3	0xbdc8fb37	-0.098135404
4	0x3c717e9a	0.014739657
5	0xbdf3328f	-0.11874878
6	0xbdb176ab	-0.08665212
7	0x3e5d756a	0.21626821
8	0xbc730db6	-0.014834812
9	0x3bee27dc	0.007267935
10	0xbcb1837b	-0.02166914
11	0xbddd1d34	-0.10796586
12	0xbdcfc092	-0.10144152
13	0xbeab6ff6	-0.33483857
14	0x3db288e7	0.08717518
15	0xbdf344c6	-0.11878352
16	0xbdffede8	-0.12496549
17	0xbe227e4b	-0.1586849
18	0x3d9908ec	0.07472405
19	0x3e2bbb32	0.16770628
20	0xbdc4e738	-0.09614414
21	0xbd9938d0	-0.07481539
22	0xbe1c80bb	-0.15283482
23	0x3e55edaa	0.20891443
24	0xbe2d750e	-0.16939184
25	0x3dd169ad	0.10225234
26	0xbe3b0f95	-0.18267663
27	0x3df1fa92	0.118153706
28	0xbe413727	-0.18868695
29	0x3d8285e6	0.06373195
30	0xbd770c07	-0.060314205
31	0x3dba7847	0.09104972
32	0x3cd6dde2	0.026228849
33	0x3e103254	0.14081699
34	0x3dd978f1	0.10618771
35	0xbebcb382	-0.36855704
36	0xbbbb2b89	-0.005711977
37	0x3d96abe9	0.07357008
38	0x3d5ab086	0.053391002
39	0xbd8e995f	-0.06962847
40	0xbd953811	-0.072860844
41	0x3e17ac5b	0.14811842
42	0x3e4abf44	0.19799525
43	0xbb836def	-0.004010908
44	0x3bdf509c	0.0068150293
45	0xbdb61840	-0.08891344
46	0xbcd45af3	-0.025922274
47	0xbe1d87f5	-0.15383895
48	0x3d8fddc7	0.070247225
49	0x3e8a1647	0.2697012
50	0x3e0539ed	0.13010378
51	0xbd365d5b	-0.044522624
52	0xbdbc9cb9	-0.0920958
53	0x3e1ff7d4	0.15621883
54	0xbdcdc2c4	-0.10046914
55	0xbdbea3d6	-0.09308593
56	0x3e0f759f	0.14009713
57	0xbe19fd96	-0.15038142
58	0x3e1dfc5e	0.15428302
59	0xbd972bce	-0.07381402
60	0xbed27c1a	-0.41110307
61	0xbd5cf3f4	-0.05394359
62	0xbe728b0e	-0.23685858
63	0x3e08d26f	0.13361524
64	0x3e1b7631	0.15181805
65	0xbe66bd56	-0.22533163
66	0xbcfd7b46	-0.03094257
67	0xbdad01ba	-0.08447595
68	0xbe2673a2	-0.16255048
69	0xbe03cda6	-0.12871417
70	0x3e479ef2	0.19494227
71	0xbc759be8	-0.014990784
72	0x3d99197d	0.07475565
73	0xbda9d011	-0.08291639
74	0xbe7e4915	-0.24832566
75	0xbe1c02c4	-0.1523543
76	0x3dded121	0.10879732
77	0x3d29f3a5	0.041492123
78	0x3c80e485	0.015733967
79	0x3e05c793	0.13064413
80	0xbda5ba79	-0.080922075
81	0xbe6a8ac9	-0.22904505
82	0x3de3ac99	0.11116905
83	0xbe7a4266	-0.24439391
84	0xbe4b2d44	-0.19841486
85	0x3e067f39	0.13134469
86	0xbcc5c49b	-0.0241416
87	0x3e158b2d	0.14603873
88	0xbe668b65	-0.22514112
89	0x3dcbe215	0.09955231
90	0x39fed114	0.0004860243
91	0xbd372c86	-0.044720195
92	0x3d4b16ac	0.04958217
93	0xbca6e533	-0.020372963
94	0xbe2f4721	-0.17116977
95	0x3de44771	0.11146439
96	0xbd861497	-0.06546896
97	0xbd01fcad	-0.03173511
98	0xbcab81a1	-0.020935835
99	0xbaf561e2	-0.0018721188
100	0x3e120e4b	0.14263265
101	0xbdc4083f	-0.09571885
102	0x3dd39ed6	0.1033303
103	0x3e0bc704	0.13650137
104	0x3dca6737	0.09882968
105	0x3dc9206f	0.09820639
106	0xbe3c6276	-0.18396935
107	0xbe02a7a2	-0.1275926
108	0xbdbaa12d	-0.09112773
109	0xbd9a1b5b	-0.07524749
110	0x3e589c39	0.21153344
111	0x3d873560	0.06601977
112	0xbbecf206	-0.007231
113	0xbdef5817	-0.11686724
114	0xbdc7bbb5	-0.09752599
115	0x3e14e8cd	0.14541931
116	0x3ddd6818	0.1081087
117	0xbe4788ef	-0.1948583
118	0xbe5cd8bf	-0.21567057
119	0xbd73551f	-0.05940735
120	0xbdb19a02	-0.08671953
121	0x3e371e8f	0.17882751
122	0xbe335e30	-0.17516398
123	0x3ddcbe61	0.107784994
124	0x3e013479	0.12617673
125	0x3e43a5bc	0.19106191
126	0x3e03610b	0.12829988
127	0x3d9737f5	0.0738372

2.weight f4 [128, 128]
0	0x3e400347	0.1875125
1	0x3de75ab1	0.11296595
2	0xbcd6f581	-0.026240112
3	0xbdaba4d9	-0.083810516
4	0xbc7a36d6	-0.015271863
5	0xbd668812	-0.05628211
6	0xbd73d4ad	-0.059528995
7	0x3d3e0988	0.04639581
8	0xbe8c7de5	-0.274398
9	0x3d1dbd84	0.038510814
10	0x3e4a3ade	0.19749019
11	0xbd8382b9	-0.06421418
12	0x3e034fa4	0.12823349
13	0x3dca1074	0.098664194
14	0xbe3801dd	-0.17969461
15	0xbc56b484	-0.013104562
16	0x3d14b32f	0.036303695
17	0xbe36d45d	-0.17854448
18	0x3da9a263	0.08282926
19	0xbdc26a0f	-0.09492885
20	0x3e247fca	0.16064373
21	0xbd4f057b	-0.050542336
22	0x3b870c1a	0.0041213157
23	0x3d7386f3	0.05945487
24	0x3da9b7a7	0.08286982
25	0xbe26cca0	-0.16288996
26	0x3d89e87a	0.067337945
27	0xbe9c6477	-0.305454
28	0xbdd25400	-0.10269928
29	0xbe4640fa	-0.19360724
30	0xbd89e129	-0.06732399
31	0xbe7d6c29	-0.24748291
32	0xbe0db189	-0.13837256
33	0xbe0cf430	-0.13765025
34	0x3dbb5355	0.09146754
35	0x3e1ce86f	0.15323041
36	0xbdd89e4f	-0.1057707
37	0x3e4eaf43	0.20184045
38	0xbd9d463d	-0.076794125
39	0xbdec63bf	-0.115424626
40	0x3d9421ca	0.07233007
41	0xbd45c51b	-0.048283678
42	0x3cf76f1b	0.030204346
43	0x3b8c8a95	0.004288981
44	0xbd9431b4	-0.072360426
45	0x3ddb26f1	0.10700787
46	0xbe00be23	-0.12572531
47	0x3e3bda05	0.18344887
48	0xbddabe92	-0.1068088
49	0x3b0be7b4	0.0021347823
50	0xbca13e4e	-0.01968303
51	0x3e65e5bf	0.22450922
52	0x3d6483dd	0.055789817
53	0x3d392c76	0.045208417
54	0xbdbed921	-0.09318758
55	0xbd833e5c	-0.064083785
56	0x3ce300cc	0.02771034
57	0xbc645615	-0.013936539
58	0x3d385943	0.045007
59	0xbd9bac49	-0.0760122
60	0x3db76bbe	0.08956097
61	0xbeb8a0ea	-0.36060268
62	0x3dc601ce	0.09668313
63	0xbb322711	-0.002718393
64	0x3d8c34ad	0.068459846
65	0xbd038d52	-0.032117195
66	0x3d63db03	0.055628788
67	0x3e09e099	0.13464583
68	0xbdf8314f	-0.1211878
69	0x3dae97eb	0.0852507
70	0xbe26e156	-0.16296896
71	0x3d684d76	0.056714498
72	0xbcfa845b	-0.03058069
73	0x3d71f799	0.05907402
74	0x3d0b1bb5	0.03396197
75	0xbd224c44	-0.039623514
76	0x3e28fae5	0.16501959
77	0x3cb3b50a	0.021936912
78	0xbe98ea10	-0.29866076
79	0xbd5467fc	-0.05185698
80	0x3e38d911	0.18051554
81	0xbda26e31	-0.079311736
82	0xbe22caec	-0.15897721
83	0xbd85b46a	-0.06528552
84	0x3be491d0	0.00697539
85	0x3dd1f44a	0.102516726
86	0x3d99ee6b	0.07516178
87	0x3dbb8ab1	0.09157313
88	0x3e6c25bd	0.23061271
89	0x3d810aee	0.06300913
90	0xbdc96cbf	-0.09835195
91	0x3e818c99	0.2530258
92	0xbddcaa9b	-0.10774728
93	0x3e0b1330	0.13581538
94	0x3cbf235d	0.023332292
95	0xbd789980	-0.060693264
96	0xbe3ae0ae	-0.18249771
97	0x3beafbd9	0.007171136
98	0xbe2927ab	-0.16519038
99	0x3cdc5714	0.02689699
100	0xbe50bff1	-0.2038572
101	0x3d0c02f6	0.03418251
102	0xbe01807c	-0.12646669
103	0x3ac48bf3	0.0014995321
104	0x3d982e0d	0.074306585
105	0xbd378252	-0.044802018
106	0xbdc890bc	-0.09793231
107	0xbcc6000e	-0.024169948
108	0xbd7d2b08	-0.061808616
109	0x3dc85c59	0.09783239
110	0xbcbec7b7	-0.02328859
111	0xbd1ef25b	-0.038805347
112	0xbd9024dd	-0.07038281
113	0x3e25400a	0.1613771
114	0x3c037f12	0.008025901
115	0xbe8b9f97	-0.27270195
116	0x3b92bd93	0.0044781654
117	0x3e48cb92	0.19608906
118	0x3e2bc9a4	0.16776139
119	0xbdb94e3c	-0.09048125
120	0xbe04ff61	-0.12988044
121	0xbe188d60	-0.1489768
122	0xbd9088de	-0.07057355
123	0x3ddef143	0.10885861
124	0x3dcd362c	0.10020098
125	0xbe524920	-0.20535707
126	0x3d5dd75a	0.054160453
127	0x3e937ff3	0.28808555
128	0xbe161968	-0.14658129
129	0xbd88b36f	-0.06674849
130	0xbdce3504	-0.10068706
131	0xbecf8b8b	-0.4053615
132	0x3e0214c1	0.1270323
133	0xbe223bed	-0.15843172
134	0xbd8a2c36	-0.06746714
135	0x3e3037b4	0.17208749
136	0xbe419d57	-0.18907677
137	0x3e366fc3	0.17816071
138	0x3e7c9ae5	0.24668463
139	0xbe40a569	-0.18813099
140	0xbe82122e	-0.25404495
141	0xbc646f13	-0.013942498
142	0x3d5cebee	0.053935938
143	0xbda593b3	-0.08084812
144	0xbda71b1d	-0.08159468
145	0x3be29f83	0.006915988
146	0x3dbf0a00	0.09328079
147	0x3d5d5d0e	0.054043822
148	0x3e458961	0.19290687
149	0xbce754dc	-0.028238706
150	0x3e0f811e	0.14014098
151	0xbdc6d789	-0.09709079
152	0xbcced02e	-0.025245752
153	0x3d84264d	0.06452618
154	0xbcb17d85	-0.021666298
155	0x3ce59c18	0.028028533
156	0x3df76669	0.1208008
157	0x3e26c5de	0.16286418
158	0xbd86f304	-0.0658932
159	0xbd34376c	-0.043998167
160	0x3e49db83	0.19712643
161	0xbd91bb2f	-0.071157806
162	0xbebb3c05	-0.3656923
163	0xbe0b2d0e	-0.13591406
164	0xbd8ffc8f	-0.070305936
165	0xbe43df35	-0.19128115
166	0xbdfa6365	-0.12225989
167	0x3d9ad821	0.075607546
168	0xbef91366	-0.48647612
169	0x3e3c94bd	0.18416114
170	0x3e41dea2	0.18932584
171	0x3de12b50	0.10994589
172	0x3d97e431	0.07416571
173	0x3c73215c	0.014839496
174	0xbe1b3a08	-0.15158856
175	0xbd7f7973	-0.062371682
176	0xbc33bbd5	-0.010970076
177	0xbef2f893	-0.47455272
178	0xbe088609	-0.1333238
179	0xbc7ac92b	-0.015306751
180	0xbc9c9a3b	-0.019116512
181	0x3c6ecb16	0.014574787
182	0xbe9c9a47	-0.30586454
183	0x3d90f131	0.070772536
184	0xbb355f5a	-0.0027675242
185	0xbd8ea4b2	-0.06965007
186	0x3e155620	0.14583635
187	0x3d178c04	0.036998764
188	0xbe68ef8e	-0.22747633
189	0xbdde138d	-0.10843573
190	0x3dcf74f2	0.101297274
191	0xbe314cf3	-0.1731451
192	0x3d2403d7	0.040042724
193	0xbd91d9e9	-0.07121641
194	0xbd5f435a	-0.05450759
195	0x3dff0f53	0.12454095
196	0xbdbb2ec6	-0.09139781
197	0xbe8b982b	-0.27264532
198	0xbd884198	-0.06653136
199	0xbdba2ea5	-0.09090928
200	0x3db4eff3	0.08834829
201	0xbee57db1	-0.44822457
202	0xbe146ca4	-0.14494568
203	0x3c3ba18c	0.01145209
204	0x3e32d6a3	0.1746469
205	0xbd4334f2	-0.047657914
206	0x3b45bc0d	0.0030171901
207	0x3c68f9c0	0.014219701
208	0xbd5df042	-0.054184206
209	0xbdf7f84e	-0.12107907
210	0x396acd50	0.00022392464
211	0x3e286acd	0.16446991
212	0x3eaf4bd5	0.34237543
213	0xbd7fa064	-0.06240882
214	0x3cce947f	0.025217293
215	0x3ae4fdd8	0.0017470671
216	0xbe921638	-0.28532577
217	0x3c2c5546	0.010518378
218	0x3d74e1c0	0.059785604
219	0xbe106c4e	-0.14103815
220	0xbdfb0715	-0.1225721
221	0xbddbc33e	-0.10730599
222	0x3d3cff31	0.046141807
223	0xbcc2fe29	-0.023802834
224	0x3de17825	0.11009244
225	0xbd9e4f72	-0.07729997
226	0x3d2fed8c	0.04295115
227	0xbdfd6cbe	-0.123742566
228	0xbde0aa60	-0.109699965
229	0x3e81b390	0.25332308
230	0xbf0793c5	-0.52959853
231	0x3bc9668c	0.0061462577
232	0x3e2f04ec	0.17091721
233	0xbd987a22	-0.0744517
234	0xbe1d17b7	-0.15341078
235	0xbdbbbf7e	-0.091673836
236	0xbd39adb2	-0.045331664
237	0x3e5acfaa	0.2136828
238	0x3d4b41f0	0.04962343
239	0x3c99cafd	0.01877355
240	0xbd5a291a	-0.053261854
241	0x3dac69d8	0.084186256
242	0x3dc191a6	0.09451608
243	0xbddad06f	-0.10684287
244	0x3d9ade88	0.07561976
245	0x3d7b4c5b	0.061352115
246	0xbd4f17bc	-0.050559744
247	0xbde8ce29	-0.11367447
248	0x3d4ab311	0.049487177
249	0x3df267a6	0.118361756
250	0xbd63204d	-0.055450726
251	0x3c8942be	0.016755458
252	0xbdb3717f	-0.08761882
253	0xbda51717	-0.08061045
254	0xbe9ca5f4	-0.30595362
255	0xbd1994e3	-0.037495505

2.bias f4 [128]
0	0xbe76c788	-0.24099553
1	0xbe0621b9	-0.13098802
2	0xbe1650a2	-0.14679196
3	0x3daf3d35	0.08556596
4	0x3da4655b	0.080271445
5	0xbe375dd1	-0.17906882
6	0x3cae2f05	0.021262655
7	0xbd5f0ded	-0.05445664
8	0x3e01585a	0.1263136
9	0x3c0d3484	0.008618478
10	0xbe0ccb22	-0.13749364
11	0xbd66a3e8	-0.056308657
12	0xbd3cea06	-0.04612162
13	0x3d89a9eb	0.067218624
14	0xbde7cc9a	-0.113183215
15	0xbe466adb	-0.193767
16	0xbe04fa90	-0.12986207
17	0xbe12999c	-0.1431641
18	0xbe3ca5e8	-0.18422663
19	0xbd70abbb	-0.058757525
20	0xbe31335b	-0.17304747
21	0xbe021953	-0.12704973
22	0x3d9cbe59	0.076534934
23	0xbe7ea9f7	-0.24869524
24	0xbc6e5462	-0.014546486
25	0xbd1c40bc	-0.038147673
26	0xbe74286d	-0.23843546
27	0xbe3a0839	-0.18167199
28	0xbc478918	-0.012178682
29	0x3db8fcfe	0.090326294
30	0xbdd9a3d6	-0.10626952
31	0xbd9a0717	-0.075208835
32	0xbd6d039d	-0.057864774
33	0x3e4bf73f	0.19918536
34	0xbe8535da	-0.26017648
35	0xbca4c6db	-0.020114353
36	0xbd359a3a	-0.044336535
37	0xbe400642	-0.18752387
38	0xbd9c9ff8	-0.07647699
39	0xbda623fc	-0.08112332
40	0xbe65ceb6	-0.22442135
41	0xbdb8bc0d	-0.09020243
42	0x3cf42bcc	0.02980604
43	0xbe078a0e	-0.13236257
44	0xbe41f7d5	-0.18942197
45	0xbde97ac5	-0.114003696
46	0xbca4536a	-0.020059306
47	0xbdbf3194	-0.09335628
48	0xbe9767f7	-0.29571506
49	0xbe23d657	-0.15999733
50	0xbde47d5c	-0.11156723
51	0xbd982480	-0.07428837
52	0xbea7b6a4	-0.3275653
53	0x3d66075c	0.056159362
54	0xbdd2b6c9	-0.1028877
55	0x3e107b12	0.14109448
56	0xbe782449	-0.24232592
57	0x3dbf7dcc	0.09350166
58	0x3d426dae	0.04746788
59	0xbd844b6a	-0.064596966
60	0xbe9ff02c	-0.31237924
61	0xbe02fe55	-0.12792332
62	0xbe2de796	-0.16982874
63	0xbe3c638c	-0.18397349
64	0xbdb42479	-0.08796019
65	0xbd9a97bf	-0.075484745
66	0xbe630c83	-0.22172742
67	0x3d152cf5	0.036419827
68	0xbe390868	-0.18069613
69	0x3cbe6a77	0.023244126
70	0x3cbb6644	0.022875912
71	0xbdfd1873	-0.12358179
72	0xbd09b401	-0.03361893
73	0xbe23698b	-0.1595823
74	0xbdcebe98	-0.100949466
75	0x3e29ecd8	0.16594255
76	0xbdca58bb	-0.09880205
77	0xbe4085b3	-0.18801002
78	0xbe23ef15	-0.16009171
79	0xbe15e901	-0.14639665
80	0xbe044b3c	-0.12919325
81	0xbe499834	-0.19686967
82	0xbe5b1135	-0.21393283
83	0x3c59406a	0.013259986
84	0x3dd8dfb0	0.1058954
85	0xbe5e942c	-0.2173621
86	0xbe4de93e	-0.20108506
87	0xbd08fab5	-0.033442218
88	0xbe5c85ea	-0.21535459
89	0xbc992a9b	-0.018697074
90	0xbcbbe1d4	-0.022934832
91	0x3e0bf571	0.13667847
92	0xbc75cbff	-0.01500225
93	0x3dd7ba68	0.10533601
94	0x3dfcbe58	0.12340993
95	0xbe969692	-0.2941175
96	0xbe440bfb	-0.19145195
97	0xbe25abc8	-0.1617881
98	0xbdfaf66f	-0.12254035
99	0xbe16ee9b	-0.14739458
100	0xbe0f0163	-0.13965373
101	0xbdbf709b	-0.0934765
102	0xbd81f800	-0.0634613
103	0xbe07283c	-0.13198942
104	0xbe354ca8	-0.17705023
105	0xbe033353	-0.12812547
106	0xbe9cdc31	-0.30636743
107	0xbdcc4a1f	-0.09975075
108	0xbd5ff324	-0.054675236
109	0xbe3a9a95	-0.18223031
110	0xbe02f997	-0.12790523
111	0xbe83ff69	-0.257808
112	0xbd4e3f0d	-0.0503531
113	0xbe0c2b5f	-0.1368842
114	0xbe4e6ccc	-0.2015869
115	0x3d889c46	0.06670432
116	0xbeaf6f58	-0.34264636
117	0xbd1d5b4b	-0.038417142
118	0xbd0b9042	-0.03407312
119	0xbe38e2d1	-0.18055274
120	0x3d8752cf	0.06607591
121	0xbd85f7ed	-0.06541429
122	0xbe7c8d28	-0.24663222
123	0xbe612afb	-0.21989052
124	0xbe397a3e	-0.18113038
125	0xbbc0bc43	-0.0058818175
126	0xbd8d92fe	-0.06912802
127	0x3d750f4b	0.059829038

4.weight f4 [128, 128]
0	0x3e4c4c12	0.19950894
1	0xbe55d1f8	-0.20880878
2	0xbe1a9bc2	-0.1509848
3	0xbd81d6a1	-0.06339765
4	0xbd49a31d	-0.049227823
5	0xbe07711a	-0.13226739
6	0x3dd946a0	0.10609174
7	0xbe13719b	-0.14398806
8	0x3dd327eb	0.10310348
9	0x3cab2b38	0.020894632
10	0xbd1cae35	-0.038252074
11	0x3ccc8056	0.02496354
12	0x3d53241d	0.051548112
13	0x3cb944d5	0.02261583
14	0x3a51e76e	0.0008007203
15	0x3ccfc95f	0.025364576
16	0x3d04595a	0.032311775
17	0xbcb0b1e8	-0.021569207
18	0xbd5e25ae	-0.054235153
19	0x3dcbc58f	0.09949791
20	0xbc5372f4	-0.012905825
21	0xbd5f6a66	-0.05454483
22	0xbdba7676	-0.09104626
23	0xbdf433b1	-0.11923922
24	0xbe3f8eec	-0.18706864
25	0x3db07f8b	0.08618077
26	0x3e147d81	0.14501001
27	0x3e218865	0.15774687
28	0xbdd4f566	-0.103983685
29	0xbe0b01c7	-0.13574897
30	0xbd376a93	-0.04477937
31	0x3da89da7	0.08233195
32	0x3d520ab9	0.051279757
33	0xbe0dbc7f	-0.13841437
34	0x3dacaed8	0.08431786
35	0x3d7a4814	0.061103895
36	0x3ca57e12	0.020201717
37	0x3df91fe2	0.12164284
38	0x3cb0341a	0.021509219
39	0xbd59cc59	-0.053173397
40	0x3ded1dda	0.11577959
41	0x3d8e00ff	0.06933784
42	0xbcbb54b6	-0.022867542
43	0x3d827667	0.0637024
44	0x3d6dde42	0.05807329
45	0xbe0dcbe8	-0.13847315
46	0xbe060805	-0.13088997
47	0x3d1b8a2b	0.037973564
48	0x3e80272e	0.25029892
49	0xbcd8f418	-0.02648358
50	0xbe6b24c6	-0.22963247
51	0x3e5f39ab	0.21799342
52	0x3d494593	0.049138617
53	0x3c77a18a	0.0151141975
54	0x3d7e025b	0.062013965
55	0xbd8ec060	-0.06970286
56	0x3de667a6	0.11250238
57	0x3d2cd219	0.042192552
58	0xbcafec7e	-0.021475073
59	0xbdaec8a2	-0.085343614
60	0x3e8bf138	0.27332473
61	0xbe5ceba9	-0.21574272
62	0xbd85e69d	-0.065381266
63	0xbe3ccf11	-0.18438365
64	0x3df2ebb4	0.11861363
65	0xbdfcfa50	-0.12352431
66	0x3ddedfb9	0.108825155
67	0xbd47eabd	-0.04880785
68	0x3ce37905	0.027767668
69	0xbe322ed3	-0.17400675
70	0x3c977551	0.018488558
71	0xbe3ab83a	-0.1823434
72	0x3d1a3ab3	0.037653636
73	0xbdee6e87	-0.11642175
74	0xbe8e3f84	-0.27782834
75	0x3d88f4c4	0.0668731
76	0x3c2f5a5a	0.010702694
77	0x3ebafa5f	0.36519143
78	0x3e30e7c2	0.17275909
79	0xbdc61980	-0.096728325
80	0xbd367914	-0.044549063
81	0x3ddadfcf	0.10687219
82	0xbc90cc51	-0.01767555
83	0xbd88ef3c	-0.06686255
84	0xbe0028ac	-0.12515515
85	0xbba102c1	-0.0049136584
86	0xbdb0e4d1	-0.08637393
87	0x3d8d82a8	0.06909686
88	0xbd5e5f78	-0.054290265
89	0x3d28cca8	0.0412108
90	0x3dd37dab	0.10326704
91	0x3ca62d36	0.02028523
92	0xbe692a56	-0.22770056
93	0xbcf42e37	-0.029807193
94	0xbe48d67a	-0.19613066
95	0xbc945e8f	-0.018111495
96	0x3dc9465b	0.09827872
97	0x3cf5e0b9	0.030014383
98	0xbce7ac87	-0.02828051
99	0xbd0baacf	-0.034098443
100	0xbd41fef0	-0.047362268
101	0x3d32efa7	0.04368558
102	0xbe2b37e7	-0.16720544
103	0x3e16ebfd	0.1473846
104	0x3e13816c	0.1440484
105	0xbcb6a0c4	-0.022293456
106	0x3c8ab17b	0.016930332
107	0x3d1ad6b1	0.037802402
108	0xbb9f6449	-0.00486425
109	0xbdbcba96	-0.09215276
110	0xbddf815f	-0.109133475
111	0x3d0e521b	0.03474627
112	0x3d71c821	0.05902875
113	0x3c9fe27c	0.019517176
114	0x3da9976f	0.08280837
115	0x3e1a4008	0.15063488
116	0x3d9d0d71	0.07668579
117	0x3b768b24	0.0037619555
118	0xbd21ea5f	-0.039530154
119	0x3d394b54	0.045237854
120	0xbe0c842f	-0.13722299
121	0xbe126fb3	-0.14300422
122	0xbd4e3844	-0.050346628
123	0xbbdc22e0	-0.0067180246
124	0x3d01f1b0	0.03172463
125	0x3e271229	0.16315521
126	0x3decd8cf	0.115647905
127	0x3d3a1a3c	0.045435175
128	0x3c65fa16	0.014036676
129	0xbda70602	-0.08155443
130	0xbd078cdf	-0.03309333
131	0xbe326b2e	-0.17423698
132	0xbeb07cbe	-0.3447017
133	0x3e369818	0.17831457
134	0xbd3f69f9	-0.046731923
135	0x3deb31b7	0.11484092
136	0x3d91c7a9	0.0711816
137	0xbe462c40	-0.19352818
138	0x3d4061b6	0.046968184
139	0x3c386f43	0.011256996
140	0xbbd2e8f2	-0.0064364607
141	0xbdf7c8f6	-0.12098877
142	0xbe23ae22	-0.15984395
143	0xbd33f9ae	-0.043939285
144	0xbdfbc7de	-0.12293981
145	0xbdf9c68b	-0.12196072
146	0x3d347640	0.044058084
147	0xbddf295e	-0.10896562
148	0xbd8cb6ce	-0.06870805
149	0xbd4adf7e	-0.049529545
150	0x3d836c5b	0.064171515
151	0xbd72086a	-0.059090056
152	0x3e31ff20	0.17382479
153	0xbd5571b4	-0.05211039
154	0xbd3e6ad9	-0.046488617
155	0x3d395522	0.045247205
156	0x3d58c039	0.052917693
157	0xbd0b1924	-0.033959523
158	0xbd41fda6	-0.04736104
159	0x3cf747f5	0.030185679
160	0xbe388231	-0.18018414
161	0x3d38b5dd	0.045095313
162	0x3d4356e0	0.047690272
163	0x3da481bf	0.080325596
164	0x3bcb2ff1	0.0062007834
165	0xbe0925f3	-0.13393383
166	0x3d8c9ad3	0.06865468
167	0xbdfa7c02	-0.12230684
168	0x3c87bf97	0.01657085
169	0xbdfa67ac	-0.12226805
170	0xbd965f60	-0.0734241
171	0x3ccb334c	0.024804734
172	0x3d0496b9	0.032370303
173	0xbb4cddec	-0.0031260205
174	0x3cf174fc	0.029474728
175	0xbd1852af	-0.03718823
176	0xbd134922	-0.035958417
177	0xbcb8680e	-0.022510555
178	0x3e05ceb8	0.13067138
179	0x3c09545c	0.008381929
180	0x3e27034c	0.16309851
181	0xbdc1f709	-0.09470946
182	0xbd898f72	-0.06716813
183	0x3da80da5	0.082057275
184	0xbc32d89a	-0.0109159
185	0xbd2c321d	-0.04203998
186	0xbbdefd53	-0.006805101
187	0x3c9ec0bf	0.019379018
188	0x3de82d2d	0.113367416
189	0xbdafea78	-0.08589643
190	0xbdec4428	-0.11536437
191	0xbd49c760	-0.049262404
192	0xbe629bcb	-0.22129743
193	0xbdb17e65	-0.08666686
194	0xbe08d4d6	-0.1336244
195	0x3ca2b024	0.019859381
196	0x3d1fa34d	0.038974095
197	0x3cea6aca	0.028615374
198	0x3db469f9	0.08809275
199	0x3e636008	0.22204602
200	0x3d2ae188	0.04171899
201	0x3e49ae1e	0.19695327
202	0x3d3a6bbf	0.04551291
203	0xbdd373e6	-0.1032484
204	0xbdd76be1	-0.10518623
205	0x3d550cb2	0.05201406
206	0x3d21a541	0.03946424
207	0x3e027523	0.12739997
208	0x3d2081da	0.039186336
209	0x3e0516fa	0.12997046
210	0xbddfdc17	-0.10930651
211	0x3df3a10d	0.118959524
212	0x3d72bf14	0.059264258
213	0xbd87935a	-0.06619902
214	0x3e3343be	0.1750631
215	0x3cb5b1a7	0.022179438
216	0x3e26777f	0.16256522
217	0x3cfd7860	0.030941188
218	0xbdfaa745	-0.122389354
219	0xbc31105e	-0.010807125
220	0x3e4dab16	0.20084795
221	0x3d0e5b17	0.03475484
222	0xbdb4b964	-0.08824423
223	0xbc3fda73	-0.011709797
224	0xbcb97eb2	-0.02264342
225	0x3e489197	0.19586788
226	0xbb33130c	-0.0027324585
227	0x3e3850ee	0.17999622
228	0x3de474f1	0.11155117
229	0x3b218d6f	0.0024650951
230	0x3e24e8bb	0.16104405
231	0xbcd72f4f	-0.026267676
232	0xbca1479f	-0.019687472
233	0xbce9d138	-0.028542146
234	0x3dddccc8	0.108300745
235	0xbd09affa	-0.03361509
236	0xbe1e2de2	-0.1544719
237	0x3c1d0f17	0.009586117
238	0xbd2f6efb	-0.04283045
239	0x3bd31ee3	0.006442891
240	0x3dfb38ee	0.12266718
241	0xbde96e68	-0.113980114
242	0x3ccdb65f	0.025111375
243	0xbd249632	-0.0401823
244	0x3c19c5f1	0.009385572
245	0x3dbb8964	0.091570646
246	0xbd8ff0a0	-0.070283175
247	0x3c865919	0.016399907
248	0xbd27ab2d	-0.04093473
249	0xbdfa62f8	-0.12225908
250	0x3e93ff05	0.28905502
251	0xbdad217d	-0.08453653
252	0xbd80c5ec	-0.062877506
253	0x3d07503f	0.033035513
254	0x3d4952da	0.04915128
255	0x3d8b822d	0.068119384

4.bias f4 [128]
0	0xbd30fd50	-0.043210328
1	0xbe544029	-0.207276
2	0x3cf8bc89	0.030363338
3	0xbdc5a9eb	-0.0965155
4	0xbe13041a	-0.14357033
5	0xbea029ee	-0.3128199
6	0xbe05f3f4	-0.13081342
7	0xbe138613	-0.14406614
8	0xbdd7e213	-0.10541167
9	0xbd91330f	-0.07089817
10	0xbe25ec45	-0.16203411
11	0xbdbf938f	-0.093543164
12	0xbea72416	-0.3264472
13	0x3b5a325c	0.0033294177
14	0xbd276345	-0.040866155
15	0xbd4fd491	-0.05073983
16	0x3cbc6464	0.022997089
17	0xbe86d43a	-0.2633379
18	0xbd460f64	-0.04835452
19	0xbe610323	-0.21973853
20	0x3db48442	0.08814289
21	0xbdd96df0	-0.10616672
22	0xbd3af569	-0.045644198
23	0xbe066152	-0.13123062
24	0xbe98a468	-0.29812932
25	0xbe60f191	-0.2196715
26	0xbe402c55	-0.18766911
27	0xbe0dfca4	-0.13865906
28	0xbcedfce4	-0.029051252
29	0xbce74fba	-0.028236259
30	0xbe0173b7	-0.12641798
31	0xbe1d5ca7	-0.15367375
32	0xbd930626	-0.07178907
33	0xbe0df478	-0.13862789
34	0xbe4bd849	-0.19906725
35	0xbe2c3fb2	-0.16821173
36	0xbe3f130f	-0.18659614
37	0xbdb7df5d	-0.0897815
38	0xbdb1614b	-0.08661135
39	0xbdd68ac7	-0.104756884
40	0xbbcb564a	-0.006205355
41	0x3c07f3de	0.008297889
42	0xbd99ead8	-0.07515496
43	0xbcc36a89	-0.02385451
44	0xbda5722d	-0.08078418
45	0xbdfa0bd9	-0.12209291
46	0xbd95d3ee	-0.07315813
47	0xbd3c8409	-0.046024356
48	0xbe4c5f98	-0.19958341
49	0xbe605077	-0.21905695
50	0xbe13a138	-0.14416969
51	0xbe1f13d3	-0.15534906
52	0xbdb044ce	-0.086068735
53	0xbe49c6de	-0.19704768
54	0xbd986938	-0.07441944
55	0xbe2a2e07	-0.1661912
56	0xbe0d051a	-0.13771477
57	0xbe12a027	-0.14318906
58	0x3d8428cc	0.06453094
59	0xbd9d9054	-0.07693544
60	0xbdb7bde9	-0.08971769
61	0xbe4e3f9c	-0.20141453
62	0xbd8e1683	-0.069378875
63	0xbd3d1e40	-0.046171427
64	0x3b8f0a28	0.0043652244
65	0xbe03ac22	-0.12858632
66	0xbe8906d2	-0.26763016
67	0xbe57d9f2	-0.21079233
68	0xbdd2d9b9	-0.102954336
69	0xbe7a602c	-0.24450749
70	0xbda040e4	-0.07824877
71	0xbc1a01d7	-0.009399853
72	0xbdecb789	-0.11558444
73	0xbde91352	-0.11380638
74	0x3cf336ef	0.02968928
75	0x3d682f0b	0.05668549
76	0xbe006f7c	-0.12542528
77	0xbe3450e6	-0.17608985
78	0x3c263988	0.010145552
79	0xbdbf11e2	-0.09329583
80	0xbe60d03c	-0.21954435
81	0xbe6e73cc	-0.2328636
82	0xbcbf51e9	-0.023354487
83	0xbdb90381	-0.090338714
84	0xbdf64203	-0.120243095
85	0xbddcedad	-0.107875206
86	0xbe8f0795	-0.27935472
87	0xbce03863	-0.027370637
88	0xbc9c3151	-0.019066485
89	0xbe00babd	-0.12571235
90	0xbd4528bc	-0.04813455
91	0xbe402bf6	-0.1876677
92	0xbd36ff41	-0.044677023
93	0xbe6bf290	-0.23041749
94	0xbdd6fad3	-0.1049706
95	0xbcb9a32f	-0.02266082
96	0xbe04de81	-0.12975504
97	0xbccfcc88	-0.025366083
98	0x3d310750	0.043219864
99	0xbe4faf4a	-0.20281711
100	0xbdafe0ad	-0.085877754
101	0xbe233d23	-0.1594129
102	0xbd989f20	-0.07452226
103	0xbd6bf475	-0.05760618
104	0xbd8b6145	-0.06805662
105	0xbb081f31	-0.0020770545
106	0xbe68468d	-0.22683163
107	0xbd96a4cd	-0.07355652
108	0x3d7c713a	0.06163142
109	0xbde7ea04	-0.11323932
110	0xbe3b64fe	-0.18300244
111	0xbe193537	-0.14961706
112	0xbe2938fc	-0.16525644
113	0xbd93b771	-0.07212723
114	0xbd895c43	-0.06707051
115	0xbe7fd434	-0.24983293
116	0x3c339922	0.010961803
117	0xbdb6b578	-0.08921331
118	0xbca95963	-0.020672506
119	0xbde7562e	-0.11295734
120	0x3c02c5a2	0.00798169
121	0xbd8288e2	-0.063737646
122	0xbda99b27	-0.08281546
123	0xbd8328ce	-0.06404267
124	0xbee0231e	-0.43776792
125	0xbe42da79	-0.19028653
126	0xbc84ec5d	-0.016225988
127	0xbe034bd3	-0.12821893

6.weight f4 [12, 128]
0	0xbc4fac58	-0.012675367
1	0xbd89e449	-0.06732995
2	0x3d589fd4	0.0528868
3	0x3cdb47a4	0.02676756
4	0xbc928c59	-0.017889189
5	0xbd65c56a	-0.05609647
6	0xbd6dc2f8	-0.058047265
7	0xbaae6a76	-0.0013306874
8	0xbc17f977	-0.009275786
9	0x3da156f6	0.078779146
10	0xbc2edfae	-0.010673447
11	0x3d4dffbb	0.05029271
12	0xbd0d66d3	-0.03452189
13	0xbc4e9cca	-0.012610624
14	0xbbc84cf7	-0.0061126905
15	0x3d9faa1a	0.07796116
16	0xbcc4302e	-0.023948755
17	0x3a83c25c	0.001005243
18	0xbd76c00d	-0.060241748
19	0x3d98c88e	0.07460128
20	0xbd24a1e1	-0.040193442
21	0xbd177931	-0.03698081
22	0x3caec7d3	0.021335518
23	0xba15cca1	-0.0005714391
24	0x3d9ef023	0.07760646
25	0x3d937f85	0.07202057
26	0x3d0292f5	0.03187843
27	0xbda1566f	-0.07877814
28	0x3d5d2bb6	0.053996764
29	0xbd1421e1	-0.036165122
30	0xbd40718a	-0.04698328
31	0xbd2d5b37	-0.042323317
32	0xbc0113f1	-0.00787829
33	0xbd3d67f8	-0.04624173
34	0x3c5cbc2f	0.013472601
35	0xbc85bfbe	-0.016326781
36	0x3d0121de	0.03152644
37	0xbbf06d36	-0.0073372377
38	0x3b8c570a	0.004282837
39	0x3bc93498	0.006140303
40	0x3cea0b45	0.028569827
41	0x3c07bd8f	0.00828494
42	0xbd791e5f	-0.06081998
43	0x3bd241fd	0.006416558
44	0xbb08c51c	-0.002086944
45	0xbbe49347	-0.0069755646
46	0x3d168b18	0.036753744
47	0x3d9d50a9	0.076814
48	0x3c102dea	0.008800009
49	0x3c839bc5	0.016065488
50	0xbd74c057	-0.059753742
51	0x3c88e331	0.016709896
52	0xbced6eb4	-0.028983451
53	0x3c7eb65c	0.015546408
54	0xbdb7f306	-0.089819
55	0xbdf378f4	-0.11888304
56	0xbcd322b8	-0.025773391
57	0xbb4c4c63	-0.003117346
58	0x3c1ec7ee	0.009691222
59	0xbb85a1e0	-0.004078135
60	0x3d2dcb7a	0.04243038
61	0x3905ca9c	0.00012759346
62	0xbd4feb11	-0.050761286
63	0x3cd22251	0.025651129
64	0x3d9755d2	0.07389416
65	0x3e08e57c	0.13368791
66	0x3d6569e9	0.056009207
67	0x3b864d3a	0.0040985616
68	0xbe069482	-0.13142589
69	0x3d929576	0.07157414
70	0xbd950f44	-0.07278302
71	0x3c649d30	0.013953492
72	0x3e1b8ec2	0.15191177
73	0x3e0df97d	0.13864703
74	0x3d17f942	0.037102945
75	0x3c5ed498	0.013600491
76	0xbcb296fa	-0.021800507
77	0xbc6fa046	-0.0146256145
78	0x3d4b46f7	0.049628224
79	0xbe07ff61	-0.13281013
80	0xbd85dafe	-0.0653591
81	0xbd5829d0	-0.05277425
82	0xbd416990	-0.047219813
83	0x3d0c7738	0.034293383
84	0xbc2c767c	-0.010526296
85	0xbca96ebf	-0.02068269
86	0x3c57670c	0.013147127
87	0x3d793f3b	0.060851317
88	0x3d36b5c9	0.044606958
89	0x3bde59a7	0.0067855897
90	0x3d4ae3d5	0.049533684
91	0xbb89436f	-0.004188947
92	0x3d965906	0.073411986
93	0xbd23613c	-0.03988765
94	0x3c72b910	0.01481463
95	0xbc92a2b2	-0.017899845
96	0xbd1270ab	-0.03575198
97	0x3c9c69ff	0.019093512
98	0x3d88f8f0	0.06688106
99	0xbcc8c6f2	-0.024508927
100	0xbda6baab	-0.08141073
101	0xbd654776	-0.055976354
102	0xbd59bbf0	-0.053157747
103	0xbcabd759	-0.02097671
104	0x3d2a13de	0.041522853
105	0x3ba5e628	0.005062837
106	0xbc7cd083	-0.015430572
107	0xbdc8db2a	-0.09807427
108	0x3c7037af	0.0146617135
109	0x3d000f22	0.03126443
110	0xbb30b764	-0.0026964778
111	0xbc3db7cf	-0.011579468
112	0xbc8f6176	-0.017502528
113	0xbd3a2929	-0.04544941
114	0xbc580de7	-0.013186908
115	0xbcfd129d	-0.030892665
116	0x3ce6ed90	0.02818945
117	0x3d9c1f68	0.07623178
118	0x3d05139b	0.0324894
119	0x3d55116a	0.05201856
120	0xbce876f9	-0.028377043
121	0xbb0386dd	-0.0020069398
122	0x3d21322d	0.039354492
123	0xbce43896	-0.027859014
124	0x3cd97194	0.026543416
125	0x3ba4ee0a	0.0050332593
126	0xbc59f57d	-0.013303158
127	0x3c52ba43	0.012861791
128	0xbd3cf7da	-0.046134807
129	0x3dc598ed	0.09648309
130	0xbce3a3eb	-0.027788123
131	0xbb3a9c01	-0.0028474333
132	0x3d1630a9	0.0366675
133	0xbbecc17e	-0.0072252145
134	0x3b88659e	0.0041625043
135	0xbce5fbb1	-0.028074117
136	0xbd9ac0e1	-0.0755632
137	0x3c0fbf12	0.008773582
138	0xbdad6eb8	-0.084683836
139	0xbd2becad	-0.04197376
140	0x3c1cada2	0.009562882
141	0xbdb8e8af	-0.09028756
142	0xbbfc85d4	-0.0077063832
143	0x3b732a07	0.0037103908
144	0x3b8281f7	0.003982778
145	0xba366e51	-0.00069591874
146	0x3cece2d4	0.028916754
147	0xbd63585c	-0.055504188
148	0xbd2e074f	-0.04248744
149	0xbd3b9fca	-0.045806684
150	0xbc250f00	-0.010074377
151	0xbcec60be	-0.028854724
152	0xbc84d3ec	-0.016214333
153	0xbc935326	-0.017983984
154	0x3d85f6a7	0.06541186
155	0x3cd9972e	0.026561346
156	0x3c570b6a	0.01312528
157	0xbd727df5	-0.059202153
158	0x3d638817	0.055549707
159	0xbcbbae12	-0.022910152
160	0xbc6d343c	-0.014477786
161	0x3d8f9231	0.07010306
162	0x3cb957d8	0.022624895
163	0x3a2746b1	0.0006381078
164	0x3c317b7c	0.010832664
165	0xbd121f9d	-0.03567468
166	0xbc29d6fb	-0.010366197
167	0x3cbfd295	0.023415843
168	0x3d1a78cc	0.037712857
169	0x3c274971	0.010210381
170	0x3bcdb41c	0.006277574
171	0x3cd61d45	0.026137004
172	0x38b4314b	8.5922504e-05
173	0x38158449	3.564757e-05
174	0xbcbb8774	-0.022891738
175	0xbbbb3e0d	-0.005714184
176	0x3d4e2baf	0.05033463
177	0x3c98593c	0.018597238
178	0x3c9ec355	0.019380251
179	0x3c445168	0.011982299
180	0x3cab0792	0.020877633
181	0xbc3405e4	-0.010987733
182	0x3daccb57	0.084372215
183	0x3e171fa6	0.14758167
184	0x3cbc1b97	0.022962375
185	0x3ad812d5	0.0016485105
186	0xbcedd9fe	-0.02903461
187	0x3c257642	0.010098996
188	0xbb45e8b9	-0.0030198528
189	0xbd6596ba	-0.056051947
190	0x3d295e8c	0.041349933
191	0xbd3035ef	-0.043020185
192	0x3d018ce4	0.031628504
193	0xbd09abc6	-0.03361108
194	0xbd091e8b	-0.033476394
195	0x3b825464	0.0039773453
196	0x3d69f8b1	0.057121936
197	0x3d41e3c8	0.04733637
198	0x3d1f6207	0.038911846
199	0x3a359cf9	0.0006927993
200	0xbadca1e8	-0.001683292
201	0xbceb5ecf	-0.028731732
202	0xbd2526c0	-0.040320158
203	0x3b8c0875	0.004273469
204	0xb9177233	-0.00014443025
205	0x3d496ca8	0.04917589
206	0x3d19deff	0.03756618
207	0xbc3abc32	-0.011397408
208	0x3dda95c3	0.10673096
209	0xbced64e1	-0.028978767
210	0xbcd67009	-0.02617647
211	0x3cdf02e3	0.027223056
212	0xbc18b8e9	-0.00932143
213	0xbd9629db	-0.07332202
214	0x3cdf606c	0.027267657
215	0x3d29c8a1	0.0414511
216	0x3d7a3b9a	0.061091997
217	0xbd719822	-0.058982976
218	0xbd4475eb	-0.047964018
219	0xbcc9369c	-0.024562173
220	0xbd57aff0	-0.05265802
221	0xbdc01b04	-0.09380153
222	0x3d208a72	0.03919453
223	0x3c895a85	0.016766796
224	0x3a5437d7	0.0008095479
225	0x3d16c04c	0.036804482
226	0xbd274d58	-0.040845245
227	0xbd1d3a0f	-0.038385447
228	0xbd864be8	-0.06557447
229	0xbd0082cb	-0.031374734
230	0x3db945a1	0.09046484
231	0x3d47069d	0.04859029
232	0xbbf0b28f	-0.0073455046
233	0xbd551856	-0.05202516
234	0xba2e1eec	-0.0006642181
235	0x3c951018	0.01819615
236	0x3b92046a	0.0044560926
237	0x3d04f08c	0.032455966
238	0xbda3edd9	-0.0800435
239	0xbc994050	-0.018707424
240	0x3c69a85d	0.014261332
241	0x3d146d84	0.036237255
242	0xbd5c3449	-0.0537608
243	0xbcefa0f7	-0.029251559
244	0xbcf60b79	-0.030034767
245	0xbd6b04e7	-0.057377722
246	0xbd8547b0	-0.06507814
247	0xbcab8e5d	-0.020941908
248	0x3c2eb7c8	0.010663934
249	0xbc4a0503	-0.012330296
250	0xbd10b0f4	-0.035325006
251	0x3c9bbcca	0.01901092
252	0xbcd8d4f7	-0.026468737
253	0x3c9e08ba	0.01929127
254	0x3d1e7db6	0.038694106
255	0xbc94ca0b	-0.018162748

6.bias f4 [12]
0	0x3d325eb3	0.043547343
1	0x3ca29c53	0.019849932
2	0x3d33c648	0.043890268
3	0x3e126423	0.14296012
4	0xbe01d673	-0.12679462
5	0xbde39dbc	-0.1111407
6	0x3d97fad1	0.07420886
7	0x3e1c7363	0.15278392
8	0xbbb8ace1	-0.005635843
9	0x3cbf0dae	0.023321953
10	0x3d9e4bb6	0.077292845
11	0x3e03416a	0.12817922
