onnx_inference/data/model_1499_actor.onnx (onnx, 162767 bytes, 8 tensors)

0.weight f4 [128, 45]
0.063439414 -0.054321516 0.059805334 -0.031171866 0.040696695 -0.23846792 -0.6308176 -0.7279921
-0.36561197 0.016728254 0.1131195 -0.2262009 0.4817976 0.06780314 0.29127982 -0.4902884
0.032052275 0.32164901 0.4120976 -0.12605694 -0.20440575 -0.0022073952 -0.09262074 0.05830245
-0.029490344 0.029126918 -0.048892315 0.012375802 0.028346887 -0.044613138 -0.120745115 0.019593779
0.039884254 0.024329811 -0.26937902 0.30384564 0.06930785 0.02887396 0.03629367 0.068478644
-0.14181495 0.19521734 -0.06294052 -0.1778358 0.030274594 0.13624534 0.120362036 0.012390395
0.042182766 0.10737329 0.19016983 -0.4155587 -0.25210658 -0.21893452 0.31403473 1.0427632
0.46299425 0.32074025 0.3682971 -0.27754423 0.31888318 -0.06345509 -0.017738795 -0.021848496
-0.08813268 -0.0134346215 -0.07181611 0.049363256 0.024942115 -0.020871574 0.06288052 -0.046164803
-0.049568616 0.015097645 -0.0042293807 -0.041445386 -0.031289775 -0.2266748 0.0022582598 0.26034242
0.013324877 0.42207393 0.26726642 -0.06770513 -0.110988714 -0.3166679 0.052215803 -0.103763685
0.18143934 0.032680385 0.083369546 0.1154781 -0.09283342 -0.12928674 0.22917369 0.19116564
0.5322538 -1.2409835 0.043353505 0.15833712 0.05025014 0.19111925 -0.14728367 0.00594917
0.31398746 0.68552715 0.5597751 0.2089536 0.16035712 0.2852237 0.15482503 -0.09712032
0.09248551 0.042676084 -0.054887615 0.1529218 0.11047349 -0.10462525 0.01324536 0.021332832
0.026654983 -0.022225527 -0.09717217 0.25191945 0.06617294 0.15010041 -0.22911085 -0.14229107
-0.16387334 0.083400525 0.26098716 -0.04474353 0.13722098 0.29632345 -0.30858907 0.030411694
-0.042606324 0.03664291 0.031884354 0.1454529 0.20787704 0.246387 -0.17337671 0.59522134
-0.22014828 -0.78138703 0.36897728 -0.103927456 -0.42970073 0.7890017 -0.4642102 0.29328853
-0.10423259 0.34611237 0.2756207 -0.62198824 -0.09548345 0.06771796 0.04856327 -0.01647763
-0.06644176 -0.049189657 -0.048051346 -0.028041469 0.100977056 -0.03224116 -0.0007234099 0.03141339
0.061601833 0.092478365 0.061509065 0.21635146 -0.013986948 0.07709824 -0.16560161 0.10631775
-0.17791142 -0.05688489 0.08678123 -0.059132423 -0.039333444 -0.063733354 0.008325374 -0.12363936
0.16884314 -0.4411534 0.20052674 0.12495347 0.8215227 -0.96505576 -0.73256123 0.2044026
-0.34709293 -0.6391394 0.55650795 -0.6182002 0.40211627 -0.32145414 0.16864084 0.20060925
-0.07353689 0.024083056 -0.12205066 -0.01644388 0.019653521 0.079802796 0.0366882 0.006973484
0.041865677 0.07127237 0.009426894 -0.019743405 -0.00350144 -0.0681006 -0.01723602 -0.1426898
-0.10588897 0.0055960533 -0.11044973 0.11973517 -0.1762206 0.041461475 -0.108676895 -0.1936837
0.04666083 -0.24367629 0.026279515 -0.110693805 -0.31778336 0.30991858 0.2769683 0.079364344
0.10451614 0.19495107 0.3761583 0.16313414 -0.55908257 0.3623215 0.15891457 0.6048295
0.6883109 0.17276941 0.37151784 0.2555228 0.22778107 0.12225352 -0.010117409 -0.04088983
-0.13809042 -0.18303306 -0.014449572 0.05761999 -0.10711396 0.078257486 0.024988981 -0.13506831
00000000: 86ec 813d 3d80 5ebd 70f6 743d 245c ffbc
00000010: 94b1 263d ef30 74be 437d 21bf b15d 3abf
00000020: 7e31 bbbe b109 893c 32ab e73d 35a1 67be
00000030: 2dae f63e 5fdc 8a3d a122 953e 1507 fbbe
00000040: 3f49 033d 2eaf a43e 75fe d23e 1215 01be
00000050: be4f 51be f2a9 10bb f1af bdbd 8dce 6e3d
00000060: bc95 f1bc 939b ee3c 4f43 48bd e0c3 4a3c
00000070: bb37 e83c 44bc 36bd 3749 f7bd 2283 a03c
00000080: ac5d 233d 504f c73c 0cec 89be a891 9b3e
00000090: 46f1 8d3d 1589 ec3c aca8 143d 883e 8c3d
000000a0: f037 11be 0ee7 473e f6e6 80bd 971a 36be
000000b0: 6d02 f83c e683 0b3e 5f80 f63d 1501 4b3c
000000c0: d6c7 2c3d 87e6 db3d e1bb 423e 1cc4 d4be
000000d0: 1d14 81be 5f30 60be 29c9 a03e 4479 853f
000000e0: 950d ed3e 1138 a43e 7091 bc3e 471a 8ebe
000000f0: a844 a33e bef4 81bd f350 91bc 9efb b2bc
00000100: e87e b4bd e31c 5cbc 5314 93bd 2031 4a3d
00000110: 6853 cc3c ddfa aabc 81c7 803d 4e17 3dbd
00000120: 7608 4bbd 1d5c 773c 9e96 8abb a3c2 29bd
00000130: b529 00bd 701d 68be 50ff 133b 9a4b 853e
00000140: 9650 5a3c 131a d83e 25d7 883e fda8 8abd
00000150: 0d4e e3bd 4c22 a2be 3de0 553d 0e82 d4bd
00000160: 3ccb 393e dedb 053d a7bd aa3d c87f ec3d
00000170: 731f bebd be63 04be 82ac 6a3e edc0 433e
00000180: c941 083f 8cd8 9ebf 7293 313d 2023 223e
00000190: 17d3 4d3d c4b4 433e 88d1 16be 41f1 c23b
000001a0: f7c2 a03e b57e 2f3f 6c4d 0f3f eff7 553e
000001b0: a834 243e d708 923e 748a 1e3e 05e7 c6bd
000001c0: 0b69 bd3d 1ecd 2e3d d6d1 60bd 8897 1c3e
000001d0: ed3f e23d c345 d6bd 1103 593c 31c2 ae3c
000001e0: 8d5b da3c 4f12 b6bc 3402 c7bd 96fb 803e
000001f0: ae85 873d ecb3 193e 099c 6abe c0b4 11be
00000200: 6ace 27be e5cd aa3d 1ca0 853e fe44 37bd
00000210: a883 0c3e b5b7 973e 63ff 9dbe f221 f93c
00000220: f883 2ebd e016 163d 2b99 023d 9bf1 143e
00000230: b8dd 543e e04c 7c3e aa89 31be 6d60 183f
00000240: 8d6e 61be fb08 48bf 97ea bc3e ebd7 d4bd
00000250: bc01 dcbe 04fc 493f f6ac edbe ea29 963e
00000260: e577 d5bd a435 b13e 281e 8d3e 9f3a 1fbf
00000270: d48c c3bd b7af 8a3d 48ea 463d 18fc 86bc
00000280: 9e12 88bd 187b 49bd 7dd1 44bd 39b7 e5bc
00000290: 0fcd ce3d 4e0f 04bd 37a3 3dba 54ab 003d
000002a0: 3452 7c3d 4c65 bd3d eef0 7b3d 3d8b 5d3e
000002b0: 8329 65bc afe5 9d3d 7893 29be 1fbd d93d
000002c0: 692e 36be 2100 69bd 5cba b13d d734 72bd
000002d0: 1b1c 21bd a286 82bd 2667 083c a236 fdbd
000002e0: 37e5 2c3e dcde e1be e256 4d3e 9be7 ff3d
000002f0: 504f 523f e50d 77bf 2289 3bbf ea4e 513e
00000300: 2ab6 b1be a49e 23bf 4e77 0e3f 5e42 1ebf
00000310: 2fe2 cd3e a395 a4be 2fb0 2c3e 836c 4d3e
00000320: 829a 96bd d449 c53c b2f5 f9bd 51b5 86bc
00000330: 6c00 a13c a66f a33d 5e46 163d d381 e43b
00000340: 587b 2b3d 40f7 913d 4273 1a3c ecbc a1bc
00000350: 6a78 65bb 5478 8bbd 8e32 8dbc 461d 12be
00000360: 51dc d8bd 195f b73b 7833 e2bd b637 f53d
00000370: 2c73 34be 82d3 293d fe91 debd 0555 46be
00000380: 6d1f 3f3d 4786 79be 2348 d73c 6fb3 e2bd
00000390: 80b4 a2be a6ad 9e3e cace 8d3e c689 a23d
000003a0: 8f0c d63d 41a1 473e d297 c03e a30c 273e
000003b0: 0920 0fbf 3482 b93e 80ba 223e 1bd6 1a3f
000003c0: 2535 303f 77ea 303e 9637 be3e e2d3 823e
000003d0: 713f 693e 0e60 fa3d 7dc3 25bc 187c 27bd
000003e0: 9367 0dbe 056d 3bbe e6bd 6cbc f002 6c3d
000003f0: 905e dbbd 7645 a03d b1b5 cc3c 594f 0abe

0.bias f4 [128]
-0.17278412 -0.15085785 0.08205741 -0.3315207 -0.072384715 0.13438281 -0.058706403 0.09772967
0.2652326 -0.4451331 0.10148165 0.0504746 0.12675847 -0.053513717 -0.277433 -0.04785818
0.0746122 0.087067686 0.11442368 0.09256325 -0.043289103 -0.07955641 -0.01861116 0.08978553
-0.24105383 0.07138743 -0.009120292 -0.121590324 0.0071277255 -0.052871343 -0.07552941 0.056315016
0.112383164 0.19541384 -0.010756437 0.12220268 -0.06417937 0.1183712 -0.13626029 0.06714859
0.04223644 0.17060596 -0.10323651 0.012595662 0.20777304 0.13398589 0.012471656 -0.08315396
0.16039938 -0.1750237 -0.19221184 0.3099204 0.05428462 0.015918517 -0.055923183 -0.0015764053
0.007363417 0.044610713 -0.004512311 -0.13566574 -0.103434294 0.10424432 0.10890893 -0.029516246
0.11607083 0.004749308 -0.40555605 0.123383276 0.013557775 -0.009294522 0.12969874 -0.02914821
-0.11333665 -0.06717803 -0.059384387 0.12972759 0.19001813 0.1794623 -0.045804583 0.025803257
0.2170947 0.052470963 0.09541984 -0.30903813 0.12287563 0.15533535 -0.04847643 0.12497523
-0.0065857302 0.111169346 0.041548915 0.15528867 -0.25617602 0.022915695 -0.024940852 -0.21255903
0.073545314 -0.23925184 -0.0748648 0.31719998 0.3412532 0.018934457 0.22817247 -0.004352404
0.07443723 -0.20336796 0.067847736 0.07750106 0.3705201 -0.119592704 0.049238026 -0.106770806
-0.016033223 -0.05781168 0.002201475 0.11281556 -0.17183293 0.12337552 0.09958476 0.07484901
-0.17959343 -0.09682819 0.0072723767 -0.22857958 -0.09350854 -0.05702409 -0.059792496 -0.11557597
00000000: 52ee 30be 7b7a 1abe b70d a83d 15bd a9be
00000010: 703e 94bd a69b 093e 2076 70bd 7e26 c83d
00000020: 91cc 873e 7ce8 e3be 9cd5 cf3d 74be 4e3d
00000030: f9cc 013e 3331 5bbd b30b 8ebe f006 44bd
00000040: 48ce 983d 8b50 b23d f656 ea3d cd91 bd3d
00000050: ea4f 31bd 79ee a2bd 6e76 98bc 7ae1 b73d
00000060: d1d6 76be 9333 923d 476d 15bc 5904 f9bd
00000070: b28f e93b 9f8f 58bd 2aaf 9abd 93aa 663d
00000080: 2529 e63d 911a 483e c43b 30bc 6645 fa3d
00000090: 7970 83bd 9a6c f23d d187 0bbe 3385 893d
000000a0: 1e00 2d3d 54b3 2e3e aa6d d3bd 095e 4e3c
000000b0: 75c2 543e 9933 093e eb55 4c3c a04c aabd
000000c0: bc3f 243e 6a39 33be 2ed3 44be e3ad 9e3e
000000d0: 8d59 5e3d 8d67 823c b50f 65bd 629f ceba
000000e0: d248 f13b b9b9 363d 02dc 93bb f6eb 0abe
000000f0: 5cd5 d3bd 0c7e d53d a50b df3d 0ecc f1bc
00000100: 8bb6 ed3d 15a0 9b3b 0ba5 cfbe 5fb0 fc3d
00000110: 6e21 5e3c 0d48 18bc bfcf 043e 3ac8 eebc
00000120: 0c1d e8bd a394 89bd 0b3d 73bd 4fd7 043e
00000130: 1d94 423e f7c4 373e 969d 3bbd 5a61 d33c
00000140: 134e 5e3e cbeb 563d 7a6b c33d 3f3a 9ebe
00000150: 38a6 fb3d 3b10 1f3e 398f 46bd 03f3 ff3d
00000160: 1ccd d7bb c1ac e33d 322f 2a3d fe03 1f3e
00000170: 8129 83be b2b9 bb3c c250 ccbc 13a9 59be
00000180: ed9e 963d 6ffe 74be b752 99bd 0968 a23e
00000190: bdb8 ae3e 6f1c 9b3c 0ba6 693e 9c9e 8ebb
000001a0: 8c72 983d b13f 50be c1f3 8a3d e0b8 9e3d
000001b0: d0b4 bd3e 05ed f4bd d0ad 493d a7aa dabd
000001c0: 1b58 83bc f1cb 6cbd 9f46 103b d80b e73d
000001d0: f9f4 2fbe 4eac fc3d 18f3 cb3d 704a 993d
000001e0: 57e7 37be dc4d c6bd 1e4d ee3b c410 6abe
000001f0: 6881 bfbd 1892 69bd fae8 74bd 18b3 ecbd

2.weight f4 [128, 128]
-0.21846017 0.09611148 -0.08016259 0.15335028 -0.026439168 0.080256686 -0.10018546 0.11203407
0.05847934 -0.044735424 -0.015676776 0.053312633 -0.040192895 -0.013389077 0.09213595 0.11868233
0.09233443 -0.004792799 -0.09655415 0.022961939 -0.13061203 -0.023959098 -0.084369905 0.000891058
-0.29214564 -0.12887017 -0.06919749 -0.03095071 -0.2544872 0.07523847 -0.09775599 0.017437331
-0.054815117 0.0234656 0.038408596 0.056843884 0.10080517 0.018735146 0.13510077 -0.025849052
-0.19201744 0.15586562 -0.05432931 0.024763083 -0.08916254 -0.086406454 -0.26268956 -0.13748176
-0.030659866 0.13209718 0.036541883 -0.048361335 -0.06140142 -0.104575336 0.024991952 -0.14068559
0.08058488 0.085135765 0.02785009 -0.07463427 -0.065509304 -0.038112886 -0.08223207 -0.17390575
-0.13879596 -0.15414244 -0.07464504 -0.1277324 -0.104110256 -0.10383907 -0.095177 -0.06411374
0.11584972 0.030970994 -0.017332017 -0.011804735 0.06884259 0.004875271 0.05251198 -0.026818115
-0.22774808 -0.22438331 -0.029800497 0.006748531 -0.033628102 -0.21599504 -0.08668376 -0.21944936
-0.28388283 0.15448777 -0.0021771458 0.032851942 0.032254927 0.08256633 0.042503163 -0.04146199
-0.15729524 0.017617803 -0.019204237 0.08806439 0.117030166 -0.033305243 -0.061509084 0.09371053
0.012825732 0.092975445 0.088489674 0.036088813 -0.029776305 -0.018572595 -0.26364765 0.2082243
0.0060746437 0.05890808 -0.025752764 -0.11339963 -0.06389611 -0.0273331 -0.15031709 -0.080100454
-0.11994658 -0.07015732 0.028428284 -0.040275887 0.012444546 0.12655488 -0.17310587 -0.19446102
0.06400487 -0.03517807 -0.0037761277 -0.057850704 -0.13476507 0.012942384 0.06444716 -0.10247811
-0.16100109 0.045603994 0.0799573 0.017284026 -0.11564838 -0.079664305 0.038616933 0.05753018
0.12139369 -0.0932016 -0.03336916 -0.07454526 0.11883656 0.15209602 0.0066576535 0.12610398
-0.019302424 -0.021763457 0.23037189 0.06530953 -0.017599 0.047674313 -0.057437964 0.034986302
-0.01345594 -0.34313214 0.023846865 -0.063889354 0.01234345 -0.19278434 0.06431355 0.013574796
-0.331438 -0.045187883 0.06888315 0.03359278 0.02772097 0.05974344 -0.03180151 -0.04631901
0.13675658 0.08140839 0.07370839 -0.049937446 0.16820946 -0.047335997 0.14130425 -0.14115208
-0.0728201 0.042681128 -0.017505655 -0.15305921 0.03999682 0.10229843 -0.08881124 0.06494676
0.088429786 0.10960113 0.048076328 0.07509592 0.108865425 -0.0028499227 -0.04711034 -0.00097230327
0.051504906 0.20897816 -0.06515699 -0.22046863 0.0702557 -0.07943837 0.06179513 -0.009222612
-0.06252142 -0.13222973 -0.033062115 0.12623775 0.05618513 -0.014527097 0.005871785 -0.11936621
0.10719969 -0.053292926 0.04025786 0.120055616 0.14793546 -0.09725814 -0.026053855 0.02549478
0.08678682 0.08408652 0.049546048 -0.144563 -0.10697725 0.01115051 -0.038694143 0.03971587
0.010960031 -0.06703043 -0.27034 0.09873258 -0.04182904 0.06435176 -0.037069045 0.0997819
0.008606596 0.099300385 0.09709881 -0.18680957 -0.00329103 0.003341343 -0.07722998 -0.09076157
-0.022664143 -0.102289096 -0.00846992 0.096795164 -0.07704203 0.015607205 0.086864576 0.007952313
00000000: 06b4 5fbe 18d6 c43d 492c a4bd db07 1d3e
00000010: f496 d8bc 9e5d a43d 092e cdbd 1e72 e53d
00000020: 0888 6f3d 7e3c 37bd 956c 80bc 595e 5a3d
00000030: 4ea1 24bd dc5d 5bbc c6b1 bc3d b90f f33d
00000040: d519 bd3d e90c 9dbb 2fbe c5bd ad1a bc3c
00000050: 29bf 05be df45 c4bc 21ca acbd e495 693a
00000060: 1d94 95be 8bf6 03be 6ab7 8dbd 588c fdbc
00000070: 254c 82be a116 9a3d 4b34 c8bd bcd8 8e3c
00000080: d185 60bd ee3a c03c 5552 1d3d 22d5 683d
00000090: f172 ce3d 737a 993c db57 0a3e 64c1 d3bc
000000a0: 38a0 44be 3d9b 1f3e 6988 5ebd f3db ca3c
000000b0: da9a b6bd def5 b0bd 3f7f 86be 05c8 0cbe
000000c0: 662a fbbc 7c44 073e f1ac 153d 8916 46bd
000000d0: 0e80 7bbd 982b d6bd ecbb cc3c e20f 10be
000000e0: b009 a53d a95b ae3d df25 e43c dad9 98bd
000000f0: be29 86bd 421c 1cbd 4a69 a8bd 5914 32be
00000100: 8720 0ebe 84d7 1dbe 80df 98bd 48cc 02be
00000110: c237 d5bd 94a9 d4bd 29ec c2bd 114e 83bd
00000120: 9e42 ed3d e2b6 fd3c e0fb 8dbc a668 41bc
00000130: 58fd 8c3d bdc0 9f3b cd16 573d aab1 dbbc
00000140: cb36 69be bdc4 65be 2c20 f4bc c822 dd3b
00000150: 9fbd 09bd ce2d 5dbe 4187 b1bd 55b7 60be
00000160: 1759 91be 0b32 1e3e 72ae 0ebb c28f 063d
00000170: be1d 043d 8918 a93d cc17 2e3d 0cd4 29bd
00000180: 0112 21be 3653 903c 3452 9dbc 1a5b b43d
00000190: 83ad ef3d 146b 08bd f3f0 7bbd 4eeb bf3d
000001a0: 0523 523c e969 be3d 133a b53d ddd1 133d
000001b0: 70ed f3bc 8e25 98bc d3fc 86be c038 553e
000001c0: ce0d c73b 9949 713d 76f7 d2bc 113e e8bd
000001d0: f7db 82bd aae9 dfbc b9ec 19be b50b a4bd
000001e0: 8da6 f5bd a4ae 8fbd 6fe2 e83c 54f8 24bd
000001f0: 36e4 4b3c 9a97 013e aa42 31be ca20 47be
00000200: fc14 833d e116 10bd e978 77bb dcf4 6cbd
00000210: dbff 09be 4b0c 543c dffc 833d 0be0 d1bd
00000220: 78dd 24be 41cb 3a3d a7c0 a33d 3b97 8d3c
00000230: 0fd9 ecbd 0a27 a3bd ca2c 1e3d c4a4 6b3d
00000240: 419d f83d 7be0 bebd 1aae 08bd 2fab 98bd
00000250: 9560 f33d 0fbf 1b3e 7228 da3b 6721 013e
00000260: 1e20 9ebc 4749 b2bc 9ce6 6b3e 01c1 853d
00000270: c72b 90bc 2446 433d 1244 6bbd cc4d 0f3d
00000280: 4e76 5cbc 04af afbe 805a c33c 6cd8 82bd
00000290: 2f3c 4a3c 4269 45be d3b6 833d d268 5e3c
000002a0: 3eb2 a9be ee16 39bd 9c12 8d3d 9598 093d
000002b0: 1617 e33c 8ab5 743d 4d42 02bd 01b9 3dbd
000002c0: eb09 0c3e 71b9 a63d 6df4 963d 358b 4cbd
000002d0: 1a3f 2c3e 64e3 41bd 10b2 103e 2c8a 10be
000002e0: b422 95bd 68d2 2e3d 0568 8fbc 8ebb 1cbe
000002f0: b5d3 233d d781 d13d abe2 b5bd cf02 853d
00000300: ad1a b53d 8f76 e03d afeb 443d e4cb 993d
00000310: d6f4 de3d c5c5 3abb c6f6 40bd 2be2 7eba
00000320: cff6 523d 5ffe 553e 0771 85bd 87c2 61be
00000330: 38e2 8f3d 96b0 a2bd e41c 7d3d 701a 17bc
00000340: 3b0b 80bd 3b67 07be 246c 07bd 7844 013e
00000350: 6122 663d 1003 6ebc 1a68 c03b 4676 f4bd
00000360: 838b db3d af49 5abd 6de5 243d b8df f53d
00000370: 657c 173e 472f c7bd e56e d5bc 6eda d03c
00000380: 4abd b13d 8e35 ac3d ccf0 4a3d 5308 14be
00000390: e316 dbbd a1b0 363c c07d 1ebd 1cad 223d
000003a0: b491 333c 4047 89bd 016a 8abe 4f34 ca3d
000003b0: ed54 2bbd dbca 833d b6d5 17bd 745a cc3d
000003c0: ae02 0d3c 005e cb3d bedb c63d 024b 3fbe
000003d0: 52ae 57bb 6ffa 5a3b c02a 9ebd 34e1 b9bd
000003e0: 27aa b9bc f27c d1bd 6bc5 0abc 8b3c c63d
000003f0: 36c8 9dbd 5db5 7f3c 0ee6 b13d 6b4a 023c

2.bias f4 [128]
-0.08321558 -0.3550422 -0.18585774 -0.23388086 0.16242543 -0.021124182 0.17726925 -0.044844694
-0.07075133 -0.05859024 0.20936821 -0.12324573 -0.19217446 -0.10428999 -0.18780047 -0.011465828
-0.1171659 -0.12817922 0.028114581 -0.08690016 0.08856417 -0.024859162 -0.08724468 -0.19640757
-0.240239 -0.11773114 -0.20257185 -0.102557376 0.08797996 -0.11343289 -0.051609386 -0.15086737
-0.14652337 -0.07980806 -0.040072348 0.013223138 0.02760805 -0.08634651 -0.08240212 -0.25200948
-0.06175194 0.02909936 -0.09680376 -0.21208057 -0.170541 -0.021841284 -0.045665756 -0.037785854
-0.09887054 -0.04212152 -0.20350102 0.022813695 -0.07430094 -0.154596 -0.26407441 -0.31300873
-0.03877431 -0.07861639 -0.0851987 -0.25657102 -0.12782545 0.0058640945 -0.13743438 -0.15671253
-0.12996452 0.10223675 -0.27637827 0.02427247 0.12685806 -0.1889839 -0.06515357 -0.048155084
-0.0659552 -0.06601118 -0.14903983 -0.19538902 -0.011152761 0.02969295 0.050002735 -0.1820346
0.07023174 -0.14449573 -0.12308154 -0.13979144 0.05755471 -0.011671635 -0.059772387 -0.10704595
-0.13617866 -0.145439 -0.24969463 -0.23933946 0.062133722 -0.071931265 -0.16453163 -0.23538753
0.040955916 -0.15304677 -0.006991006 0.023425499 -0.06049384 0.034922056 -0.24695939 -0.22600181
0.13352367 0.13339254 0.07998 -0.03218183 -0.071188666 -0.14840068 -0.033588175 -0.1475221
-0.051885486 -0.049398836 -0.24873106 -0.030759912 -0.13596503 -0.01235892 -0.105308466 -0.15262985
0.08692199 -0.04442959 -0.17223105 -0.002605266 -0.1371045 -0.17005883 -0.042325456 -0.15546398
00000000: ee6c aabd 17c8 b5be 7e51 3ebe 777e 6fbe
00000010: da52 263e 9f0c adbc 1286 353e 12af 37bd
00000020: 13e6 90bd 52fc 6fbd 9f64 563e 4268 fcbd
00000030: 62c9 44be fe95 d5bd c44e 40be 2bdb 3bbc
00000040: adf4 efbd 6a41 03be 8d50 e63c b6f8 b1bd
00000050: 2261 b53d 71a5 cbbc 57ad b2bd 111f 49be
00000060: 3601 76be 061d f1bd ff6e 4fbe 9a09 d2bd
00000070: d62e b43d 814f e8bd 5d64 53bd fa7c 1abe
00000080: 390a 16be 6872 a3bd e722 24bd dca5 583c
00000090: 472a e23c 70d6 b0bd 71c2 a8bd 6307 81be
000000a0: 9aef 7cbd c861 ee3c 0d41 c6bd a62b 59be
000000b0: 4da2 2ebe 7eec b2bc 040c 3bbd 57c5 1abd
000000c0: a37c cabd 9d87 2cbd 9262 50be c9e3 ba3c
000000d0: 172b 98bd 6a4e 1ebe c334 87be ae42 a0be
000000e0: d0d1 1ebd a101 a1bd a87c aebd 475d 83be
000000f0: ade4 02be 9727 c03b 99bb 0cbe 4079 20be
00000100: 6b15 05be 8061 d13d 7481 8dbe 0fd7 c63c
00000110: 14e7 013e ff84 41be 3c6f 85bd 443e 45bd
00000120: 8513 87bd df30 87bd e69d 18be 0f14 48be
00000130: 12ba 36bc a13e f33c abcf 4c3d 4767 3abe
00000140: a9d5 8f3d b0f6 13be 2d12 fcbd 7d25 0fbe
00000150: 7dbe 6b3d 633a 3fbc e4d3 74bd e83a dbbd
00000160: 6b72 0bbe f6ed 14be f3af 7fbe 6715 75be
00000170: ee7f 7e3d b350 93bd fb7a 28be 6e09 71be
00000180: 64c1 273d 4bb8 1cbe cf14 e5bb d5e6 bf3c
00000190: 64c8 77bd 6e0a 0f3d ece2 7cbe 056d 67be
000001a0: 6eba 083e 0e98 083e 8ecc a33d 18d1 03bd
000001b0: 5dcb 91bd 59f6 17be c193 09bd 0910 17be
000001c0: e085 54bd 6f56 4abd 5bb3 7ebe 36fc fbbc
000001d0: 6b3a 0bbe 117d 4abc f7ab d7bd 004b 1cbe
000001e0: 2804 b23d cdfb 35bd 565d 30be 1cbd 2abb
000001f0: 1f65 0cbe e723 2ebe 755d 2dbd f331 1fbe

4.weight f4 [128, 128]
-0.16695862 0.19730243 0.14354257 0.018803785 0.079218216 0.07740213 -0.10726542 -0.075416364
-0.15302995 0.024611857 -0.09752816 -0.015702222 0.09219009 -0.03481637 0.1323623 -0.051693436
0.006910657 -0.0023594026 0.061679892 -0.08877118 -0.19145124 0.08462223 -0.003779528 -0.035621706
-0.0027533148 -0.0077831717 0.017614335 -0.10442253 -0.041338485 0.09716029 -0.07605814 0.009581985
-0.06890476 0.116834715 -0.11785049 -0.03105985 0.036732413 0.10780859 -0.0325748 -0.049557436
-0.2019367 -0.044417918 -0.1182234 0.01718155 0.057957392 0.055010676 0.02768133 -0.0854252
0.0050685992 -0.032619152 -0.06496374 -0.21100326 0.038204547 0.017123722 0.053071387 0.10860836
-0.016119605 -0.09909278 -0.03852353 -0.032862715 -0.0564904 0.06185746 -0.04555081 0.067450576
0.1341863 -0.23363157 -0.07464731 0.004619949 0.14983234 -0.0006762567 -0.12863909 0.094242536
0.09521583 -0.009750544 0.21109658 -0.0045633996 -0.12054189 -0.09692705 0.087604225 -0.025023265
-0.03746764 -0.022465823 0.016851548 -0.03847125 0.050038114 0.023319418 -0.112115525 -0.099376865
-0.005501588 0.0046298187 0.07324885 0.14119205 0.12706557 0.11238995 0.19568425 -0.02325508
0.07041105 0.003609043 -0.01818367 -0.066203564 0.09360595 0.01845906 0.08386171 -0.051563874
0.04401702 0.08135918 0.009287806 0.27529487 0.13552701 0.20053697 0.112262554 -0.05421443
-0.14489436 0.16498752 0.11375906 -0.1410972 -0.062646985 -0.03466313 -0.035736002 -0.20087825
-0.0819005 0.19295713 0.11422733 -0.020953568 0.063699104 -0.0020590678 -0.08919195 -0.11970819
0.045945268 0.028682211 0.11790577 -0.036600053 0.04687718 -0.13736379 -0.03907949 -0.0030845578
-0.050030902 0.015439405 0.012923543 0.014164304 0.08074056 0.18793018 -0.055839308 -0.11789552
0.031213744 0.10904302 -0.04305061 -0.06497295 0.10953702 -0.01142007 0.030233925 0.09355699
-0.018824896 -0.08805612 0.12686725 -0.12668408 0.04038617 0.015748667 0.061740056 -0.15374124
0.044854335 0.10243941 -0.14154537 0.09555729 -0.009023006 0.03020139 0.035331693 -0.04431957
-0.047004223 0.07329377 -0.032435153 -0.020628272 -0.04032532 -0.047569044 0.12167109 -0.043270357
-0.20875365 0.16136257 0.059516404 -0.12708092 -0.07157466 -0.040845316 0.07159623 0.06372641
-0.023006333 0.16202292 0.009005654 -0.13791095 0.030748367 -0.0010584812 0.032771315 0.013730833
-0.094901934 -0.07897703 0.06269822 -0.05977581 -0.11734484 0.075475246 -0.103452645 -0.051339
0.09628098 -0.029958889 0.06338192 0.017719612 0.040388558 0.09209982 0.03465125 -0.011296508
-0.07628285 0.020239905 -0.12390096 -0.115916446 -0.06333028 -0.15178132 0.033116996 -0.16002575
-0.0017535014 0.07062024 0.0999697 0.031706456 0.008499036 -0.029874392 0.04741696 -0.05013437
0.036207303 -0.052035734 -0.014521283 -0.14353867 0.06400154 0.08598023 -0.009704656 0.1576683
-0.12606716 0.047103077 -0.03709189 0.05553273 0.17509969 0.039520998 0.069254994 0.061636515
-0.04679659 -0.014629813 -0.05680052 0.016874095 0.040338326 -0.11851646 -0.026438143 -0.061219458
0.003679085 0.06936038 0.08947376 -0.16549824 0.08088122 0.12912272 0.11108294 -0.040018294
00000000: 33f7 2abe a609 4a3e d3fc 123e 650a 9a3c
00000010: 293d a23d 0285 9e3d f9ad dbbd e573 9abd
00000020: e2b3 1cbe ce9e c93c d8bc c7bd f2a1 80bc
00000030: 28ce bc3d 9c9b 0ebd fc89 073e 7fbc 53bd
00000040: cb72 e23b 35a0 1abb 0ea4 7c3d aacd b5bd
00000050: cb0b 44be 6b4e ad3d f5b1 77bb 11e8 11bd
00000060: f570 34bb fa09 ffbb f04b 903c 7bdb d5bd
00000070: 8b52 29bd f9fb c63d 5fc4 9bbd c2fd 1c3c
00000080: f01d 8dbd 0a47 ef3d 995b f1bd 3a71 febc
00000090: ba74 163d c0ca dc3d 276d 05bd bdfc 4abd
000000a0: 7fc8 4ebe 90ef 35bd 1c1f f2bd 52c0 8c3c
000000b0: bb64 6d3d e052 613d f5c3 e23c 68f3 aebd
000000c0: 7e16 a63b a99b 05bd b60b 85bd 3d11 58be
000000d0: 5f7c 1c3d 0c47 8c3c 6261 593d 0f6e de3d
000000e0: 430d 84bc 28f1 cabd d9ca 1dbd 0e9b 06bd
000000f0: 7a62 67bd 3f5e 7d3d 7c93 3abd 8723 8a3d
00000100: 2268 093e 1d3d 6fbe b0e0 98bd f162 973b
00000110: a66d 193e d246 31ba f7b9 03be 3b02 c13d
00000120: 8400 c33d bfc0 1fbc b429 583e 9288 95bb
00000130: abde f6bd b081 c6bd d869 b33d 97fd ccbc
00000140: ab77 19bd 3f0a b8bc 420c 8a3c 0894 1dbd
00000150: c4f4 4c3d 5d08 bf3c d39c e5bd 1986 cbbd
00000160: aa46 b4bb bcb5 973b 7e03 963d a694 103e
00000170: 7a1d 023e b42c e63d 7461 483e 7081 bebc
00000180: ab33 903d b285 6c3b ebf5 94bc bc95 87bd
00000190: 7ab4 bf3d 7437 973c b0bf ab3d a434 53bd
000001a0: 314b 343d a49f a63d e22b 183c 73f3 8c3e
000001b0: 98c7 0a3e 9059 4d3e e9e9 e53d f30f 5ebd
000001c0: 305f 14be 7df2 283e 83fa e83d c97b 10be
000001d0: 104d 80bd edfa 0dbd ea5f 12bd 07b3 4dbe
000001e0: 73bb a7bd 8e96 453e 05f0 e93d d1a6 abbc
000001f0: ad74 823d 6df1 06bb 45aa b6bd 9129 f5bd
00000200: 1b31 3c3d f5f6 ea3c 9578 f13d f0e9 15bd
00000210: 4902 403d 18a9 0cbe d111 20bd 4b26 4abb
00000220: 34ed 4cbd 8ff5 7c3c 45bd 533c 6611 683c
00000230: 4f5b a53d c570 403e c2b7 64bd 3573 f1bd
00000240: f7b3 ff3c f251 df3d d655 30bd 8a10 85bd
00000250: f254 e03d 3f1b 3bbc 23ad f73c cf9a bf3d
00000260: ab36 9abc c456 b4bd 7de9 013e 79b9 01be
00000270: f86b 253d 5903 813c 24e3 7c3d 586e 1dbe
00000280: 2eb9 373d c1cb d13d 45f1 10be 8ab3 c33d
00000290: 3bd5 13bc e868 f73c f7b7 103d 7088 35bd
000002a0: 8087 40bd 0b1b 963d b9da 04bd 9ffc a8bc
000002b0: 2a2c 25bd c2d7 42bd b12e f93d 423c 31bd
000002c0: 84c3 55be 3b3c 253e 79c7 733d 8021 02be
000002d0: bc95 92bd 6b4d 27bd 0ba1 923d fe82 823d
000002e0: c777 bcbc 56e9 253e 738c 133c 8738 0dbe
000002f0: 00e4 fb3c bcbc 8aba 373b 063d 4af7 603c
00000300: f25b c2bd b6be a1bd ed67 803d 7bd7 74bd
00000310: 7e52 f0bd c492 9a3d fbde d3bd d848 52bd
00000320: f62e c53d 586c f5bc 61ce 813d b828 913c
00000330: 796e 253d d59e bc3d 78ee 0d3d fd14 39bc
00000340: 2f3a 9cbd 28ce a53c c9bf fdbd 9a65 edbd
00000350: 4eb3 81bd 906c 1bbe b0a5 073d cadd 23be
00000360: bed5 e5ba 58a1 903d eabc cc3d a1de 013d
00000370: 8a3f 0b3c 24bb f4bc 4938 423d b259 4dbd
00000380: 1c4e 143d 6c23 55bd adea 6dbc cdfb 12be
00000390: 3d13 833d 6716 b03d 4700 1fbc cd73 213e
000003a0: c017 01be 28ef 403d aaed 17bd 4a76 633d
000003b0: 554d 333e c5e0 213d 90d5 8d3d 9276 7c3d
000003c0: c8ad 3fbd e2b1 6fbc a9a7 68bd 8b3b 8a3c
000003d0: cd39 253d c2b8 f2bd ce94 d8bc 41c1 7abd
000003e0: ce1c 713b d10c 8e3d 053e b73d 5f78 29be
000003f0: 0ea5 a53d bf38 043e 747f e33d 39ea 23bd

4.bias f4 [128]
-0.022631394 -0.12724917 -0.052659538 -0.0400089 -0.15886547 -0.08446781 -0.12783785 -0.10170906
-0.21620405 0.032676727 0.00984829 0.020017141 0.042666733 -0.2100389 -0.059815302 0.021203317
-0.06255917 -0.13503864 -0.14829783 -0.1539274 0.07196039 0.02692146 -0.11716687 0.028808592
-0.013601786 -0.15916194 -0.08366942 -0.13249148 0.09607188 -0.05095811 -0.122489475 -0.0015288186
-0.06942556 -0.097997464 -0.02271691 -0.05853711 -0.16457419 -0.06796528 0.009091593 -0.0879634
-0.13022077 -0.031340927 -0.14212425 -0.04016091 -0.02540044 -0.04270736 -0.093391865 -0.21447116
-0.038879577 -0.0041575036 -0.1018788 -0.086534284 0.12532008 -0.034836993 -0.06051523 -0.08696643
-0.08162807 -0.0055651865 -0.10248409 -0.117985345 -0.120513566 -0.07534487 -0.18757007 -0.15812416
-0.11775116 0.0040818383 -0.12153634 0.08952232 0.024578458 -0.040364273 -0.24572484 -0.081330106
-0.05750274 -0.10920872 -0.08618703 0.020887466 -0.10410566 -0.11442732 -0.122916535 -0.017183514
-0.10337797 0.062129814 -0.13307273 -0.122053854 0.01151391 -0.14598666 -0.023271194 -0.1201565
-0.04578391 0.07946402 -0.29136556 -0.051847648 -0.13118775 0.056931566 -0.08012244 0.03880121
-0.18076491 -0.103253074 -0.08861297 -0.005475768 -0.0037669882 -0.018973455 -0.2487963 -0.08763047
-0.07670444 0.055605393 0.023212342 -0.06485089 -0.045663506 0.09578816 -0.17247288 -0.013542961
-0.17626543 -0.020906247 -0.10551386 -0.0910006 -0.004161412 -0.1460569 -0.06175265 -0.0284558
-0.052189667 0.008621792 -0.12808548 0.042019084 -0.056325756 0.115393445 -0.02667005 -0.009265946
00000000: 7965 b9bc 9b4d 02be 87b1 57bd 5fe0 23bd
00000010: a1ad 22be 76fd acbd ede7 02be d74c d0bd
00000020: 9864 5dbe 08d8 053d b95a 213c fdfa a33c
00000030: 50c3 2e3d 7014 57be e400 75bd 94b2 ad3c
00000040: 061f 80bd 9247 0abe 63db 17be 259f 1dbe
00000050: f85f 933d 658a dc3c 2ff5 efbd ffff eb3c
00000060: 07da 5ebc 59fb 22be df5a abbd d9ab 07be
00000070: 55c1 c43d 73b9 50bd c3db fabd a462 c8ba
00000080: fd2e 8ebd e5b2 c8bd d018 babc 9cc4 6fbd
00000090: 2386 28be 6131 8bbd e8f4 143c 2826 b4bd
000000a0: 9858 05be 585f 00bd 0589 11be c47f 24bd
000000b0: 9514 d0bc eaed 2ebd 3c44 bfbd 549e 5bbe
000000c0: 3140 1fbd ab3b 88bb d5a5 d0bd e338 b1bd
000000d0: e853 003e 3cb1 0ebd d1de 77bd 751b b2bd
000000e0: 9e2c a7bd 2b5c b6bb 2ee3 d1bd 4da2 f1bd
000000f0: d1cf f6bd 694e 9abd 5e12 40be 4deb 21be
00000100: 8527 f1bd f1c0 853b 0be8 f8bd 7a57 b73d
00000110: c358 c93c 0255 25bd 4b9f 7bbe 6690 a6bd
00000120: fe87 6bbd d2a8 dfbd d382 b0bd 311c ab3c
00000130: 5935 d5bd df58 eabd aabb fbbd 71c4 8cbc
00000140: d4b7 d3bd d57b 7e3d 3844 08be 5ff7 f9bd
00000150: d7a4 3c3c 877d 15be 3ba3 bebc 9c14 f6bd
00000160: e987 3bbd 08be a23d de2d 95be 335e 54bd
00000170: 1556 06be 1331 693d 3c17 a4bd 04ee 1e3d
00000180: 701a 39be 5976 d3bd b87a b5bd 126e b3bb
00000190: 93df 76bb 386e 9bbc 75c4 7ebe 9b77 b3bd
000001a0: 3817 9dbd 7bc2 633d cf27 be3c 8bd0 84bd
000001b0: a809 3bbd 952c c43d bb9c 30be 4ce3 5dbc
000001c0: ed7e 34be 9443 abbc a717 d8bd 865e babd
000001d0: 745c 88bb f18f 15be 59f0 7cbd 231c e9bc
000001e0: d5c4 55bd 6b42 0d3c d728 03be 341c 2c3d
000001f0: d6b5 66bd 6653 ec3d 267b dabc 32d0 17bc

6.weight f4 [12, 128]
0.010353359 0.01996871 -0.042968206 0.054435737 -0.008674689 -0.027831802 -0.05068885 0.04288505
0.08259354 -0.023379246 -0.05306748 -0.0062923348 0.03155071 0.0362912 0.03935954 -0.06891698
0.0014691313 0.0021902751 0.0029321285 -0.051161602 0.016474234 0.031514056 -0.022378737 0.044881728
0.016409587 -0.01986019 0.028140904 0.04956153 0.07273323 0.017349388 -0.05214971 -0.02957532
0.047083847 -0.16810967 -0.028008457 -0.00749148 -0.00395885 0.009550737 -0.031038512 0.06342851
-0.06630293 -0.016047005 0.034753922 0.031845048 0.020995466 0.00955447 -0.019597607 0.038114373
0.0010285128 -0.040253688 0.025495691 0.000979755 -0.07132375 -0.021787876 0.006841697 0.045840215
0.021132872 0.04371704 0.000660994 0.02688139 -0.052790962 -0.028984873 -0.05132562 0.043164022
0.025062554 -0.0059462977 0.058765292 0.0025850774 0.049550783 -0.02279903 0.004484855 -0.08895794
-0.053528327 -0.04366674 0.0075725196 -0.07336314 -0.10655888 -0.005970732 -0.03900306 -0.017404636
0.05921105 -0.07260534 0.053494014 0.03415272 -0.02040577 -0.007631917 0.051968966 -0.06736483
0.045206077 -0.02540055 0.059620846 0.015990239 0.080337554 -0.005427199 0.050645966 0.017856574
-0.016672475 0.006724279 -0.013541137 -0.025866758 0.035162352 -0.0202237 0.0011648483 0.02190982
-0.0018534939 0.00374423 -0.033125382 -0.037570324 0.07381928 -0.048150815 0.00034962874 0.0414296
0.0013923175 0.018960262 -0.07620485 0.06316516 -0.040754586 -0.030337973 -0.03715363 -0.0023071286
-0.085864745 -0.091989666 0.046438158 -0.00762932 0.045696322 -0.016244171 0.051137254 -0.050714683
-0.015833188 0.0694403 0.03348946 0.004727758 0.035380594 0.037360154 -0.023870919 -0.0025916586
-0.013502128 -0.018415663 -0.031039821 0.041565843 0.011036718 0.0058406563 0.02850076 0.034409475
-0.037924264 -0.0011735611 0.0804532 0.029002298 -0.008916324 0.06567755 -0.061223283 0.0043794434
0.048006702 0.00235941 0.024730872 0.017027413 0.0036538425 -0.017401919 -0.07578615 -0.022988198
-0.024417741 0.15109597 0.013164583 -0.048572738 0.0042679613 -0.022854956 0.07910017 -0.063824594
0.0059932056 0.015977496 -0.03185197 -0.026499933 -0.035575956 0.0017125063 0.026255103 -0.017374113
-0.013932059 -0.021804828 0.030495211 -0.022828836 0.044850074 0.035127234 -0.015149397 0.03299126
-0.014431377 -0.101710655 -0.014904364 0.002269386 -0.041274548 -0.052231193 0.034486532 -0.04788632
0.085782446 -0.056085184 0.086280435 -0.062157508 -0.030221162 -0.013404477 0.033910397 -0.014357674
-0.027787741 -0.08853764 0.004459132 0.034813944 0.02145212 -0.027475666 0.0054959985 0.029145017
0.003400422 -0.035495177 -0.08121952 -0.081629165 -0.07257972 -0.020272288 0.02235068 0.052820966
-0.023134066 0.0005884207 0.016534513 -0.016824473 -0.03437543 0.08526806 0.053467613 0.007419874
-0.02280435 0.0025609753 -0.0438963 -0.0027898685 0.038115058 0.015412021 -0.039762445 0.09774637
-0.01072097 0.009322853 -0.001745224 -0.017916624 0.025479868 0.017612891 -0.05858395 0.05594375
0.0399101 0.03134714 0.039410636 -0.0762762 -0.01710923 0.06969837 0.04629443 0.03272941
-0.012843108 0.02039123 0.008374752 0.08156103 0.024951182 0.010863805 -0.002001648 0.018053655
00000000: 23a1 293c 6c95 a33c 6eff 2fbd 02f8 5e3d
00000010: 4820 0ebc 85ff e3bc 1d9f 4fbd 3ca8 2f3d
00000020: cd26 a93d d585 bfbc 495d 59bd ee2f cebb
00000030: 513b 013d 15a6 143d 7837 213d 5824 8dbd
00000040: de8f c03a b88a 0f3b f428 403b d48e 51bd
00000050: f9f4 863c e214 013d 9d53 b7bc e7d5 373d
00000060: 666d 863c d6b1 a2bc c187 e63c 0801 4b3d
00000070: 29f5 943d 4e20 8e3c ef9a 55bd f147 f2bc
00000080: feda 403d f124 2cbe fe71 e5bc 177b f5bb
00000090: 3eb9 81bb b27a 1c3c 7a44 febc cfe6 813d
000000a0: d5c9 87bd 0275 83bc 215a 0e3d f46f 023d
000000b0: affe ab3c 5a8a 1c3c 298b a0bc d11d 1c3d
000000c0: 2acf 863a 0de1 24bd 57dc d03c 1f6b 803a
000000d0: 3012 92bd 7d7c b2bc 5030 e03b f3c2 3b3d
000000e0: d81e ad3c a410 333d 8e46 2d3a 5c36 dc3c
000000f0: 563b 58bd af71 edbc d03a 52bd c2cc 303d
00000100: fc4f cd3c 29d9 c2bb e0b3 703d 676a 293b
00000110: c3f5 4a3d 08c5 babc b1f5 923b 952f b6bd
00000120: 8540 5bbd e5db 32bd e622 f83b 6a3f 96bd
00000130: 8b3b dabd 21a6 c3bb acc1 1fbd 2b94 8ebc
00000140: 4987 723d 1cb2 94bd 8a1c 5b3d b9e3 0b3d
00000150: 002a a7bc 2915 fabb 69dd 543d 92f6 89bd
00000160: 022a 393d d014 d0bc fd34 743d f6fd 823c
00000170: 0488 a43d a5d6 b1bb 2572 4f3d f347 923c
00000180: b794 88bc 5757 dc3b a5db 5dbc 86e6 d3bc
00000190: 6606 103d 2cac a5bc d3ad 983a 397c b33c
000001a0: eff0 f2ba c161 753b 7bae 07bd 57e3 19bd
000001b0: 902e 973d ca39 45bd 604e b739 16b2 293d
000001c0: 6c7e b63a 8d52 9b3c 4a11 9cbd bc5c 813d
000001d0: 48ee 26bd 5787 f8bc 682e 18bd 3233 17bb
000001e0: dbd9 afbd 1465 bcbd f035 3e3d 60ff f9bb
000001f0: 112c 3b3d 7f12 85bc 4c75 513d 33ba 4fbd
00000200: 9ab4 81bc b736 8e3d 3e2c 093d 4feb 9a3b
00000210: 3eeb 103d f606 193d f28c c3bc d1d8 29bb
00000220: 0838 5dbc 72dc 96bc 3947 febc f240 2a3d
00000230: 5ad3 343c fa62 bf3b 6d7a e93c f3f0 0c3d
00000240: 7956 1bbd 2dd2 99ba a6c4 a43d 3a96 ed3c
00000250: c615 12bc f481 863d 44c5 7abd 6f81 8f3b
00000260: ada2 443d 55a0 1a3b 6698 ca3c 137d 8b3c
00000270: 4e75 6f3b 788e 8ebc c535 9bbd bf51 bcbc
00000280: b707 c8bc e7b8 1a3e 43b0 573c 35f4 46bd
00000290: 41da 8b3b 513a bbbc 45ff a13d 78b6 82bd
000002a0: a762 c43b 3de3 823c 3677 02bd 6316 d9bc
000002b0: 18b8 11bd 2d76 e03a f114 d73c 2854 8ebc
000002c0: 4a43 64bc 0aa0 b2bc 18d1 f93c 8a03 bbbc
000002d0: b6b4 373d 93e1 0f3d 2d35 78bc d821 073d
000002e0: 9571 6cbc ad4d d0bd 6f31 74bc fbb9 143b
000002f0: 800f 29bd 60f0 55bd c041 0d3d 7224 44bd
00000300: b5ae af3d 94b9 65bd ccb3 b03d df98 7ebd
00000310: 5f92 f7bc 749e 5bbc a1e5 0a3d 733c 6bbc
00000320: 1ea3 e3bc 3953 b5bd e91d 923b 1199 0e3d
00000330: 5bbc af3c a614 e1bc c717 b43b 88c1 ee3c
00000340: 9dd9 5e3b 6463 11bd 6b56 a6bd 312d a7bd
00000350: ada4 94bd 1212 a6bc c618 b73c cc5a 583d
00000360: a783 bdbc 3f40 1a3a 6373 873c 7ad3 89bc
00000370: 40cd 0cbd 05a1 ae3d db00 5b3d 6a22 f33b
00000380: 30d0 babc 09d6 273b 9bcc 33bd 3ad6 36bb
00000390: 891e 1c3d b482 7c3c f2dd 22bd 402f c83d
000003a0: 02a7 2fbc e1be 183c 00c0 e4ba e2c5 92bc
000003b0: 28bb d03c e948 903c b9f5 6fbd 4625 653d
000003c0: c678 233d dc65 003d 0c6d 213d b236 9cbd
000003d0: a828 8cbc 05be 8e3d 3a9f 3d3d 460f 063d
000003e0: e66b 52bc 820b a73c 4136 093c 7809 a73d
000003f0: 6c66 cc3c 1afe 313c 152e 03bb 42e5 933c

6.bias f4 [12]
-0.023872983 7.3232055e-05 -0.056366924 -0.03669074 -0.18624374 -0.2382776 0.0130752865 0.229477
-0.040097997 -0.07170884 0.027754806 0.08441307
00000000: 4691 c3bc 2994 9938 01e1 66bd 0849 16bd
00000010: aeb6 3ebe 0bff 73be ba39 563c 05fc 6a3e
00000020: cc3d 24bd 16dc 92bd 0c5e e33c c2e0 ac3d
