onnx_inference/data/model.onnx (onnx, 162779 bytes, 8 tensors)

0.weight f4 [128, 45]
-0.021208497 0.023277842 -0.023840478 -0.08726459 -0.03897261 0.21752918 0.023960434 -0.08486578
-0.19617441 -0.43464348 -0.3929386 -0.19974788 -0.8334839 0.1104143 0.47972405 0.46177888
0.19534184 0.027352966 0.2806241 0.06745376 0.310359 -0.05716077 -0.049236756 -0.061130475
-0.08190467 -0.012700534 0.24878034 -0.07375994 0.01952388 -0.17364079 -0.057701964 -0.16766708
0.0431988 -0.15705474 -0.4148802 -0.079834886 -0.5143543 0.02653746 0.32122743 0.16190018
0.2988413 -0.034804642 0.19998603 -0.31758413 -0.22078827 0.047909826 0.08935887 -0.0068358835
0.024611283 0.12410162 0.51070815 -0.018299805 0.3320987 0.8075681 -0.04531954 0.08379635
0.047476254 0.48304966 0.13237715 0.112164415 -0.5848541 0.0013361243 -0.058368888 -0.09692938
-0.07620557 0.043142043 0.12832999 0.12478693 -0.122784816 -0.099377945 -0.1979969 -0.14825155
-0.12845452 0.04464756 -0.025359984 -0.0011582215 0.14870217 -0.013681127 0.08904481 -0.005918437
-0.03269506 0.047808453 0.3384274 0.2275668 -0.7343852 -0.17466305 -0.18522051 -0.11877705
0.111746654 0.1161602 0.18861601 -0.19310126 -0.11427241 0.24396126 0.05415432 -0.028112995
-0.33543512 0.22352041 0.20139286 -0.065003276 -0.46082455 0.22374357 -0.755162 -0.11905995
0.07701734 0.28237695 0.26071113 0.15457907 0.14112319 0.15088558 0.25501832 -0.4614696
0.22908747 -0.1431553 0.44508702 0.4054727 -0.4030712 -0.045482446 -0.006584797 0.014230463
0.23579487 0.1930194 -0.31935766 -0.3378876 -0.093190864 -0.20003144 -0.33658794 0.22709742
0.35312602 -0.06824255 0.13574477 -0.031124502 0.39302534 0.41020003 -0.15219691 -0.0113428375
0.070933685 -0.0763471 0.6223186 -0.26616922 0.42138556 -0.78220165 0.34877908 0.4312045
0.4463991 -0.017532881 1.1485187 -0.7758549 -0.3014091 -0.016516581 -0.33037883 0.5252791
0.3668689 0.36362848 0.34931478 0.25176522 -0.13254909 0.31462628 0.4392047 -0.21156195
0.026290732 -0.012825617 -0.31025013 0.13012382 -0.13078824 0.20912278 -0.19130763 -0.09967584
0.338846 -0.040562537 0.3809549 -0.32869166 0.1733447 -0.107702985 0.22006047 0.08726132
0.17671975 0.11843536 -0.038030624 0.14619476 0.0945934 -0.05923876 0.0743161 -0.20974845
-0.16966984 -0.24206232 -0.08839943 0.20889091 -0.39650527 0.46605206 0.23072542 1.0212016
0.38208613 -0.3893978 -0.09170606 -0.5702998 -0.10397323 0.1616254 0.2064322 0.2413508
0.04383459 0.0028079692 -0.27916455 -0.07822781 0.33944774 -0.028882224 -0.03165757 -0.014598746
-0.24305514 0.19267602 0.063373424 0.24223657 0.0044349246 0.65113544 -0.27841157 0.33089504
-0.04224796 -0.11940174 0.21406847 -0.48761362 0.052265253 0.48627856 -0.23540372 -0.15360318
0.41402227 0.027443485 0.0060651493 -0.0144111505 -0.26701722 -0.015258276 0.38462397 0.09922841
0.114753164 0.05839716 0.6115256 0.55270714 -0.68965477 0.62048537 -0.14821963 -0.2871839
0.5013898 0.47139832 0.26253292 -0.011145243 0.13277611 0.016020346 -0.077470206 -0.024003802
0.044419162 -0.24609125 0.041625585 0.20918983 0.24569286 0.09979001 0.17712057 -0.16093232
00000000: 71bd adbc 2cb1 be3c 1b4d c3bc c7b7 b2bd
00000010: bea1 1fbd f8bf 5e3e ac48 c43c 1cce adbd
00000020: f2e1 48be 9789 debe 402f c9be b58a 4cbe
00000030: 335f 55bf e420 e23d 649e f53e 486e ec3e
00000040: b107 483e 5413 e03c f6ad 8f3e 3225 8a3d
00000050: 60e7 9e3e 6921 6abd 7bac 49bd f363 7abd
00000060: a3bd a7bd e715 50bc 46c0 7e3e 740f 97bd
00000070: 8bf0 9f3c e4ce 31be e558 6cbd ebb0 2bbe
00000080: 3af1 303d f5d2 20be 2d6b d4be 7980 a3bd
00000090: b9ac 03bf 1665 d93c ec77 a43e 29c9 253e
000000a0: ba01 993e 508f 0ebd 23c9 4c3e 639a a2be
000000b0: 5216 62be 183d 443d c901 b73d 8cff dfbb
000000c0: 9a9d c93c fd28 fe3d c5bd 023f 79e9 95bc
000000d0: d708 aa3e c8bc 4e3f fba0 39bd 6c9d ab3d
000000e0: 7676 423d 4952 f73e e08d 073e 75b6 e53d
000000f0: 00b9 15bf e420 af3a 3714 6fbd e982 c6bd
00000100: aa11 9cbd b6b5 303d f068 033e 4a90 ff3d
00000110: 9b76 fbbd aa86 cbbd b3bf 4abe 41cf 17be
00000120: 9589 03be 5ce0 363d bebf cfbc 77cf 97ba
00000130: 6245 183e ce26 60bc 205d b63d 73ef c1bb
00000140: 41eb 05bd ccd2 433d 5b46 ad3e 4507 693e
00000150: ab00 3cbf dfda 32be 72aa 3dbe 6241 f3bd
00000160: 6edb e43d 66e5 ed3d 8e24 413e 56bc 45be
00000170: a707 eabd fbd0 793e ecd0 5d3d 394d e6bc
00000180: 27be abbe 89e2 643e ee39 4e3e 7020 85bd
00000190: 32f1 ebbe 091d 653e 4c52 41bf b4d5 f3bd
000001a0: 44bb 9d3d b693 903e ee7b 853e fa49 1e3e
000001b0: 9982 103e c081 1a3e c391 823e be45 ecbe
000001c0: e895 6a3e 4e97 12be 72e2 e33e 1e9a cf3e
000001d0: 595f cebe cd4b 3abd 48c5 d7bb e326 693c
000001e0: 3674 713e e1a6 453e d982 a3be 9aff acbe
000001f0: dada bebd 0bd5 4cbe 4155 acbe 3a8c 683e
00000200: efcc b43e c0c2 8bbd ad00 0b3e d0f8 febc
00000210: 9e3a c93e bd05 d23e 82d9 1bbe 4fd7 39bc
00000220: ae45 913d de5b 9cbd 4650 1f3f 5547 88be
00000230: d9bf d73e 5e3e 48bf 2c93 b23e d6c6 dc3e
00000240: 6c8e e43e 1ea1 8fbc a902 933f 6d9e 46bf
00000250: 4b52 9abe c84d 87bc 6a27 a9be b178 063f
00000260: 3ed6 bb3e 832d ba3e 63d9 b23e 5fe7 803e
00000270: f3ba 07be b216 a13e 70df e03e b2a3 58be
00000280: a95f d73c 8922 52bc 1bd9 9ebe 2e3f 053e
00000290: 5aed 05be 4824 563e 26e6 43be d922 ccbd
000002a0: 397d ad3e e724 26bd 850c c33e 464a a8be
000002b0: 4681 313e 6293 dcbd 8857 613e 10b6 b23d
000002c0: 06f6 343e 3d8e f23d 00c6 1bbd 14b4 153e
000002d0: 2fba c13d 58a4 72bd 0a33 983d 4cc8 56be
000002e0: eebd 2dbe 2fdf 77be c30a b5bd 80e7 553e
000002f0: bd02 cbbe 609e ee3e 4943 6c3e bcb6 823f
00000300: cba0 c33e 265f c7be 63d0 bbbd 2bff 11bf
00000310: ebef d4bd 2181 253e f662 533e aa24 773e
00000320: e68b 333d e805 383b a8ee 8ebe e735 a0bd
00000330: 18cc ad3e 6a9a ecbc 5eab 01bd 942f 6fbc
00000340: 72e3 78be dd4c 453e edc9 813d dd0c 783e
00000350: d852 913b d0b0 263f f68b 8ebe 136b a93e
00000360: 320c 2dbd e688 f4bd c434 5b3e 7ea8 f9be
00000370: 1714 563d 81f9 f83e ac0d 71be 274a 1dbe
00000380: bafa d33e 29d1 e03c 29be c63b bf1c 6cbc
00000390: 7bb6 88be d9fd 79bc 6fed c43e 4438 cb3d
000003a0: b503 eb3d dc31 6f3d f18c 1c3f 377e 0d3f
000003b0: 378d 30bf 21d8 1e3f e3c6 17be c509 93be
000003c0: 155b 003f 1f5b f13e b76a 863e 8a9a 36bc
000003d0: 76f6 073e 1a3d 833c b3a8 9ebd 9fa3 c4bc
000003e0: def0 353d 58ff 7bbe 977f 2a3d dc35 563e
000003f0: e996 7b3e b45e cc3d 185f 353e 71cb 24be

0.bias f4 [128]
-0.27689427 -0.2492342 0.26957157 -0.33329773 -0.3324991 -0.08594166 -0.26419395 0.16322865
-0.010433105 0.31489608 0.18678297 -0.041227058 -0.1581186 -0.015033704 0.06582637 -0.011339651
0.14570357 0.3804636 -0.10062439 0.08207634 0.057993073 0.021579614 -0.15130474 0.009683686
-1.1094861 0.0772395 -0.118358836 -0.1158129 0.13147302 -0.10429513 -0.18853626 0.34583607
-0.009607776 -0.010198998 -0.021822624 -0.11498779 -0.10781056 0.17311235 -0.12709266 -0.105855174
-0.054329123 -0.03539471 -0.26217914 -0.062158793 0.100567296 -0.07906878 -0.05117829 -0.19579294
-0.010810854 -0.19153033 -0.1978517 0.19321907 -0.026814891 -0.024089854 -0.11107498 -0.02813249
-0.14241682 -0.06324336 0.19878334 -0.14512068 -0.27400893 -0.19913343 -0.18519978 -0.18669249
0.027556816 -0.074634574 -0.002900755 0.18691069 -0.2432911 0.07366232 -0.09390859 -0.14541456
-0.043418672 -0.23753364 -0.030792693 0.23967 -0.01733742 0.0319445 -0.039131146 -0.039812658
-0.05465365 -0.02994156 -0.09599092 -0.17814122 -0.031997938 0.07202124 -0.12542985 0.027820664
0.06772282 -0.00835176 -0.105345435 0.032611765 -0.29135537 -0.023664327 -0.010560352 0.17407303
-0.17760515 -0.052086588 -0.058339354 -0.058985025 -0.012874415 -0.09923488 -0.048565935 -0.21821253
0.03402322 -0.26145923 0.014503992 0.09077756 0.24983154 -0.058569048 0.089457765 -0.16513667
-0.1523664 0.017626734 0.513376 0.0059861345 -0.052455418 0.0238824 -0.044945158 0.80655587
-0.22779544 -0.06707734 -0.17005044 -0.15452023 -0.029770803 -0.05017152 -0.123273596 -0.25651723
00000000: 16c5 8dbe 4037 7fbe 4905 8a3e 00a6 aabe
00000010: 523d aabe 2e02 b0bd 6e44 87be 6925 273e
00000020: 9def 2abc 0f3a a13e 0944 3f3e b4dd 28bd
00000030: d8e9 21be ed4f 76bc facf 863d f2c9 39bc
00000040: 5133 153e 20cc c23e 2914 cebd a417 a83d
00000050: 258a 6d3d bbc7 b03c a1ef 1abe 53a8 1e3c
00000060: a403 8ebf be2f 9e3d 1e66 f2bd 502f edbd
00000070: dda0 063e af98 d5bd a60f 41be 6d11 b13e
00000080: ef69 1dbc b319 27bc 5cc5 b2bc b87e ebbd
00000090: c8cb dcbd 5d44 313e 9424 02be 99ca d8bd
000000a0: 3788 5ebd 0bfa 10bd 583c 86be 389a 7ebd
000000b0: 3af6 cd3d d0ee a1bd 54a0 51bd f27d 48be
000000c0: 0220 31bc 8720 44be a399 4abe 38db 453e
000000d0: e7aa dbbc 1658 c5bc 477b e3bd 1c76 e6bc
000000e0: b7d5 11be bc85 81bd dc8d 4b3e 849a 14be
000000f0: e64a 8cbe a2e9 4bbe 03a5 3dbe 512c 3fbe
00000100: d5be e13c 03da 98bd 981a 3ebb 8465 3f3e
00000110: 4d21 79be 45dc 963d 2653 c0bd 8ee7 14be
00000120: c7d7 31bd 053c 73be f540 fcbc 0d6c 753e
00000130: 3407 8ebc 3cd8 023d fb47 20bd 9912 23bd
00000140: 81dc 5fbd 0148 f5bc e396 c4bd a76a 36be
00000150: 4510 03bd df7f 933d af70 00be 29e8 e33c
00000160: 43b2 8a3d d2d5 08bc 59bf d7bd ea93 053d
00000170: 882c 95be b1db c1bc 5405 2dbc 3340 323e
00000180: 20de 35be bf58 55bd 3ff5 6ebd 489a 71bd
00000190: 36ef 52bc a83b cbbd 13ed 46bd 1b73 5fbe
000001a0: ef5b 0b3d fcdd 85be 27a2 6d3c 96e9 b93d
000001b0: d7d3 7f3e 19e6 6fbd a235 b73d 9619 29be
000001c0: f005 1cbe f165 903c 9c6c 033f 5627 c43b
000001d0: 7edb 56bd 06a5 c33c 6a18 38bd 727a 4e3f
000001e0: 3543 69be d85f 89bd b421 2ebe 8d3a 1ebe
000001f0: e6e1 f3bc a780 4dbd de76 fcbd 3a56 83be

2.weight f4 [128, 128]
0.05064926 -0.19501603 -0.031489436 0.17226723 0.032846197 -0.25067914 -0.11370023 0.06224528
-0.2601892 -0.09894216 0.056985207 0.13159037 -0.06862697 0.20382307 -0.078464985 -0.043290038
-0.07769464 0.055073723 -0.07105497 -0.020701168 -0.13223955 0.012972656 -0.17300615 0.026540024
-0.06569498 0.06399537 0.081114285 -0.13934503 0.11292962 0.04562707 -0.13418394 -0.0729414
-0.19655177 0.03237405 0.15283716 0.28123295 0.01057032 0.28871855 0.08763472 0.1275906
-0.07721526 0.18086769 -0.14092794 -0.02839392 0.029393105 0.23395991 -0.04442465 0.15043104
-0.087814584 0.09955857 0.32805634 -0.003566849 0.17514431 -0.4001197 -0.08895598 -0.008353994
-0.019618941 0.13223314 0.039565053 -0.12391972 -0.36628574 -0.14326191 -0.024252158 0.004972041
0.07193815 -0.2567252 -0.3352147 0.15045309 -0.091107756 -0.1316439 0.122027546 -0.08278894
-0.074315384 0.2476158 0.0047879145 0.053983282 -0.19254799 0.18339925 0.028771045 -0.14813629
0.0026658133 -0.29406023 0.044784773 0.06269297 -0.08512883 -0.0697523 0.018111598 -0.14196484
-0.085392095 -0.109649785 -0.31334782 -0.0053093415 0.08596941 -0.08331103 0.14477001 -0.06538275
-0.0060515464 0.064873755 0.11746275 0.03222203 -0.0077933017 -0.035377845 -0.11657402 -0.014890767
0.07107616 0.18306084 0.10131136 0.27413154 0.10251664 -0.06899754 0.042577576 0.037446354
-0.14423536 0.14469218 -0.10767964 -0.25583676 0.12021064 0.19001222 -0.065407805 0.27260575
0.02990655 0.02633245 0.14514692 -0.021262582 0.17783439 -0.0011273565 -0.18597765 -0.0072501763
0.0028013112 0.0723675 0.0070736283 0.050273005 0.09399374 -0.0015002359 0.020963399 0.14988673
-0.0726521 -0.13687031 0.05865243 0.11373696 0.21976627 -0.043386173 -0.0015496223 -0.0029720454
-0.2683626 -0.028725138 -0.021252433 -0.043958172 -0.11719965 0.048042055 -0.17853525 -0.22636272
-0.018786194 0.055236544 0.059326828 -0.017360115 -0.06281328 0.10216168 0.06659239 -0.0033160944
0.02041857 0.04061063 0.028494176 0.0965635 -0.13661852 -0.08714234 -0.15049635 0.01922232
-0.2024705 0.023377266 0.08643242 0.09428728 0.19853802 -0.095573224 0.08644017 -0.10512443
0.06345075 0.12190785 0.16671991 -0.15424898 0.13426612 -0.080426894 0.025261207 -0.100012
-0.15583357 0.18115798 -0.3665202 -0.03687727 -0.103821 -0.10192681 -0.28663892 -0.09375569
0.0987175 0.27037042 0.008788216 -0.062963165 0.09065043 0.07744182 0.06242787 0.022962062
-0.07289935 -0.10353948 0.06693105 -0.012013831 -0.18531357 -0.4900692 -0.24844883 -0.25094897
-0.04465149 -0.0024246387 0.052009523 -0.04700636 -0.03710249 -0.28769782 0.06554447 -0.076785736
0.05918585 -0.20852804 -0.08323817 -0.12913612 0.2089685 -0.04481597 0.0580274 -0.1798119
0.24258928 -0.37266204 -0.0047573065 -0.27791744 -0.06748251 -0.24948652 -0.16987428 -0.16749574
0.098259084 0.2548138 -0.08807295 0.008852374 -0.06474728 0.024089126 -0.26657254 -0.13793123
-0.15184012 0.09515544 -0.08308407 0.042513635 -0.28070748 -0.093965635 -0.13760942 -0.094254814
0.023563195 -0.15617526 -0.11286125 -0.008734997 -0.0721301 -0.206968 -0.036370922 -0.2059099
00000000: 9975 4f3d 48b2 47be 11fb 00bd d266 303e
00000010: bc89 063d 0459 80be abdb e8bd e8f4 7e3d
00000020: 8537 85be 30a2 cabd 5269 693d a0bf 063e
00000030: 4c8c 8cbd ffb6 503e 40b2 a0bd e550 31bd
00000040: 5e1e 9fbd fc94 613d 4585 91bd 7f95 a9bc
00000050: ce69 07be 438b 543c 8628 31be 776a d93c
00000060: 178b 86bd 0110 833d 3f1f a63d 77b0 0ebe
00000070: a547 e73d 73e3 3a3d 8467 09be 4d62 95bd
00000080: de44 49be a79a 043d 5881 1c3e c4fd 8f3e
00000090: 232f 2d3c ebd2 933e d579 b33d 1ca7 023e
000000a0: 0923 9ebd 6135 393e 6a4f 10be 5e9a e8bc
000000b0: cfc9 f03c 3093 6f3e 9ff6 35bd 980a 1a3e
000000c0: 22d8 b3bd 5de5 cb3d 00f7 a73e ccc1 69bb
000000d0: 0859 333e 7ddc ccbe 8e2e b6bd 31df 08bc
000000e0: e7b7 a0bc 2068 073e f70e 223d 9fc9 fdbd
000000f0: ce89 bbbe 40b3 12be 76ac c6bc 81ec a23b
00000100: 4f54 933d 7c71 83be 43a1 abbe 6010 1a3e
00000110: b496 babd a9cd 06be 94e9 f93d 3f8d a9bd
00000120: aa32 98bd ff8e 7d3e f0e3 9c3b 931d 5d3d
00000130: 4d2b 45be 03cd 3b3e 41b1 eb3c 0ab1 17be
00000140: edb4 2e3b 108f 96be 3d70 373d 2c65 803d
00000150: 0658 aebd 4bda 8ebd c65e 943c 3b5f 11be
00000160: 0de2 aebd 1190 e0bd 206f a0be fcf9 adbb
00000170: bb10 b03d f99e aabd 973e 143e 64e7 85bd
00000180: 0d4c c6bb 88dc 843d 4f90 f03d 3ffb 033d
00000190: f45e ffbb 5ce8 10bd 5cbe eebd 67f8 73bc
000001a0: 6190 913d 4d74 3b3e 557c cf3d f85a 8c3e
000001b0: 3ff4 d13d 954e 8dbd d365 2e3d 5961 193d
000001c0: 6fb2 13be 302a 143e 2587 dcbd 09fd 82be
000001d0: ff30 f63d 9092 423e 87f4 85bd fb92 8b3e
000001e0: 95fe f43c 26b7 d73c 65a1 143e de2e aebc
000001f0: 381a 363e cfc3 93ba ed70 3ebe e392 edbb
00000200: 3496 373b 6935 943d e5c9 e73b 11eb 4d3d
00000210: ca7f c03d 90a3 c4ba 6fbb ab3c e87b 193e
00000220: a0ca 94bd bb27 0cbe 883d 703d ecee e83d
00000230: 690a 613e b3b5 31bd b21c cbba a6c6 42bb
00000240: d366 89be fb50 ebbc 9519 aebc 7c0d 34bd
00000250: 5f06 f0bd bfc7 443d f2d1 36be a1cb 67be
00000260: 81e5 99bc b73f 623d b000 733d cd36 8ebc
00000270: 40a4 80bd 253a d13d 9761 883d d552 59bb
00000280: d844 a73c 5557 263d 9e6c e93c 16c3 c53d
00000290: bae5 0bbe af77 b2bd b71b 1abe 2078 9d3c
000002a0: 6d54 4fbe ae81 bf3c 7b03 b13d b119 c13d
000002b0: 8d4d 4b3e e5bb c3bd 8b07 b13d 7a4b d7bd
000002c0: 78f2 813d d3aa f93d a0b8 2a3e 72f3 1dbe
000002d0: 0f7d 093e dbb6 a4bd 97f0 ce3c 17d3 ccbd
000002e0: d692 1fbe 7a81 393e 89a8 bbbe 9f0c 17bd
000002f0: 1ba0 d4bd 01bf d0bd 56c2 92be fc02 c0bd
00000300: 672c ca3d fe6d 8a3e 73fc 0f3c d5f2 80bd
00000310: efa6 b93d d199 9e3d 5eb4 7f3d ef1a bc3c
00000320: 414c 95bd 820c d4bd 2513 893d a9d5 44bc
00000330: d7c2 3dbe 5aea fabe 5f69 7ebe 627c 80be
00000340: 7be4 36bd b0e6 1ebb f007 553d be89 40bd
00000350: c8f8 17bd 214d 93be 2e3c 863d d741 9dbd
00000360: dd6c 723d 6088 55be c678 aabd 423c 04be
00000370: d7fb 553e f390 37bd 24ae 6d3d 9c20 38be
00000380: 5369 783e 8fcd bebe 2ee3 9bbb 324b 8ebe
00000390: 4534 8abd 6579 7fbe 86f3 2dbe 0184 2bbe
000003a0: 0f3c c93d f476 823e 975f b4bd 8c09 113c
000003b0: 399a 84bd 8f56 c53c 327c 88be d83d 0dbe
000003c0: fa7b 1bbe dbe0 c23d fb27 aabd c722 2e3d
000003d0: e4b8 8fbe 0e71 c0bd 7ce9 0cbe ab08 c1bd
000003e0: 9a07 c13c 68ec 1fbe cd23 e7bd 3c1d 0fbc
000003f0: f2b8 93bd 6bef 53be adf9 14bd 0bda 52be

2.bias f4 [128]
0.0026014282 -0.24110217 -0.22941515 -0.084826484 0.00824622 -0.09769098 -0.16422385 -0.06387542
-0.31919387 -0.10223219 0.1556688 0.14136937 -0.47368047 -0.20293535 -0.03573006 -0.10596164
0.044164423 -0.179498 -0.062626965 -0.1553293 -0.032796286 -0.02335943 -0.119771756 -0.2065086
-0.17857434 -0.24047165 -0.19016896 -0.23355132 -0.2489181 0.026892629 -0.30401668 -0.09108017
-0.04955545 -0.056339364 -0.0536415 -0.06526658 -0.006397637 -0.2659469 -0.21932891 0.046527237
0.22630438 -0.23801589 -0.13992363 -0.21529083 -0.21241187 -0.01607276 -0.22561796 -0.18057184
-0.15851642 -0.04521004 -0.21118133 -0.097656 -0.16493312 -0.086359315 -0.11140935 -0.2616497
-0.03206419 -0.25293943 0.050557006 -0.23958564 -0.2404941 -0.17391127 -0.23443268 -0.011210696
-0.044931576 0.068715505 -0.25860116 0.04244939 -0.17701115 -0.030019278 0.034979712 -0.048010547
-0.10801359 -0.14347966 -0.040431336 -0.12780452 -0.11277578 -0.007804636 -0.30892694 -0.016505975
-0.060158256 -0.291235 -0.09478742 -0.22184542 -0.061189134 -0.0898701 -0.12516809 -0.192579
-0.1279106 -0.2677066 -0.21116054 -0.07622365 -0.03826141 -0.03908475 -0.17554428 -0.5168928
0.032099247 0.014800018 -0.095377095 -0.06049297 0.0010180246 -0.06256867 -0.24425212 -0.10990524
-0.061013505 0.04792171 -0.05694133 -0.1278801 -0.045182995 -0.15850641 0.25897455 -0.1417062
-0.26620072 -0.16184759 -0.23854305 0.0828541 -0.07009152 -0.14189374 0.14096573 -0.13604738
-0.087200075 -0.07990922 -0.07887641 -0.04511811 -0.1842133 -0.28023565 -0.11395371 -0.2414426
00000000: b97c 2a3b 7de3 76be ceeb 6abe 82b9 adbd
00000010: 271b 073c 3512 c8bd 4c2a 28be 1ed1 82bd
00000020: 616d a3be 1c5f d1bd a467 1f3e 22c3 103e
00000030: 3f86 f2be 49ce 4fbe af59 12bd 6b02 d9bd
00000040: c1e5 343d 53ce 37be 9142 80bd a50e 1fbe
00000050: 6655 06bd 465c bfbc e54a f5bd fe76 53be
00000060: 31dc 36be 333e 76be a7bb 42be 1428 6fbe
00000070: 63e4 7ebe ee4d dc3c 13a8 9bbe 3d88 babd
00000080: a8fa 4abd 1bc4 66bd 31b7 5bbd 7caa 85bd
00000090: 45a3 d1bb 312a 88be c297 60be 5893 3e3d
000000a0: 56bc 673e 70ba 73be 2448 0fbe 3375 5cbe
000000b0: 7f82 59be 05ab 83bc 6508 67be d3e7 38be
000000c0: 2152 22be 2a2e 39bd eb3f 58be deff c7bd
000000d0: 3ae4 28be 27dd b0bd 962a e4bd f3f6 85be
000000e0: bd55 03bd 4781 81be dd14 4f3d f055 75be
000000f0: 1644 76be cc15 32be 1f0f 70be 11ad 37bc
00000100: 2c0a 38bd b7ba 8c3d 5f67 84be 69df 2d3d
00000110: 6942 35be fdea f5bc e346 0f3d b5a6 44bd
00000120: 3b36 ddbd 55ec 12be 549b 25bd 30df 02be
00000130: fdf6 e6bd 08be ffbb ac2b 9ebe 8a37 87bc
00000140: 8168 76bd c11c 95be e81f c2bd 722b 63be
00000150: 75a1 7abd d10d b8bd 102c 00be 6e33 45be
00000160: fffa 02be d710 89be 783a 58be 251b 9cbd
00000170: ffb7 1cbd 5517 20bd e1c1 33be 1653 04bf
00000180: 807a 033d c67b 723c 1155 c3bd 7ac7 77bd
00000190: 3d6f 853a 0124 80bd 3a1d 7abe 0016 e1bd
000001a0: 4ce9 79bd 8e49 443d 503b 69bd 00f3 02be
000001b0: ce11 39bd 814f 22be 5098 843e 6e1b 11be
000001c0: 764b 88be 60bb 25be a144 74be 69af a93d
000001d0: 258c 8fbd 984c 11be 5259 103e 0150 0bbe
000001e0: f495 b2bd 72a7 a3bd f589 a1bd c4cd 38bd
000001f0: 69a2 3cbe 0c7b 8fbe 9060 e9bd bb3c 77be

4.weight f4 [128, 128]
-0.12260438 0.083074816 -0.053367704 -0.08317505 0.024680866 0.0646694 -0.15217717 -0.19587593
-0.06420089 0.03574297 0.015653033 0.0143653825 0.008502537 0.026308615 0.17952327 0.07498885
-0.08324415 0.09500371 0.04116653 -0.07792891 0.001852789 -0.12107428 -0.033085145 -0.02769612
0.09172674 0.0017156326 -0.055238906 0.0747864 -0.045972742 -0.03835214 -0.10179863 -0.07735277
-0.0780818 0.058296196 0.0053509725 -0.15118295 0.04104373 0.11737774 0.0050907508 -0.115846805
-0.10907434 -0.19171119 -0.047748137 -0.008927971 -0.106788225 0.008387983 -0.15906624 0.0022527839
0.11031772 0.07506334 -0.056975603 -0.1202931 -0.1950293 -0.09676978 0.0863054 0.016175168
-0.059654664 -0.0884596 -0.017787624 0.06415293 0.021971755 -0.15055774 -0.04424236 -0.027235674
0.16253433 -0.013302077 0.028436821 -0.011632919 -0.028342014 -0.12971953 -0.053299736 0.066389784
0.03877463 0.028575383 -0.010891942 -0.045141727 -0.05063907 -0.050817568 0.17748319 -0.06723442
-0.1271831 -0.10160011 0.028063893 0.16489764 0.09403378 -0.14109333 0.05978109 0.040726475
0.07185469 -0.046471104 0.02301553 -0.0094727 0.007231097 0.13914457 -0.026271448 -0.06432869
0.06979453 0.025603399 0.11977471 0.048717428 0.09517702 0.111661136 -0.07362817 0.08965701
-0.027348679 0.07130354 -0.06569446 0.15196776 -0.0070858113 0.06430444 -0.16083157 -0.06772672
-0.19758128 -0.075029016 -0.018805228 0.12889065 -0.067200914 0.007216585 -0.019502563 -0.049805492
-0.044221338 0.06543844 0.01067823 -0.17924377 0.08239881 0.014033684 -0.026246749 -0.08495948
-0.02524369 0.09024401 -0.011001005 0.17231625 0.018466448 -0.18189368 0.0644869 -0.23918837
0.122128665 0.17522171 -0.08830531 0.014811586 0.13599148 0.029205063 -0.2858577 -0.13817304
0.044527344 -0.096184015 0.01519571 -0.079521134 0.054835025 0.06251792 0.0099680945 0.0163504
-0.05321584 0.16142018 -0.03387398 0.0033005716 -0.09541639 0.014490911 0.13458551 -0.14151073
-0.081163205 -0.1669554 -0.24205235 0.11168259 -0.2358507 0.092868134 0.1115614 0.011004432
-0.06640585 -0.072124965 -0.12493047 -0.027536074 -0.09135447 0.116372794 0.11226573 -0.12508002
0.15586819 0.05748658 0.107008204 -0.14598939 -0.013086744 0.23459616 0.04194023 0.02909212
-0.072989956 0.21948622 -0.14546086 2.4480563e-05 -0.20362158 -0.06192054 -0.0027603812 -0.20659672
0.08783115 -0.06417296 0.16966708 -0.11942457 -0.020885613 0.007263886 -0.08215525 -0.16107313
0.020457253 -0.0078556435 0.060449414 0.20459767 0.05946714 0.068862505 -0.01818557 -0.017120497
-0.016095988 0.40894753 -0.0050789467 -0.15933642 0.050775938 0.1382832 -0.013234882 -0.011710347
-0.05731787 0.17274845 -0.06111853 0.18158239 0.03002401 -0.066204235 0.028505867 0.08368595
-0.16928829 -0.08531883 0.12284336 -0.032029063 -0.11386059 -0.0057262145 -0.1600958 -0.042948797
0.042110663 -0.0013582713 -0.28595325 -0.099122114 0.05192093 0.09082428 0.11161859 0.106828794
0.27152547 -0.038008906 -0.08952331 -0.014338574 0.37395772 0.10877171 0.11670018 0.22115482
-0.09303411 -0.0013810819 -0.02941982 -0.11767747 0.24831878 -0.05966764 -0.014781267 0.05719153
00000000: 0118 fbbd 2123 aa3d 1898 5abd ae57 aabd
00000010: 872f ca3c 6471 843d 55d4 1bbe b393 48be
00000020: c27b 83bd 3867 123d ca3a 803c c85c 6b3c
00000030: 3a4e 0b3c 2a85 d73c f3d4 373e c193 993d
00000040: e97b aabd 4e91 c23d 3c9e 283d 3199 9fbd
00000050: 48d9 f23a cbf5 f7bd 4a84 07bd f9e2 e2bc
00000060: 3bdb bb3d 14df e03a 3142 62bd 9d29 993d
00000070: ea4d 3cbd 2217 1dbd cd7b d0bd 216b 9ebd
00000080: 5ae9 9fbd fec7 6e3d 3657 af3b b4cf 1abe
00000090: 781d 283d be63 f03d 50d0 a63b 1741 edbd
000000a0: 5e62 dfbd f04f 44be 8d93 43bd a046 12bc
000000b0: c9b3 dabd c06d 093c 43e2 22be 71a3 133b
000000c0: 42ee e13d cfba 993d 405f 69bd 3b5c f6bd
000000d0: c3b5 47be 3c2f c6bd e3c0 b03d c981 843c
000000e0: 7358 74bd 4f2a b5bd 5ab7 91bc 9d62 833d
000000f0: 1cfe b33c cf2b 1abe 7a37 35bd 591d dfbc
00000100: 666f 263e f4f0 59bc 56f4 e83c 0098 3ebc
00000110: 832d e8bc 32d5 04be d350 5abd 5ef7 873d
00000120: 25d2 1e3d ec16 ea3c 1e74 32bc 88e6 38bd
00000130: ea6a 4fbd 1526 50bd 27be 353e 33b2 89bd
00000140: 493c 02be b813 d0bd 40e6 e53c edda 283e
00000150: c894 c03d c57a 10be 04dd 743d ced0 263d
00000160: 8d28 933d 7c58 3ebd 118b bc3c 6233 1bbc
00000170: d7f2 ec3b ea7b 0e3e 3837 d7bc c3be 83bd
00000180: 6ff0 8e3d 38be d13c 714c f53d ed8b 473d
00000190: 2bec c23d 98ae e43d 5eca 96bd 189e b73d
000001a0: 560a e0bc 9707 923d d18a 86bd 709d 1b3e
000001b0: 1830 e8bb 0cb2 833d 08b1 24be 4eb4 8abd
000001c0: bf52 4abe d0a8 99bd 6c0d 9abc e9fb 033e
000001d0: a2a0 89bd 1a79 ec3b d7c3 9fbc d800 4cbd
000001e0: 6f21 35bd 9704 863d bef3 2e3c ae8b 37be
000001f0: b5c0 a83d 89ed 653c 6c03 d7bc 3cff adbd
00000200: dbcb cebc dad1 b83d 8f3d 34bc ac73 303e
00000210: f346 973c 5642 3abe b511 843d cced 74be
00000220: 981e fa3d 526d 333e 6ad9 b4bd 4bac 723c
00000230: 5a41 0b3e 753f ef3c f15b 92be 3c7d 0dbe
00000240: 4e62 363d 20fc c4bd 6df7 783c fadb a2bd
00000250: b19a 603d 6509 803d 3851 233c 46f1 853c
00000260: daf8 59bd 554b 253e 71bf 0abd 674e 583b
00000270: ab69 c3bd 496b 6d3c c9d0 093e 30e8 10be
00000280: e538 a6bd 5bf6 2abe 92dc 77be d7b9 e43d
00000290: d982 71be a631 be3d 4e7a e43d ef4b 343c
000002a0: caff 87bd 41b6 93bd 8cdb ffbd 5593 e1bc
000002b0: 0d18 bbbd dc54 ee3d 93eb e53d fa14 00be
000002c0: e99b 1f3e 0c77 6b3d 1e27 db3d 3e7e 15be
000002d0: c869 56bc fa39 703e 85c9 2b3d 9952 ee3c
000002e0: c27b 95bd ffc0 603e b1f3 14be 9c5b cd37
000002f0: 2d82 50be 64a0 7dbd 83e7 34bb 178e 53be
00000300: d1e0 b33d 1d6d 83bd 35bd 2d3e de94 f4bd
00000310: 4e18 abbc e405 ee3b 0341 a8bd 5bf0 24be
00000320: f895 a73c f5b4 00bc ce99 773d 0d82 513e
00000330: d193 733d c907 8d3d e8f9 94bc 4940 8cbc
00000340: bcdb 83bc 9261 d13e 4b6d a6bb 1629 23be
00000350: 6efa 4f3d 1c9a 0d3e 1ed7 58bc c1dc 3fbc
00000360: 25c6 6abd f8e4 303e 6c57 7abd bcf0 393e
00000370: eaf4 f53c 1696 87bd 2385 e93c 8a63 ab3d
00000380: e959 2dbe a4bb aebd 4d95 fb3d e830 03bd
00000390: be2f e9bd f8a2 bbbb 27f0 23be 14eb 2fbd
000003a0: 3b7c 2c3d 0608 b2ba 7768 92be 8900 cbbd
000003b0: 0bab 543d 1502 ba3d 4a98 e43d 0ec9 da3d
000003c0: 6305 8b3e 3aaf 1bbd ff57 b7bd 57ec 6abc
000003d0: 6377 bf3e b4c3 de3d 8100 ef3d 6976 623e
000003e0: ab88 bebd 6b05 b5ba d601 f1bc e300 f1bd
000003f0: 4747 7e3e 0e66 74bd 212d 72bc aa41 6a3d

4.bias f4 [128]
0.085365236 -0.13705812 0.07188562 -0.097779654 -0.1944556 -0.055094995 -0.22908305 -0.3205023
-0.14822732 -0.15408212 -0.08885008 0.09301574 -0.14021324 -0.12996534 0.03271969 -0.11182181
-0.07905492 0.009066237 -0.11311717 -0.1878044 -0.11677835 -0.0078084394 -0.04067371 -0.38658166
-0.035927247 -0.10445511 -0.23069294 -0.10077601 0.06350835 -0.11270128 -0.21797217 -0.012898877
0.043489438 -0.1958711 -0.13095617 -0.027934775 -0.059637234 -0.098452866 -0.10092617 -0.2842483
-0.0975495 -0.09842878 -0.24013016 0.040386073 -0.1580236 -0.19492164 -0.15981767 -0.24531972
-0.09146309 -0.10682035 -0.29710996 -0.13696866 0.04529475 -0.1365691 -0.1269681 -0.061389986
-0.06888917 -0.06408724 -0.20965359 -0.22991426 -0.20246793 -0.11987786 -0.09764298 0.02982941
-0.14950974 0.020021155 -0.114184506 -0.016958736 0.117724255 -0.0031264066 -0.12644441 -0.06652265
-0.135191 -0.13374093 -0.05211504 -0.062592745 -0.1452595 -0.18579717 -0.13742797 -0.08970254
0.023865096 -0.04883931 -0.101235375 -0.127548 -0.2561242 -0.40763482 -0.069055244 -0.16238302
-0.12335639 0.01924953 -0.05246926 -0.12998445 -0.02969861 -0.059581306 -0.088018194 -0.07873663
-0.14674357 -0.021910861 -0.03256924 0.022594266 -0.27017498 -0.11497387 -0.12351925 -0.08471008
-0.10660483 -0.049256716 -0.03642666 -0.22086191 -0.15298614 -0.06281054 -0.3132269 -0.2380222
-0.14995418 -0.11702589 -0.26061845 -0.27035698 0.022942383 -0.10533519 -0.14741015 -0.10034864
-0.14008708 -0.18526083 -0.15290566 -0.032226656 -0.27157187 -0.124893546 -0.32237852 -0.10907152
00000000: f8d3 ae3d f758 0cbe c538 933d b340 c8bd
00000010: 5e1f 47be 4aab 61bd bf94 6abe e118 a4be
00000020: e7c8 17be b4c7 1dbe 08f7 b5bd 097f be3d
00000030: 0f94 0fbe a215 05be 1505 063d d502 e5bd
00000040: 8ce7 a1bd 8e8a 143c faa9 e7bd cc4f 40be
00000050: 7d29 efbd f0dd ffbb 7a99 26bd 08ee c5be
00000060: 7328 13bd 90ec d5bd c53a 6cbe a763 cebd
00000070: aa10 823d eecf e6bd 1934 5fbe d055 53bc
00000080: fb21 323d 6f92 48be 6019 06be 78d7 e4bc
00000090: 2c46 74bd a8a1 c9bd 61b2 cebd fe88 91be
000000a0: 08c8 c7bd 0795 c9bd aee4 75be de6b 253d
000000b0: f0d0 21be 8a99 47be 3ea7 23be 1835 7bbe
000000c0: 0051 bbbd a1c4 dabd cc1e 98be 8341 0cbe
000000d0: fd86 393d c5d8 0bbe ed03 02be 1174 7bbd
000000e0: c415 8dbd 2c40 83bd 6eaf 56be a56e 6bbe
000000f0: c153 4fbe 8682 f5bd 0bf9 c7bd cf5c f43c
00000100: 1519 19be 6803 a43c 91d9 e9bd 0ced 8abc
00000110: 6a19 f13d 66e4 4cbb a57a 01be 073d 88bd
00000120: 826f 0abe 62f3 08be 9576 55bd a030 80bd
00000130: e8be 14be 9d41 3ebe ebb9 0cbe f7b5 b7bd
00000140: bc80 c33c ba0b 48bd 7e54 cfbd f19b 02be
00000150: b622 83be 83b5 d0be d66c 8dbd bc47 26be
00000160: 46a2 fcbd 31b1 9d3c 02ea 56bd a51a 05be
00000170: 804a f3bc 870b 74bd e242 b4bd ac40 a1bd
00000180: f243 16be 687e b3bc 5367 05bd 9c17 b93c
00000190: 6054 8abe 6c77 ebbd a9f7 fcbd 7a7c adbd
000001a0: a253 dabd 69c1 49bd 1f34 15bd a029 62be
000001b0: 66a8 1cbe d0a2 80bd 475f a0be 17bc 73be
000001c0: 978d 19be 45ab efbd c86f 85be 3b6c 8abe
000001d0: aaf1 bb3c fab9 d7bd b0f2 16be 9683 cdbd
000001e0: fd72 0fbe 04b5 3dbe 4d93 1cbe 1900 04bd
000001f0: 780b 8bbe 30c8 ffbd cc0e a5be e460 dfbd

6.weight f4 [12, 128]
0.03391744 -0.005808499 0.06545354 0.0116335405 0.035888303 -0.056466486 0.050781585 0.059046086
-0.030110981 0.024266984 0.026862526 -0.00089252705 0.034433328 -0.0054753963 0.032908913 0.061482795
-0.024908593 0.015072636 -0.021327548 0.077047795 0.021204455 -0.00024821723 0.0042307912 0.029217482
0.027440941 -0.019084945 -0.008090405 -0.007896615 -0.032470003 -0.017203193 -0.0288782 -0.07365835
-0.025746226 -0.032218657 -0.021128392 0.037684932 -0.041466434 -0.036115825 -0.014750035 -0.029653698
-0.13836533 -0.027486788 0.01676628 -0.044134922 -0.027164984 0.032370932 -0.060322147 0.0648007
-0.08643391 0.033242866 0.023883551 0.028516179 0.026265403 0.045718964 0.007980673 -0.0025471
0.011191818 0.06507387 -0.0045541488 0.004949304 0.024217261 0.05632638 -0.06553588 -0.014497361
0.0003683563 -0.0062947706 -0.020546168 -0.019063693 -0.058840945 0.041930735 0.07797775 -0.044163916
-0.065377325 0.017317018 -0.00989919 -0.03039151 0.003472594 -0.004004012 0.009043787 0.05232286
-0.0063205943 -0.0038993089 0.022739107 0.010510738 -0.04089146 0.007050913 -0.05312189 -0.023281714
-0.035519008 0.026828405 0.016220137 0.008649604 -0.002808541 -0.042717982 -0.025755677 0.10511135
-0.005053741 -0.06843707 0.021192975 -0.01708222 0.02169314 0.005890355 -0.0075420933 -0.02586442
0.06880816 0.0060404385 -0.037040778 -0.0074703107 -0.025709257 0.050441965 0.034555636 0.058050275
0.06577388 0.038240325 -0.022150362 -0.054465566 -0.038506567 0.017681064 -0.021952556 -0.03458598
-0.056654703 -0.038039062 0.010346659 0.07002536 0.007620307 0.076615185 -0.013739513 0.023155766
0.0003668968 0.027098332 -0.010948357 0.098909914 0.01591658 0.03288426 0.027184155 0.053460754
0.023701135 0.07294925 -0.0007196653 0.02682949 0.029802 0.013895903 0.023776174 0.024309482
0.011496198 0.0033209678 -0.009824319 0.034037326 0.024420666 0.0035415962 -0.01766887 -0.023377864
-0.0051203645 -0.0071329484 -0.03391827 0.01142972 0.020717794 0.030945476 0.049515102 0.035994913
-0.019732025 -0.0028046616 -0.07737763 -0.0007979971 -0.07698878 0.0571403 0.03565965 0.017808482
-0.024381744 0.029982353 0.024734525 0.027101342 -0.01913388 0.048296794 -0.0062979776 0.03662105
-0.035540257 0.0032946893 0.019372502 0.03474135 -0.021743953 -0.011843658 -0.030456368 0.075386904
-0.03195549 -0.011493513 0.024305487 0.07051327 0.017248392 0.016186789 0.0058316854 -0.07270292
-0.006404106 -0.018074589 -0.035894647 0.016181143 0.06431733 0.037900656 0.08422342 -0.009492425
0.01844772 -0.03070381 -0.054531347 0.017213518 -0.008671256 -0.013116764 0.055941105 0.056871425
-0.056910433 -0.07409775 -0.044985455 0.014324835 0.029756978 0.031477984 0.04179433 0.09280589
0.08650432 0.018204456 -0.07859696 -0.005769263 -0.0054604374 0.025395295 -0.0292239 0.038983013
0.03399315 0.03527903 -0.0761026 0.018715082 0.011719261 0.040542908 -0.035744373 -0.0072799674
-0.0059334706 0.059062347 -0.007794896 0.020467719 -0.020136125 -0.025332222 0.07095884 0.04696681
0.0038974062 0.070766315 0.027043018 -0.026402177 0.012999925 0.0576186 0.016029503 -0.034134805
0.05353593 -0.0032992302 0.027739255 -0.038481884 0.023462145 -0.021029435 0.012240172 -0.024562003
00000000: 03ed 0a3d 3955 bebb 810c 863d 9b9a 3e3c
00000010: 9dff 123d 6749 67bd 5a00 503d 4fda 713d
00000020: 4eab f6bc 8ecb c63c cd0e dc3c 7af8 69ba
00000030: f609 0d3d f46a b3bb 7fcb 063d 62d5 7b3d
00000040: 1b0d ccbc 38f3 763c 1cb7 aebc 3ccb 9d3d
00000050: f7b4 ad3c 2723 82b9 73a2 8a3b 8059 ef3c
00000060: d3cb e03c 0858 9cbc 9e8d 04bc ce60 01bc
00000070: 44ff 04bd b6ed 8cbc fa91 ecbc 30da 96bd
00000080: c0e9 d2bc b6f7 03bd 7315 adbc 845b 1a3d
00000090: b5d8 29bd 30ee 13bd 21aa 71bc 50ec f2bc
000000a0: a4af 0dbe f92b e1bc 7059 893c d2c6 34bd
000000b0: 1a89 debc 6297 043d 5b14 77bd 3bb6 843d
000000c0: 4304 b1bd ac29 083d 70a7 c33c c39a e93c
000000d0: 8b2a d73c cf43 3b3d 5ec1 023c 3fed 26bb
000000e0: e35d 373c 7345 853d f83a 95bb c52d a23b
000000f0: 4763 c63c 7eb6 663d ad37 86bd 5786 6dbc
00000100: f21f c139 5d44 cebb 7050 a8bc 762b 9cbc
00000110: 3403 71bd 90bf 2b3d ccb2 9f3d 39e5 34bd
00000120: 8ce4 85bd 6bdc 8d3c 3630 22bc 9ef7 f8bc
00000130: 7694 633b 1634 83bb 642c 143c 7f50 563d
00000140: fd1c cfbb 8c8b 7fbb 5d47 ba3c 3b35 2c3c
00000150: ce7d 27bd 580b e73b 5796 59bd 4bb9 bebc
00000160: 617c 11bd 3ec7 db3c 18e0 843c 12b7 0d3c
00000170: 800f 38bb 0df9 2ebd 92fd d2bc 9f44 d73d
00000180: da99 a5bb bc28 8cbd e49c ad3c 03f0 8bbc
00000190: d0b5 b13c e103 c13b aa23 f7bb 9fe1 d3bc
000001a0: 4beb 8c3d dfee c53b 12b8 17bd 82c9 f4bb
000001b0: 389c d2bc 3c9c 4e3d 368a 0d3d 20c6 6d3d
000001c0: 75b4 863d e3a1 1c3d ad74 b5bc 4917 5fbd
000001d0: 10b9 1dbd e1d7 903c d9d5 b3bc 07aa 0dbd
000001e0: c30e 68bd d9ce 1bbd 0985 293c 7569 8f3d
000001f0: c5b3 f93b 6ce8 9c3d b21b 61bc 29b1 bd3c
00000200: 0e5c c039 52fd dd3c bd60 33bc 4891 ca3d
00000210: 7d63 823c a5b1 063d 4eb1 de3c aaf9 5a3d
00000220: e228 c23c 6b66 953d eca7 3cba 85c9 db3c
00000230: 5323 f43c a4ab 633c 40c6 c23c ae24 c73c
00000240: 8d5a 3c3c 98a4 593b 2ef6 20bc b96a 0b3d
00000250: d90d c83c 201a 683b 4ebe 90bc ef82 bfbc
00000260: bbc8 a7bb 82bb e9bb e2ed 0abd b843 3b3c
00000270: 5db8 a93c 5e81 fd3c 59d0 4a3d 676f 133d
00000280: 0ea5 a1bc 6ace 37bb 2a78 9ebd ae30 51ba
00000290: 4bac 9dbd f20b 6a3d da0f 123d 18e3 913c
000002a0: 39bc c7bc 8d9d f53c 0fa0 ca3c a203 de3c
000002b0: a8be 9cbc dcd2 453d 445f cebb f4ff 153d
000002c0: a992 11bd b7eb 573b 15b3 9e3c f24c 0e3d
000002d0: 6020 b2bc e70b 42bc a27f f9bc 7364 9a3d
000002e0: c3e3 02bd 4a4f 3cbc 4d1c c73c 4369 903d
000002f0: 804c 8d3c 289a 843c b917 bf3b 45e5 94bd
00000300: 89d9 d1bb 2911 94bc 4406 13bd 518e 843c
00000310: ceb8 833d b83d 1b3d 547d ac3d 1e86 1bbc
00000320: ac1f 973c 8e86 fbbc 435c 5fbd 5d03 8d3c
00000330: e211 0ebc b2e7 56bc 8022 653d 03f2 683d
00000340: ea1a 69bd 90c0 97bd ab42 38bd b6b2 6a3c
00000350: e8c4 f33c 0fef 003d 8830 2b3d 0411 be3d
00000360: 2d29 b13d 8321 953c 71f7 a0bd 160c bdbb
00000370: 78ed b2bb cb09 d03c f666 efbc a7ac 1f3d
00000380: 673c 0b3d bf80 103d aedb 9bbd 5f50 993c
00000390: 2502 403c 5210 263d b168 12bd cb8c eebb
000003a0: 8f6d c2bb 5ceb 713d 546c ffbb ebab a73c
000003b0: 84f4 a4bc 8585 cfbc de52 913d 4560 403d
000003c0: a06b 7f3b eeed 903d 5289 dd3c 6149 d8bc
000003d0: a3fd 543c 7b01 6c3d 4e50 833c f0d0 0bbd
000003e0: 7e48 5b3d e637 58bb 6f3d e33c 2e9f 1dbd
000003f0: af33 c03c ec45 acbc 018b 483c 4136 c9bc

6.bias f4 [12]
0.0040507014 -0.085230164 -0.23043461 0.15014857 0.22765853 0.124628626 0.05844299 0.23187578
-0.1009986 -0.05640679 -0.063168705 -0.08743139
00000000: bfbb 843b 278d aebd 0df7 6bbe 8cc0 193e
00000010: 511f 693e 4b3d ff3d eb61 6f3d d870 6d3e
00000020: 5bd8 cebd ce0a 67bd 985e 81bd 3b0f b3bd
