onnx_inference/data/model.onnx (onnx, 166363 bytes, 8 tensors)

0.weight f4 [128, 52]
000000 79 08 30 3e 8c f9 10 3f 57 9d b6 3e f6 57 07 bd
       0.17190732 0.5663078 0.35666916 -0.03304287
000010 6a ea 9e bb 69 8b 74 bb 7d b1 32 be 6b 09 e9 3d
       -0.0048497217 -0.003731454 -0.17450519 0.113787495
000020 61 21 29 3e 18 71 91 3d 95 fe 32 bc a9 7d 1b 3f
       0.1651664 0.07101649 -0.010924955 0.6073862
000030 f2 d8 b8 3d f2 73 df be bb 35 87 be e7 ef 78 be
       0.09025754 -0.43643147 -0.2640818 -0.24310265
000040 0e 1a da be 2e 19 6d 3e 2e 01 07 3e ff 46 a5 bc
       -0.42598003 0.23154137 0.13184044 -0.020175455
000050 1d bb 11 be 34 a3 dd 3e f2 8c 52 be 73 d9 31 3f
       -0.14231534 0.43288577 -0.20561579 0.69472426
000060 fb 7b 4e 3c 4c 59 c8 bd 42 bb 2a 3d e7 14 68 bc
       0.012602801 -0.09782657 0.04168249 -0.01416514
000070 e8 e4 65 3d 61 c7 a8 3c 4f dd 8c bd 10 b3 dd 3c
       0.056126505 0.020602884 -0.06878149 0.027062923
000080 0d 25 ba 3d 5e 37 b5 bd 54 d5 db bd ba 58 c4 3d
       0.09089098 -0.08848451 -0.107340485 0.09587236
000090 fe 17 66 be b6 8a a2 bd b0 a9 80 3d d7 07 0a be
       -0.2247009 -0.07936613 0.06282365 -0.13479553
0000a0 e8 fd 1a be 29 d0 5e 3e 41 aa da 3c d3 ec 83 be
       -0.1513592 0.21759094 0.026692512 -0.2576662
0000b0 26 a8 66 bd 45 78 bb 3e 34 dd 0c 3d 06 6f a7 3d
       -0.056312703 0.36615196 0.034390643 0.08175473
0000c0 d5 57 c2 bc 45 ba f2 bd e1 ac cc 3d 3c 92 da be
       -0.023723522 -0.11851934 0.099939115 -0.42689693
0000d0 1c df 1d 3f be 58 c2 bf da 5a 4e 3e a5 39 86 bb
       0.6166856 -1.5183332 0.20151845 -0.004096227
0000e0 fc d1 eb 39 19 29 2a 3b 7b 7c 05 bd ac a4 06 3d
       0.00044979143 0.0025964438 -0.032589417 0.032871887
0000f0 84 ce ce 3e 05 a9 d0 3e e8 c3 b1 be 9f 6a fa bd
       0.40391934 0.40753952 -0.34719777 -0.122273676
000100 09 d3 70 bd cd de d3 3e 97 95 4c bf b6 52 0a be
       -0.05879501 0.4138092 -0.79915756 -0.13508114
000110 48 31 67 3e 5b 9e 08 3e cf b7 60 bd a9 bf b3 bc
       0.22577393 0.13341658 -0.054862794 -0.021941977
000120 f7 45 86 3e bd 80 fe be cd 27 67 3f 1a 82 20 3e
       0.26225254 -0.49707595 0.90295106 0.1567463
000130 d8 80 85 3d 7f 80 0a bd d9 3b a1 bc cd 81 b0 bd
       0.065187156 -0.03381395 -0.019681858 -0.086185075
000140 50 90 69 bd 07 dd 8b 3c f8 71 b8 3d 87 c2 9a 3c
       -0.057022393 0.017073167 0.09006113 0.018891586
000150 fe 52 9d bb 77 ba ff 3c bb ed 90 3c 68 ea ca 3d
       -0.004801153 0.031216843 0.017691484 0.09907991
000160 e5 e1 2d 3c 02 c3 14 be d5 82 dc bd d4 9c f6 3d
       0.0106129395 -0.14527515 -0.10767142 0.12041631
000170 bf 02 44 be 04 f4 71 3d df bb 4b 3e d2 66 62 3d
       -0.19141673 0.059070602 0.19895886 0.05527384
000180 5a 1e ac 3d a0 1c 66 be 35 ec 6f 3e 2d 8b 32 be
       0.084042266 -0.22471857 0.2342995 -0.17435904
000190 d5 e8 3a be 8b e2 76 3e cf 92 0b bf 0e bc db 3d
       -0.18252881 0.24109857 -0.5452089 0.10729228
0001a0 ca 9e 7c 3e da 2b 29 bf 49 98 57 3e b0 2e 25 bc
       0.24669948 -0.6608254 0.21054186 -0.010081932
0001b0 19 76 25 bc f6 65 8f 3c 54 ab 48 3e 69 80 41 3e
       -0.010098957 0.017504673 0.19596606 0.18896641
0001c0 dd ca 1a 3f 0b 64 d1 bd 63 c8 9e 3d 23 aa 10 3e
       0.60465795 -0.1022416 0.077530645 0.14127402
0001d0 49 a8 02 3f c7 e4 e6 3e 6b 07 8c be fb ae 02 3f
       0.5103803 0.45096418 -0.2734941 0.5104825
0001e0 d3 b3 ab 3e e5 17 f2 3e 44 fc f8 3e 33 21 1c 3e
       0.33535632 0.47283855 0.48629963 0.1524704
0001f0 c5 62 0d 3e e7 ab 3f bd cd 97 f1 be 0a f0 ed 3d
       0.13807209 -0.0467948 -0.47186127 0.116180494
000200 ca e0 85 3d 8e 88 20 3c 2b c3 0c bd 4c 9a ba bc
       0.06537016 0.009798182 -0.034365814 -0.022778653
000210 5f 08 88 3d 23 52 2c 3d 4b b5 4b bd 92 e5 59 3b
       0.06642222 0.04207052 -0.04973344 0.0033248407
000220 d3 40 8e 3c 4d c3 ce 3d 4a ec 98 bc 4e f3 1f bc
       0.017364895 0.100958444 -0.018667359 -0.009762598
000230 42 63 90 3e 13 b0 0e 3e 87 07 2e 3e ed 6e 38 3d
       0.28200728 0.13934354 0.16995059 0.045027662
000240 dd 2f c4 3c eb 6d a1 3c f0 ee a8 3e 8f bf 0f 3e
       0.023948604 0.019705733 0.32994795 0.14037918
000250 79 f4 85 be c6 29 aa 3c 38 0d 3c be 59 1f 8e be
       -0.2616308 0.020771872 -0.18364418 -0.2775829
000260 20 13 bb 3d f0 b5 80 3d 11 c1 47 3e 17 c8 cf 3d
       0.09134507 0.06284702 0.19507243 0.10145586
000270 ff 61 3c 3e 0a cf 6e 3f 0b aa 4a 3c 4a 88 77 bc
       0.18396758 0.93284667 0.012369643 -0.015108177
000280 08 ea 0b bb ed 4a 39 3c 5d 5d 66 be 19 56 32 be
       -0.002134921 0.011309368 -0.22496553 -0.17415656
000290 cd ac 36 3e e3 ff f5 bd e3 4f 2f bf 41 a4 85 3e
       0.17839356 -0.12011697 -0.6848127 0.26101878
0002a0 a3 d6 c0 be 19 7c 8b be 98 1f 35 be fd ea 67 be
       -0.37663755 -0.27243116 -0.17687833 -0.22648235
0002b0 2e 95 03 bf 40 10 b2 3f 31 01 da be fe c9 de 3d
       -0.51399505 1.3911209 -0.42579034 0.10878371
0002c0 98 88 8c be b5 2c fd 3e b2 ac da bd 08 c4 31 3e
       -0.27447963 0.4944817 -0.1067747 0.17359936
0002d0 a6 b4 ea 3c 44 36 77 bd c9 df 13 3c 0b 6d 0e bc
       0.028650593 -0.060354486 0.0090255225 -0.00869299
0002e0 a0 b6 57 3d ad b9 eb bd 1d 73 12 3c 49 7e 79 3c
       0.0526644 -0.11510024 0.008938578 0.015227863
0002f0 aa a9 d5 3d 99 23 ab bd 7a df 81 3c f2 c6 b3 bc
       0.104327515 -0.08356399 0.015853632 -0.02194545
000300 18 ad 77 be 06 d1 31 3d b7 db d7 3d ba 30 a4 be
       -0.24187124 0.04341223 0.10539954 -0.32068425
000310 44 c8 2f 3d 46 58 20 be 79 33 56 3d ee b1 9f 3e
       0.042915598 -0.15658674 0.052295182 0.31190437
000320 3f 77 66 be cb 1c 9b 3d c1 1c 74 bd 04 4a 24 3b
       -0.22506426 0.07573851 -0.059597734 0.002506853
000330 dc b0 d6 3d 48 bc 39 3e 42 ec 8b 3e 31 98 5d be
       0.10482952 0.1813823 0.27328688 -0.21640088
000340 dd 0d 8f 3e 54 23 0d bf c7 de 9f 3c 0a bc 1b 3d
       0.27940264 -0.5513203 0.019515408 0.038021125
000350 9d 11 40 3a e9 74 14 3c e9 fc 35 3d 0b 8a 5a be
       0.00073268433 0.009061077 0.044430647 -0.21341722
000360 83 61 ee bd 28 7b 94 be 2c 9b 19 3e 4c 81 a6 bf
       -0.11639693 -0.2900021 0.150006 -1.3008208
000370 32 d2 93 3c fb a0 92 3e e7 c4 50 bd 46 9b db be
       0.018044565 0.28638443 -0.05096903 -0.42891902
000380 21 01 eb 3e 6a 81 a4 bd bb 1c 0c 3f 06 be c4 be
       0.458993 -0.08032496 0.5473134 -0.38426226
000390 74 dd 94 3e 09 9b 7a 3d 2c 27 a1 3e 59 4e 2d 3e
       0.29075205 0.06118301 0.31475198 0.16924419
0003a0 94 ec a3 3c 21 8c d7 bc ee 04 ce 3c dc 5d 7c bb
       0.02001027 -0.026311936 0.025148835 -0.0038508093
0003b0 82 23 dd 3d 08 07 f0 bc 6d 1d 85 3d 9c e1 ea bc
       0.10797788 -0.029300228 0.06499753 -0.028672032
0003c0 75 d7 10 3d 67 66 ec bc 9e 57 30 3d ca 03 37 bb
       0.035361726 -0.028857423 0.04305231 -0.0027925842
0003d0 14 fa c4 bd 60 a2 7b bd 62 e9 b1 3d d4 27 a4 3c
       -0.09618011 -0.06143415 0.08687092 0.020038523
0003e0 33 fb b9 be ee 64 81 bd ac a0 fc 3d 2d 23 8f 3e
       -0.36324462 -0.06318079 0.12335333 0.27956524
0003f0 ae e2 0f 3e 6c 44 13 3e ea dd e6 3d 88 4f 8b be
       0.14051315 0.1438157 0.112727955 -0.27209115

0.bias f4 [128]
000000 0f 84 59 be 2e 44 1d bd 9f d2 49 be 2c d3 d3 bc
       -0.21241783 -0.0383951 -0.19709252 -0.02585753
000010 07 81 e3 3d 8f 48 e1 bd a6 88 8b 3c 7f c1 dc 3d
       0.111085944 -0.110001676 0.017032932 0.10779094
000020 9f 12 0d be 13 a8 8f bd 25 95 01 be 7e 09 e4 3d
       -0.13776635 -0.070144795 -0.1265455 0.11134623
000030 d4 4e ab bd 0c 2d 87 be 9e f6 bf 3d 8c 62 5f bd
       -0.08364645 -0.26401556 0.0937321 -0.05453734
000040 cf c6 fe bc 76 0b ad bc da 6f 92 3d 3e be 8e 3d
       -0.031100659 -0.021123629 0.0715024 0.069698796
000050 3d cf 95 bd cd 6a 2e be ff 8f 5a be 39 1b ec 3d
       -0.07314918 -0.17032929 -0.21343993 0.1152863
000060 31 b0 90 be 52 8a 10 3e ad 03 fd bd 7f 73 e6 3d
       -0.28259423 0.14115265 -0.12354217 0.11252498
000070 56 cc 2e be 58 43 ec 3c 7e ed d6 bd ae 22 ba bc
       -0.17070135 0.028840706 -0.10494517 -0.022721615
000080 be 65 1a 3e 1b 7e 44 bd 14 74 d0 3c 48 3d 1e be
       0.15077874 -0.047971826 0.025445975 -0.15453064
000090 fe f3 7d bd 1c a9 14 bd b4 6d 2c 3d fb 87 8e 3b
       -0.062000267 -0.036294088 0.04209681 0.004349706
0000a0 4e 4b 3f bd 3e c6 24 3e 06 53 0c 3e f5 ca 67 bd
       -0.046702676 0.16091248 0.13703546 -0.05659004
0000b0 8a 1c f8 bc 62 d9 d7 bd c4 25 a4 ba 47 d1 4a be
       -0.030287046 -0.10539509 -0.0012523462 -0.19806395
0000c0 a1 a2 44 3d 91 be fe 3d 27 1d 2d bc 2c 83 ea 3b
       0.048006658 0.124386914 -0.0105660325 0.00715675
0000d0 4a ec a5 bd e7 a8 d9 3d a6 f4 01 be 88 d2 a2 3d
       -0.08101709 0.10627919 -0.12690982 0.07950312
0000e0 43 cb ca 3d 76 7c 24 be 64 58 9c 3c 46 fa 67 bc
       0.0990205 -0.16063103 0.019085117 -0.014158791
0000f0 4c 3e 8d bd c4 db 20 3d d6 8f 59 be 2a 83 ff 3d
       -0.06896648 0.039272085 -0.21246275 0.124761894
000100 8f 12 cc 3d 1b 31 39 be e1 8f e1 3c 0c 78 b0 bd
       0.09964477 -0.18085138 0.027534427 -0.08616647
000110 76 1b 8c be 4d fe 05 be 70 2b 3d 3d 56 b6 87 bb
       -0.273647 -0.1308529 0.046184003 -0.004141609
000120 53 1b 00 3d 93 e7 20 be 00 8a 43 be 7d 88 15 be
       0.03127606 -0.15713339 -0.19095612 -0.14602847
000130 51 86 64 3d 95 6a ca bc b9 3c 57 bd ca c8 60 3d
       0.055792157 -0.024709025 -0.052548144 0.054878987
000140 5c 75 10 bd db 81 dc bc 05 c3 a6 3d 9b 71 72 bd
       -0.035268173 -0.026917389 0.08142666 -0.059190374
000150 fd 60 62 be ad e1 3e 3d e3 6a 03 3c e8 23 4f bd
       -0.2210731 0.04660194 0.008021089 -0.050571352
000160 af 26 3e be 2b 39 a7 bb 79 f4 46 bd e5 66 bd bd
       -0.18569444 -0.0051032505 -0.04857299 -0.09248141
000170 ae fc 60 3d ca 50 9d bd dd 6c 79 3d 95 51 bd 3d
       0.054928474 -0.07681425 0.060894836 0.09244076
000180 91 7a b3 3d 9a 25 47 bc ef 48 87 bd db 48 72 3c
       0.08763612 -0.012154961 -0.06605708 0.014787878
000190 5d 9d 57 bc be 7e d1 bd 0c 43 99 3c 58 07 3b 3e
       -0.013160077 -0.10229252 0.018708728 0.1826452
0001a0 34 83 62 3e 15 56 3b 3e 86 89 15 be de c3 b7 bc
       0.22120363 0.18294556 -0.14603242 -0.022432264
0001b0 c3 e2 a1 bd e1 6a 7e bb 8f 32 49 3e 93 a2 82 3d
       -0.079045795 -0.003882103 0.19648193 0.06378665
0001c0 f8 cb d8 3c d9 71 cc bd 19 83 cc 3c 3c 54 d2 3d
       0.026464447 -0.09982652 0.024964856 0.10269973
0001d0 19 e4 d7 3c 26 02 2b be 0e 54 66 bc 11 35 9c bd
       0.026353883 -0.16700038 -0.014058126 -0.07627309
0001e0 e8 79 5c 3d e9 0d a4 3d 25 4e 7c be 9a 2a 21 3d
       0.053827196 0.08010466 -0.24639185 0.03934727
0001f0 5e 87 7f 3d b3 dc 38 3e 02 a3 88 bd c2 4e 01 3d
       0.062384956 0.1805294 -0.06671716 0.03156925

2.weight f4 [128, 128]
000000 0d 36 7a 3e fb 3b d0 3c 9a 5b 0e 3e 9b e1 62 3d
       0.24434681 0.025419226 0.1390213 0.055390935
000010 be 56 b5 ba 26 1a cb bd 46 b6 db bd c1 1e fe bc
       -0.0013835055 -0.09917097 -0.10728125 -0.031020524
000020 e1 7f 85 3d 12 6c 28 bd 29 9d 0a 3e 52 db ae 3c
       0.065185316 -0.04111869 0.13536514 0.021344814
000030 97 c1 eb 3c e7 84 ba 3d b1 94 69 be ec 67 7b bd
       0.028778834 0.0910738 -0.22810628 -0.061378404
000040 c1 39 84 3c 2c 32 65 bd 99 79 a3 bd fe 30 b2 bd
       0.01614082 -0.05595605 -0.07982177 -0.08700751
000050 30 e6 87 bd ef 52 de bd 46 03 2e be fa 5d ae 3d
       -0.06635702 -0.10855662 -0.16993436 0.08514018
000060 f4 7e 61 3d 5e 7c c2 3c a4 2a 06 3e 9e ca 4c bd
       0.055052713 0.023740944 0.13102204 -0.04999792
000070 30 71 ce 3c a2 a3 88 bd ef 53 dc 3b 23 3e 9c bc
       0.025200456 -0.066718355 0.006723873 -0.019072598
000080 fc 44 d9 bd 34 2a 86 bd 34 14 ba bc 93 60 d5 3b
       -0.10608861 -0.06551018 -0.022714712 0.0065117567
000090 67 28 ba bd 8a 51 29 bd 74 8f f1 bc 41 d8 1b be
       -0.090897374 -0.041337527 -0.02948735 -0.15219213
0000a0 29 87 1f be 4e 86 cd bd 65 60 aa be 34 4a 80 3b
       -0.15578903 -0.10035382 -0.33276668 0.0039150957
0000b0 3a d8 9e 3c 54 f6 3d be d1 a5 8f 3d 0e 77 a9 3d
       0.019390214 -0.18550998 0.07014049 0.08274661
0000c0 25 be 95 bd 3e 7f 26 3b 4a 7d 4e be a5 e0 85 bd
       -0.07311658 0.0025405432 -0.20164981 -0.06536988
0000d0 b4 7c d0 bd 81 6f 00 be a1 75 ac 3c 4a 40 81 bd
       -0.10180035 -0.12542535 0.021052184 -0.0631109
0000e0 00 d5 81 be 28 85 96 bd 38 ce ca 3d 67 01 26 be
       -0.2535782 -0.07349616 0.09902614 -0.16211472
0000f0 26 29 2f 3d 68 47 03 3d 18 c9 a4 3d 0f 6f 87 3d
       0.04276385 0.03205052 0.08046168 0.066129796
000100 c7 28 3e bb d6 39 b5 bc 89 ee 2f be 50 f0 6e be
       -0.0029016004 -0.022122305 -0.17180838 -0.2333386
000110 1c e6 d9 3d 5b e7 a3 3d b1 e2 ee 3c b4 70 af 3d
       0.10639593 0.08003112 0.02916083 0.08566418
000120 5c b1 09 be 84 cd 93 3d 9f ef cf 3d 28 f4 f1 3d
       -0.13446563 0.07216933 0.10153126 0.11814147
000130 95 6f df 3b cb 20 04 3b cd 56 92 bc 18 b6 94 bd
       0.0068187215 0.0020161148 -0.017863655 -0.07261294
000140 b4 3a a8 3d e5 d1 e4 bd c8 2e 6c bd eb a1 8f bd
       0.08214322 -0.11172847 -0.0576618 -0.07013305
000150 a2 40 3c bd a6 cc 34 3d 86 fd a1 b9 4e 06 4d bd
       -0.045960076 0.04414048 -0.00030897203 -0.05005484
000160 3b c4 12 3b 57 2e 4f bd 73 cc 90 be 20 16 c4 3d
       0.0022394795 -0.050581302 -0.28280982 0.095745325
000170 28 81 7d 3d 76 ca 0d be 25 da 3f 3d 2f da 85 bd
       0.06189075 -0.13846764 0.0468389 -0.06535756
000180 c5 5e 0d bd ae 15 69 bc 28 1e 3c be 7a fb 8d bc
       -0.034514207 -0.01422636 -0.18370879 -0.017331827
000190 a4 2b 49 bd 76 2a a1 ba f1 02 a0 3d 2c f4 40 be
       -0.049113885 -0.001229598 0.07813061 -0.18843144
0001a0 18 3a 09 be 28 1e f8 bd 33 9f c2 3c 51 23 6a 3d
       -0.13401067 -0.12115127 0.023757553 0.057162587
0001b0 06 ff 9a 3d 64 b1 79 bd 28 56 05 be a4 16 77 bc
       0.07568173 -0.06096019 -0.13021147 -0.015081082
0001c0 a8 5a 1c be 32 d2 28 3d 94 d6 33 be 4e 24 62 be
       -0.15268958 0.041216083 -0.17562324 -0.22084162
0001d0 3e 8a fc bd b3 3c 1d 3b 0f da a4 bd 27 13 45 bd
       -0.12331055 0.0023992478 -0.08049404 -0.04811397
0001e0 85 46 85 3d 10 a3 a6 3c f0 cf 27 bd 8d b1 88 3d
       0.06507591 0.020341426 -0.04096979 0.0667449
0001f0 aa 9f 2e 3c 91 3a 8c be ac 38 81 be 5e 97 27 3e
       0.010658184 -0.27388433 -0.2523855 0.16366336
000200 b7 c6 a9 3d e5 54 34 3c a4 6a d7 bd db f8 7f bd
       0.08289855 0.011006569 -0.10518387 -0.062493186
000210 d6 66 fb 3c ce 21 b5 3d 81 4b 0b bd 39 99 12 3e
       0.030688684 0.08844338 -0.034007553 0.14316262
000220 5c 84 5e bd 94 19 e9 3c 9b 77 04 3d 73 ad d0 bd
       -0.054325446 0.02845458 0.032340627 -0.10189333
000230 9a d3 4c be 6f 35 ab 3c 54 38 2b 3c 8d 79 1a 3d
       -0.20002595 0.020899503 0.010450441 0.037713576
000240 1c ca 65 be b4 f9 19 3d 6e 26 b9 3c 68 8c 9d 3c
       -0.2244038 0.03759165 0.022601333 0.01923199
000250 62 20 4d 3d 85 65 6c 3c 57 fb 97 bd 4d c6 a4 bd
       0.05007971 0.014428501 -0.07420986 -0.08045635
000260 44 a2 ce 3d fc 5b 95 bd 7e e7 6f bd 0e 62 0a 3d
       0.100895435 -0.07292935 -0.058570378 0.03378492
000270 15 62 31 bb 2a 93 35 3e 66 c6 67 3c a4 d2 7b be
       -0.0027066518 0.1773192 0.014146423 -0.24592072
000280 d3 f0 e6 3d 89 5a ed 3d 82 9a ae be fc 82 d7 bc
       0.11276402 0.11589534 -0.34102255 -0.026307575
000290 8f 42 38 bc b7 7f 2f bd 1b 8b 62 3d 23 d3 09 3e
       -0.011246338 -0.042846408 0.055308443 0.13459449
0002a0 4b ad 3b bd 48 77 c2 3d 5c 51 d0 3d dd 74 d2 bd
       -0.045819562 0.09495407 0.10171768 -0.10276196
0002b0 dc ab c9 3d 76 a0 25 3c be f8 8e bd 24 42 b4 bd
       0.09847233 0.010109058 -0.069810376 -0.08801678
0002c0 b3 58 21 be d7 e2 7c be af ee 13 3e 64 88 ee bd
       -0.15756492 -0.24695908 0.1444652 -0.11647108
0002d0 56 4c b9 3d 29 0d d4 3d 3a ae 14 bd 1e 7a 82 3e
       0.09047763 0.103540726 -0.036298968 0.25483793
0002e0 35 0c 23 3e 3e 81 42 3e c6 a6 2e 3c ed 37 8f 3d
       0.15922625 0.18994614 0.010659879 0.06993089
0002f0 8c 14 3d 3d 85 7b c8 bd e9 ce 11 3e 5a 36 54 bc
       0.046162173 -0.097891845 0.14239086 -0.012952412
000300 bd 1e 63 bc 99 54 97 bd 7f 1c e7 3b 58 36 83 bc
       -0.013862309 -0.073891826 0.0070529575 -0.016017124
000310 c2 0b 84 3d 37 65 f2 bd ce ea 36 bd bb 18 98 be
       0.06447555 -0.118357114 -0.04465752 -0.29706368
000320 75 4a 91 bd ac 5e 48 bc 7e 56 43 be 53 8d 45 3d
       -0.0709428 -0.012229603 -0.19075963 0.04823048
000330 bd 65 0c bd 37 73 b1 bd 08 85 b4 3a 12 4d e8 bd
       -0.034276713 -0.086645536 0.0013772557 -0.11342825
000340 60 1e 31 bc 02 08 69 bd 40 8d c1 3d 38 3a 1c 3e
       -0.010810465 -0.056892402 0.094507694 0.15256584
000350 03 5f bb bc 61 cf c7 bd c1 c9 f9 3c cf 65 13 be
       -0.022872454 -0.09756351 0.030491712 -0.14394306
000360 e2 69 eb bc be 7b 5c be 07 a0 cf 3d 1d d5 00 be
       -0.028737012 -0.21531579 0.10137945 -0.12581296
000370 db b5 f0 bd 85 5b 72 bd 04 23 83 bd bc 3b 19 3e
       -0.11753436 -0.05916931 -0.06403163 0.14964193
000380 42 59 4a 3d 47 88 9e bc 32 50 c9 bd 57 9c 34 bd
       0.04940153 -0.019352091 -0.09829749 -0.04409441
000390 fc 4c dd bd 28 60 fb 3b 0c 3c 52 be a4 1c 75 bc
       -0.10805699 0.007671375 -0.20530719 -0.014960442
0003a0 c1 e0 0c 3e c9 75 ef 3d 6e 34 f0 bc af 66 87 3c
       0.13757612 0.116923876 -0.029321875 0.016528456
0003b0 b2 10 79 bd de 91 f6 3d 2e 3b 1a be de 37 8c bd
       -0.060806938 0.12039541 -0.15061638 -0.06846593
0003c0 1a 36 62 be 2e 15 52 bc fd ed c6 3d b7 a3 e8 bc
       -0.2209095 -0.012822432 0.097133614 -0.028398378
0003d0 76 5d e6 3c e9 50 30 3e 1e 73 b0 bd f0 cd 3f 3d
       0.028120738 0.17218365 -0.08615707 0.046827257
0003e0 63 96 9e 3d 38 05 80 3e a3 62 25 bd 49 d2 c4 3a
       0.07743528 0.25003982 -0.04037727 0.0015016283
0003f0 2c f9 2b bc 6f 59 15 bd f8 08 04 bd 07 e7 94 3d
       -0.010496419 -0.036462244 -0.032235116 0.072706275

2.bias f4 [128]
000000 81 12 0c be 1a 2b 13 be 7f 4a e1 bd ae 16 23 3e
       -0.13678934 -0.1437191 -0.11000537 0.1592662
000010 b9 d5 8f 3d f9 4c 3c be 11 f2 b0 bd 8b eb 40 3d
       0.07023186 -0.18388738 -0.086399205 0.04709963
000020 89 05 b8 3c 43 92 1e 3d e7 79 be 3c 2c 99 d8 bc
       0.022463577 0.038713705 0.023251487 -0.026440226
000030 33 23 75 bd 91 ef 9c 3d bb c9 61 bd 7a 2d 26 be
       -0.05984802 0.07662881 -0.055124026 -0.16228285
000040 d7 97 29 be 51 d2 c7 bd 53 55 ca bd 0c f9 49 bd
       -0.16561829 -0.097569115 -0.098795556 -0.049309775
000050 f6 5d 82 bd 2f cc 87 bd 94 3f 8b bd fe 97 19 be
       -0.06365578 -0.06630742 -0.06799236 -0.14999387
000060 86 65 67 bd c0 ec 19 bc 81 46 19 be 54 4b 52 bd
       -0.056493305 -0.0093948245 -0.14968301 -0.05134137
000070 61 59 4f 3d 31 0d 65 3d 4c 01 bc bd 86 da 03 bc
       0.050622348 0.055920783 -0.09179935 -0.0080477055
000080 9e 0f 09 bd 8f 47 09 3e 6b 65 2b be 96 0f fc bd
       -0.03346216 0.13406204 -0.16737907 -0.1230766
000090 78 ca ab 3c b6 2a f9 bd e2 10 41 be 8a 24 f3 bd
       0.020970568 -0.121663496 -0.18854097 -0.11872204
0000a0 97 39 92 bd 25 6a 0c bb 69 1c 84 bd 28 54 df bd
       -0.07139891 -0.0021425572 -0.06450731 -0.109047234
0000b0 40 42 c9 bd 87 af 1c bc 54 d7 0b 3d 91 50 d0 bd
       -0.09827089 -0.009563333 0.0341409 -0.10171617
0000c0 41 36 1c be c6 16 dc bd 98 4c bd bd 3c b7 c3 bd
       -0.15255071 -0.10746531 -0.09243125 -0.095564336
0000d0 33 36 df bc 65 f7 56 3c 04 e6 7d bd 41 3c 2c 3d
       -0.027247524 0.013120507 -0.061986938 0.04204965
0000e0 3d c4 8d bd 9e ca 47 3d 3b db 89 3d 9f 7c 0c be
       -0.06922195 0.048777215 0.06731268 -0.13719414
0000f0 ea 73 ef bd 93 c5 f6 bd f7 fc ee bd 47 74 b3 bd
       -0.11692031 -0.12049403 -0.11669343 -0.087624125
000100 c7 f4 24 bd f9 40 bc ba 33 55 ed bd 36 84 75 bd
       -0.0402725 -0.0014362625 -0.11588516 -0.05994054
000110 cc 88 83 bd 7d b0 fd 3c ae 0b 1f 3d eb 61 3a bd
       -0.06422576 0.030967945 0.038829498 -0.045503538
000120 da e6 b2 3c 65 3f 09 3d 99 68 47 bc 8f f7 24 3e
       0.021838594 0.033507723 -0.012170934 0.16110061
000130 0c 90 b0 bd 39 c3 1f be 3c 06 55 bc ba 20 0a be
       -0.08621225 -0.15601815 -0.013001975 -0.13489047
000140 db 95 33 3b 9d 10 e7 bd 28 dc e5 bd 50 7a 1d 3d
       0.0027402553 -0.112824656 -0.11223632 0.038446724
000150 d4 e1 a9 3c b6 32 de bd 2d e0 7d bd 71 3e c7 bc
       0.020737566 -0.10849516 -0.06198137 -0.024321767
000160 85 b2 82 bd f8 73 79 bd 22 80 fb bd f3 51 4c 3d
       -0.06381706 -0.060901612 -0.12280299 0.04988284
000170 b3 9d e8 bd 1b 11 f0 bc ea 7f 1c 3e 9f 91 c5 bd
       -0.11358204 -0.029305032 0.1528317 -0.09646916
000180 ec 10 44 be 33 8e c7 bd 68 4a 51 be 9a ba 9f bd
       -0.1914708 -0.09743919 -0.2043854 -0.07799263
000190 3a a6 fa bd cc 9b e9 bd db 2b dd 3c 36 3f d0 bb
       -0.122387365 -0.11406669 0.026998451 -0.0063551916
0001a0 0c e3 35 be 41 cd d4 bd 0d 41 55 be 79 fa 55 ba
       -0.17762393 -0.103907116 -0.20825596 -0.00081626285
0001b0 78 6f f6 3b ac 00 a1 bd fb 3f 34 be 93 33 23 be
       0.0075206123 -0.07861456 -0.17602532 -0.15937643
0001c0 4a f2 83 bd 09 0a c5 bd d3 eb 81 bd 20 5f b0 bb
       -0.06442697 -0.09621055 -0.06343808 -0.0053824335
0001d0 bf 33 ca be b1 d7 5d 3d 56 6c 2c bc 92 cd 0e be
       -0.39492604 0.054160777 -0.010523876 -0.13945606
0001e0 af 70 50 3d 01 a1 47 be 46 ff 06 be f8 d7 3c be
       0.050888713 -0.19495012 -0.13183317 -0.1844176
0001f0 3f ec d7 bd 1b 2a 02 be 00 26 a6 bd ef 8d e7 3d
       -0.10543107 -0.12711374 -0.08112717 0.113063686

4.weight f4 [128, 128]
000000 ed 10 fd 3d 2f 51 a9 bd f0 0e aa bd cb 7a a7 bd
       0.12356744 -0.08267438 -0.0830363 -0.08177718
000010 c3 5e 21 be 09 87 ec bc ad 8b f9 3a ea 17 56 bd
       -0.15758805 -0.028872984 0.0019038819 -0.0522689
000020 8e cc 40 bd a6 dc fc 3b 80 e7 bb 3c 3a 2e b9 3d
       -0.04707008 0.007716733 0.022937536 0.0904202
000030 bb 9a 8b bd 1d 70 2b 3d ba 1b 79 3d c3 78 61 be
       -0.06816622 0.041854966 0.060817458 -0.22018723
000040 28 3b 03 3d fc 22 98 bd 84 01 ab bd 68 17 5c 3d
       0.032038838 -0.07428548 -0.083498985 0.05373326
000050 5e 89 1a bd 16 75 18 3e 02 15 c3 bd 67 a2 3d 3d
       -0.03772866 0.14888415 -0.09525491 0.046297457
000060 2d f4 28 be 14 92 56 3e f7 8c 06 bd 05 f2 19 be
       -0.16499396 0.20954162 -0.03284928 -0.1503373
000070 0e ea e9 bc db de 13 bd 70 db 75 bc 70 e2 76 bc
       -0.028553989 -0.036101203 -0.015005931 -0.015068635
000080 21 80 81 3d 03 54 16 be dc e4 2d 3d eb 14 90 bd
       0.06323267 -0.14680485 0.042454585 -0.0703524
000090 8b 4e 26 bd 4b 99 dd bc 08 2e 3b bb ce db 29 3e
       -0.04060225 -0.027050635 -0.0028561372 0.16587755
0000a0 19 7d 49 3d 29 37 81 3c 30 d3 52 3c 1a ba 2f 3d
       0.049191568 0.015773373 0.012867734 0.04290209
0000b0 7c 30 58 3e 72 0b 90 bd 1c 70 bb bc 63 af 00 3e
       0.21112245 -0.07033433 -0.022880606 0.12566905
0000c0 55 2c 20 3e 6b 1f 33 3b 76 0c 58 bd 9d d3 8f 3e
       0.15641911 0.002733196 -0.05274626 0.28091136
0000d0 d6 90 cd bb 50 93 bc 3d 59 30 d2 3d 1e 29 c6 bd
       -0.0062733693 0.09207785 0.10263128 -0.09675811
0000e0 a6 13 6a 39 e1 41 a4 3d 81 1b 32 bd f9 18 b5 3d
       0.00022323299 0.08020378 -0.04348326 0.08842654
0000f0 f1 62 e7 3d cd 15 d8 bd cb d7 d3 bd 7c ba a2 bd
       0.112981685 -0.10551033 -0.103438936 -0.07945725
000100 b6 e1 29 3c 94 34 29 be 02 a9 f8 3b 60 c1 d9 bd
       0.010368755 -0.16523963 0.0075885067 -0.106325865
000110 3d 27 10 3c 8e 61 c6 bd 6c af 9a bd ab 9b 72 be
       0.008798418 -0.09686576 -0.0755299 -0.23692195
000120 47 27 1e be 21 6d 5c be bf 4c 5e be cf 79 a7 bd
       -0.1544467 -0.21526004 -0.21708964 -0.0817753
000130 96 10 5f 3d 12 fc 7c 3d 80 ba 10 3e 16 76 15 be
       0.054459177 0.06176383 0.14133644 -0.14595827
000140 9e 28 30 3d f9 33 34 3d f6 82 40 be 89 f8 86 3c
       0.043007486 0.043994877 -0.18799958 0.016475933
000150 d3 57 1f be 64 12 c7 3c 9b 20 c4 bd 20 4a 2c 3e
       -0.15560846 0.024300762 -0.095765315 0.16825151
000160 f2 74 60 be 5f 2d 43 bd 90 de aa 3d 3b 13 ca bd
       -0.21919611 -0.04765069 0.08343232 -0.09866949
000170 7d 98 54 be f2 18 05 bc 96 91 1a bd 4c 90 53 3d
       -0.20761295 -0.008123623 -0.037736498 0.051651284
000180 e6 0f 4c 3c dd 53 31 bd b5 5f 94 bd 43 98 f9 3c
       0.012454962 -0.04329287 -0.07244817 0.030468112
000190 8c 07 d0 bd 49 93 a8 3d 94 17 39 be 23 c0 f3 3c
       -0.101576895 0.082312174 -0.180754 0.029754704
0001a0 f4 68 ad 3d 2d 29 36 3e d4 34 1f be a4 5d 1d bd
       0.08467284 0.17789145 -0.15547496 -0.03841938
0001b0 a5 ec ff bd e5 c2 e1 bd b9 68 28 bd 9f 15 3d 3e
       -0.12496308 -0.11023501 -0.041115496 0.18465279
0001c0 25 d4 11 3c ed 33 be 3d 6d df 18 3e 02 6d d3 3d
       0.008900677 0.09287248 0.1492898 0.10323526
0001d0 5a e7 e2 3d 42 63 f1 3d 89 96 2c 3c 39 d8 14 bd
       0.11079283 0.1178651 0.010533937 -0.03633902
0001e0 f6 ea 2d 3e 4b 4f 09 be 1e 74 a3 bd ee b1 52 bd
       0.16984162 -0.13409154 -0.07981132 -0.05143922
0001f0 02 96 c8 3d e2 5f 05 3e c0 40 57 bd ca 3a 2d 3c
       0.09794237 0.13024858 -0.052551985 0.010573098
000200 81 40 b4 bc c3 b8 5e 3e 07 15 be 3c 91 72 36 bd
       -0.022003414 0.21750169 0.023203386 -0.044542853
000210 23 14 83 bd 31 e0 cd 3d 11 f0 1e 3c e2 a0 9a bd
       -0.06400325 0.10052527 0.009700791 -0.07550217
000220 31 95 2f 3e ab 24 9c bd e9 1d 69 3d b4 16 6d bc
       0.17146756 -0.07624181 0.05691329 -0.014470745
000230 69 87 f0 bd 28 ae 3e bd 77 65 3e be 91 aa 1d bd
       -0.117445774 -0.046552807 -0.18593393 -0.038492743
000240 05 87 ff bc 2c 46 b7 3c 57 05 62 be b5 98 c2 3d
       -0.031192312 0.022372328 -0.2207235 0.09501783
000250 6e a6 da bd 62 1b 62 bc 41 5e 42 bd 46 00 19 3b
       -0.10676275 -0.013800474 -0.04745317 0.002334611
000260 b5 0b f2 3d 7c 70 c2 bc 20 4b 56 bd 25 61 1d be
       0.11818639 -0.023735277 -0.05231774 -0.15369089
000270 3f ad ad 3c 18 e6 1b be ca dd d8 bd ae b8 03 be
       0.021200774 -0.15224493 -0.10589178 -0.12863418
000280 3a f3 30 bc 2f 82 be bc c5 6a ed 3d bc b8 e9 3d
       -0.010800177 -0.023255436 0.1159263 0.114121884
000290 0b 96 d7 bc 0f e0 80 be 9a cf fc bc 4e ae 70 bd
       -0.026316663 -0.25170943 -0.03086071 -0.05875998
0002a0 02 67 ba bc 44 7a a4 bd 6b 4b 13 3c c3 41 d8 bd
       -0.022754196 -0.08031133 0.008990149 -0.10559418
0002b0 8e ce ff 3d 53 bd 9e 3d 9d 3d 78 3d d6 21 17 be
       0.12490569 0.077509545 0.060605634 -0.14759001
0002c0 d3 eb e6 3d d5 24 16 bd 77 ec 0f bd bd ec 5e bd
       0.11275449 -0.03665622 -0.03513762 -0.05442499
0002d0 aa 4b 6e 3d 15 bc 7c 3c a3 6c 1b 3c 78 77 1a 3b
       0.058177628 0.015425702 0.00948635 0.0023569744
0002e0 0c 78 e0 3d 1d 57 51 be e2 c2 32 be 33 9c 60 bd
       0.10960397 -0.20443387 -0.17457154 -0.054836463
0002f0 f1 b8 77 3d 63 b9 97 bc 1c 09 09 be 19 55 16 bd
       0.06047911 -0.018521016 -0.13382381 -0.03670225
000300 b7 c0 ee bd f2 c2 1c bd 58 82 fc bd 09 4d 1d 3e
       -0.11657851 -0.03827185 -0.123295486 0.15361418
000310 c7 24 8b 3d 6c 95 f8 bd 4a 18 48 bd 3a dc cf 3c
       0.06794124 -0.12137875 -0.04885129 0.025373567
000320 46 f0 80 3c a1 26 96 3d a5 02 4b be d6 c5 d7 bd
       0.015739571 0.07331587 -0.19825228 -0.10535781
000330 91 91 8b bd 34 5d 17 be 58 65 8a bd b5 8c 81 3d
       -0.06814874 -0.14781648 -0.06757611 0.06325666
000340 82 70 fe 3d a0 60 76 3d 46 29 4e be 04 d7 a5 3d
       0.12423803 0.060150743 -0.20132932 0.080976516
000350 50 95 ad bc 30 80 28 bd c4 6c e0 3b 38 07 da bc
       -0.021189362 -0.041137874 0.0068489034 -0.02661477
000360 03 07 62 3e 8f 9a 22 be fa b5 cf 3c 77 7e e0 bc
       0.22072987 -0.15879272 0.025355328 -0.027404053
000370 3a f9 fd 3d 1d a4 09 3e 07 af 9c bd 30 95 b3 bd
       0.12401052 0.1344151 -0.07650571 -0.0876869
000380 53 6e f2 bd ec c5 c0 3c 34 b7 0d 3e 52 91 89 3d
       -0.11837449 0.023531877 0.13839418 0.06717171
000390 a5 45 89 bd 10 4f b1 bd e7 cf 3f 3e 3d ae c0 3c
       -0.06702737 -0.08657658 0.18731652 0.023520583
0003a0 cd 8d e2 3b 68 76 5e bd 34 0d 99 bc cb 9b be bb
       0.0069138766 -0.05431214 -0.018683054 -0.005816912
0003b0 4c 8a 08 be 7e 95 00 3c ce a0 18 be de 72 1c 3c
       -0.13334006 0.007848142 -0.14905092 0.009548871
0003c0 17 bb 62 3c bc c6 0e 3d 2e 91 64 bd 02 69 cf 3d
       0.013838551 0.034857497 -0.055802517 0.101274505
0003d0 27 2b 24 3e b8 98 6a 3d 22 a7 06 be 54 18 17 bd
       0.16032086 0.05727455 -0.13149694 -0.036888435
0003e0 eb 80 99 3e 7c 56 4c 3d 60 7f 20 3d ca 1a 5b be
       0.2998117 0.049887165 0.039183974 -0.21396938
0003f0 22 78 49 bc 8d e8 0f 3d 28 94 22 3e 62 1a 47 3d
       -0.012296708 0.035133887 0.1587683 0.048609145

4.bias f4 [128]
000000 7d 9f 06 bc 0a c0 82 be 9c 76 73 bd 1b b7 3b 3d
       -0.008216736 -0.2553714 -0.059439287 0.04582892
000010 44 08 93 bd ca 19 0b be a8 f0 31 bd 93 5c f8 bd
       -0.07179311 -0.13584056 -0.0434424 -0.12127032
000020 04 d6 25 be e6 76 a8 3c 67 26 30 be fc 17 7a bc
       -0.16194922 0.020564508 -0.1720215 -0.015264507
000030 d3 20 5d be f2 3c c9 bd 09 5d 87 3d 3b b3 83 bd
       -0.21594553 -0.098260775 0.06609542 -0.0643067
000040 51 bb b0 3d 33 75 e2 bd f5 6a a3 3d 17 e2 31 be
       0.08629478 -0.1105751 0.07979385 -0.17371403
000050 87 f0 e5 3d 99 b3 2e be ba 3e 27 3d 2d e2 16 be
       0.112275176 -0.17060699 0.040831305 -0.14734717
000060 3a 3e 15 bd 00 01 84 bd 30 c4 ff bd f8 56 cd bd
       -0.036436297 -0.06445503 -0.12488592 -0.100263536
000070 1f 17 e8 bd 9e 95 39 3c 06 26 0a be 8c a9 15 3d
       -0.11332535 0.011327175 -0.13491067 0.036538646
000080 07 be 56 bd 6d 7e 3f be 67 f5 1d be 76 a9 2a be
       -0.052427318 -0.18700571 -0.15425645 -0.16666207
000090 e2 b8 e0 bd fd 9b 24 be 19 e9 3d bc 3b 27 0e bd
       -0.109727636 -0.1607513 -0.011591219 -0.03470538
0000a0 3e 7c c6 3d db 4d f0 3c 42 ac 36 be 2c 21 9f bc
       0.09691666 0.029334 -0.17839149 -0.019424997
0000b0 73 b8 76 bd 45 c1 38 be e5 8a 97 bd a7 2b d8 bd
       -0.0602345 -0.18042476 -0.07399539 -0.10555201
0000c0 11 df 2f be 86 4c 6e be 45 85 d9 bd 26 35 4c bc
       -0.17174937 -0.23271379 -0.10621122 -0.012463843
0000d0 ad 2f 3c 3c c7 57 18 be 90 e0 43 3c ea cd 25 be
       0.011485976 -0.14877234 0.011955395 -0.16191831
0000e0 18 11 94 bd 35 9b ef bd e7 d6 03 3e 92 02 49 be
       -0.07229823 -0.11699525 0.12874947 -0.19629887
0000f0 6e 10 22 bd d1 7d 93 bd 26 05 91 bd 22 58 fc 3c
       -0.03956645 -0.07201732 -0.0708106 0.030803744
000100 c7 65 40 3c 7a 09 49 bd 0e d7 3e be bb bd cf bd
       0.011743016 -0.049081303 -0.18636724 -0.1014361
000110 26 cf 13 be 49 01 45 be 98 69 d3 bc 92 0b 6d 3c
       -0.1443449 -0.19238771 -0.025807187 0.014468091
000120 d6 83 3b bd 2e f1 2f bd 6d 15 6d 3d 90 51 cd 3d
       -0.045780025 -0.042954616 0.05788176 0.100253224
000130 43 c2 09 be 47 cf 2d be 78 26 c4 3c 0c 9b 7f bd
       -0.13453011 -0.16973601 0.023944125 -0.062403724
000140 4b 10 40 be c4 9a 6b bd 83 d6 cd bd f3 b5 1b be
       -0.18756215 -0.057520643 -0.100506805 -0.15206127
000150 8b bc b4 bc 00 4b 92 bd 37 15 58 be 6c e0 cc 3c
       -0.02206256 -0.07143211 -0.21101843 0.025009356
000160 ac 6c f4 3d 67 ff d1 bd 9a 57 79 bd 8d 44 2c be
       0.1193479 -0.10253792 -0.06087456 -0.16823025
000170 6f 6e ed 3d 1b 36 ca bd 7a 90 01 be f7 98 5a bd
       0.11593329 -0.09873601 -0.1265277 -0.053368535
000180 8a 18 b7 bd d6 9a 02 3d 55 28 71 3c fb d5 1a be
       -0.08940227 0.031885944 0.014719089 -0.1512069
000190 90 63 0e bd 35 01 8b bd 06 a4 cc bd 4e e4 1d bd
       -0.03476292 -0.067873396 -0.099922225 -0.038547806
0001a0 04 eb d7 bb 8b 72 31 bd 77 de 3e be b8 f4 a3 bc
       -0.0065892953 -0.043322127 -0.18639551 -0.020014152
0001b0 60 14 e6 3d 26 01 09 be cb 28 08 be d9 45 62 bd
       0.11234355 -0.13379344 -0.13296811 -0.055242393
0001c0 62 94 5a be 47 9c 71 3c 02 33 5f bd b5 cc ce bd
       -0.21345666 0.014746732 -0.054492004 -0.100976385
0001d0 85 1d b0 3c 14 92 9c bd 6a be 1d bc be fe c6 bd
       0.021498451 -0.0764505 -0.009627918 -0.09716557
0001e0 72 d2 49 3d a0 27 0f 3d 3f d2 3e 3b 39 00 80 bd
       0.049272962 0.0349499 0.0029117016 -0.062500425
0001f0 a7 75 0f be f3 3d f0 bd 04 48 35 3d 21 45 db bc
       -0.14009725 -0.11730566 0.044258133 -0.026766362

6.weight f4 [12, 128]
000000 be 83 a6 3d 98 75 6d bd 62 62 be bb 55 69 0c bd
       0.081305966 -0.057973474 -0.005810068 -0.03428014
000010 25 f5 e4 3c fb a1 89 3c c3 85 88 bb ce 83 e6 3c
       0.027948925 0.016800871 -0.0041663363 0.028139021
000020 d6 4a ac bc 34 ef 9b 3c 89 58 fc bb 72 87 06 3d
       -0.021031778 0.01903496 -0.007700984 0.032844014
000030 10 16 91 3d 78 c7 ef 3c 08 51 b4 3d ff b6 33 bb
       0.07084286 0.029269919 0.08804518 -0.0027422307
000040 22 2c 05 3d 38 1c 79 bd 6c 02 13 3c e5 7b aa 3d
       0.03251279 -0.060817927 0.008972745 0.08324412
000050 a2 af 03 bd 4d 3a ff 3a 80 98 2c 3d 84 d6 b1 3c
       -0.03214992 0.0019472331 0.042137623 0.021708734
000060 e1 d6 f1 3c f4 2a 29 3d 1b cc d7 bc c9 da 8c bc
       0.029521408 0.04130073 -0.026342442 -0.017194169
000070 d0 3b 71 bd 6a ed 65 3d 84 33 4b bc 42 aa cb bb
       -0.058894932 0.05613462 -0.012402419 -0.0062153647
000080 2f da 60 3d 48 7c e9 bd 71 78 3d 3d 44 cf e9 bc
       0.054895576 -0.11400658 0.04625744 -0.028541215
000090 a1 27 e3 3c 62 c5 44 3d 44 d4 52 bd 43 06 03 3c
       0.027728857 0.0480398 -0.051471964 0.007997098
0000a0 6a 3c 18 bd c7 33 a6 3d 66 ad 1b 3d 15 0a 53 3d
       -0.03716699 0.081153445 0.038007163 0.051523287
0000b0 00 27 56 bd 09 28 c0 3c f4 97 3c 3d 48 f1 8b 3d
       -0.052283287 0.02345659 0.04604335 0.0683313
0000c0 f9 aa 38 bd 4a 70 02 3d 4d 4c a7 bd fd f3 08 be
       -0.045084927 0.03184537 -0.0816885 -0.13374324
0000d0 83 ab 9f bd 30 b2 d4 bb 4c 3c 11 bd 43 68 01 be
       -0.07796385 -0.006490968 -0.035457894 -0.12637429
0000e0 c7 12 b6 bb fa 8c 3f bc 87 c5 5a bb 79 9e ab bd
       -0.0055564377 -0.011691326 -0.0033381896 -0.08379836
0000f0 5f be 68 bb e9 3c 93 3d d0 26 1a bd e7 40 a3 bd
       -0.003551386 0.07189352 -0.03763467 -0.079713635
000100 f8 57 88 3d bf b6 2e 3d 2a ce d9 3c c2 a8 e0 bc
       0.06657404 0.04265475 0.026587564 -0.02742422
000110 6c 74 ac bd 14 a7 11 bc c0 2e ed bc 85 a1 83 3b
       -0.08420643 -0.008889932 -0.028952956 0.0040170574
000120 17 51 a8 3c ea d7 04 3e 20 76 85 3b f7 a3 17 3d
       0.02054648 0.1297299 0.0040729195 0.037021603
000130 b9 7b b7 3c d8 85 ed bb 4d 22 54 3d 4a 81 15 bc
       0.022397863 -0.0072486214 0.051790524 -0.009125063
000140 41 02 54 bd e9 7f 41 bd 14 26 54 bc c8 a9 d1 3c
       -0.051759962 -0.047241125 -0.012948532 0.025593653
000150 21 da 99 3c 2f 4b 92 bd cc e9 31 bd 71 cc 93 3d
       0.01878077 -0.071432464 -0.043435857 0.072167285
000160 39 e6 1b 3d 35 15 c0 bd 5b 25 67 3d c6 a8 df bb
       0.038061354 -0.09379045 0.05643211 -0.0068255393
000170 15 cd 93 3c c4 95 94 bd 79 67 9d 3c 35 c4 69 3d
       0.018042127 -0.07255128 0.019214379 0.057071883
000180 53 da 70 bd 4f 8a 26 3d 46 6d 96 3d 05 54 01 bd
       -0.05880196 0.040659245 0.07345061 -0.031574268
000190 e6 55 04 bc 1b d7 97 bd 21 fd ea bd 35 f8 75 bc
       -0.00807712 -0.07414075 -0.11474062 -0.01501279
0001a0 af 47 9b 3c db ee a5 3b f1 9a ae 3a 59 0c 4d bd
       0.01895508 0.005063874 0.0013321323 -0.050060604
0001b0 b3 85 6f 3c 68 7a b2 3d a8 02 7e bd 39 5c 1d 3d
       0.014619279 0.087147534 -0.062014252 0.03841803
0001c0 43 63 48 bd 91 14 c9 bd 0b 8f e7 bc 4d f1 de 3a
       -0.04892279 -0.09818376 -0.02826645 0.0017009169
0001d0 ff e5 7a bc 10 dc 3f 3c e9 e4 4b 3d 87 ee 17 3c
       -0.015313624 0.011710182 0.049778853 0.009273178
0001e0 f9 26 05 bd b3 f1 f4 bc 9c d8 6f 3d 0c 08 64 3d
       -0.03250787 -0.029900407 0.058556184 0.055671737
0001f0 b4 aa b5 3d 88 2e 92 bc f6 16 91 bd f2 35 cf 3c
       0.0887045 -0.017844453 -0.070844576 0.025294278
000200 c1 40 24 3d 76 cc eb 3d a7 b4 ff bb 1e 99 e3 3c
       0.040100817 0.11513607 -0.007803518 0.027782973
000210 99 58 ab 3d c9 76 41 3d 45 c9 b4 3c 84 08 4b 3d
       0.08366508 0.047232423 0.022068629 0.049568668
000220 9d 9c 32 bd 4a d4 f6 3c fc f7 96 bd c1 e6 ce 3c
       -0.04360639 0.030130524 -0.07371518 0.025256516
000230 9a 85 88 3c cf b1 98 3c 43 59 5d 3c c6 6a a8 bd
       0.016665269 0.018639473 0.013510051 -0.082234904
000240 93 ba 23 bd 97 89 3e bd 6e df 05 3d 4f e0 a6 3d
       -0.039972853 -0.046517935 0.032683782 0.08148252
000250 35 e0 a4 3b 9f a8 8f bd 01 36 22 bd 06 6b a6 3c
       0.0050316104 -0.07014584 -0.039602283 0.020314705
000260 76 a5 81 bc 1c 25 83 3d 78 7e 66 bc 1e a0 5b 3b
       -0.015825968 0.064035624 -0.014068238 0.0033512185
000270 47 08 17 3d 77 e8 1b 3b 54 66 f9 3d 85 52 6b 3c
       0.03687313 0.0023789683 0.12177721 0.014362936
000280 63 5f 39 bd 3e 11 87 3d 83 03 b7 3c 78 55 b1 3d
       -0.045256983 0.065950856 0.022340542 0.0865888
000290 fb f6 bb bb 04 ec 90 bd 2a c9 89 3a 77 29 3f bd
       -0.0057362295 -0.070762664 0.0010512222 -0.046670403
0002a0 b2 d1 28 bd 80 68 27 3c 8b 71 d9 bc a1 f3 5c 3c
       -0.041215606 0.010217786 -0.0265434 0.01348582
0002b0 6b 29 5e bd 1e 7b ba bd 57 ad 02 bc 35 e4 91 38
       -0.054238718 -0.09105514 -0.007975898 6.956646e-05
0002c0 4e 48 ba bb 40 db 84 bd e8 aa 83 3b af 72 50 3d
       -0.005684889 -0.06487131 0.0040181763 0.05089062
0002d0 d7 00 18 bd f9 bd db bc 43 60 55 3d 8b 09 06 3d
       -0.037110176 -0.026823984 0.052093755 0.032723945
0002e0 9a 78 57 bd 8f 14 c1 3c b0 14 0a 3d f3 fb 43 bc
       -0.05260525 0.023569373 0.033711135 -0.011961925
0002f0 a9 11 e0 3c dd 18 34 bd 71 d2 93 3d 0e 00 16 bd
       0.027352171 -0.043969024 0.07217873 -0.036621146
000300 c5 49 e0 bc 89 28 93 3c bb a4 51 bd 66 d4 4d bc
       -0.027378926 0.017963665 -0.05118249 -0.012562847
000310 c8 e8 17 3d a4 74 05 3e 6a cd b3 3c 50 73 e7 bc
       0.037087232 0.13032776 0.021948535 -0.028253227
000320 92 51 aa bc fb 85 a6 bc f9 21 33 bc 17 fb 48 bd
       -0.020790849 -0.020327559 -0.010933393 -0.049067583
000330 47 69 81 bd 16 9f 47 3d aa ca 1f 3c aa 82 65 bc
       -0.06318908 0.0487357 0.009752909 -0.0140082035
000340 91 17 9b 3d 31 9c 95 bd 45 30 81 bd d5 be ec 3d
       0.07572854 -0.07305182 -0.06308035 0.11559836
000350 68 1d fa 3c 45 df fb bc 1d c1 e9 bc 8e 01 04 3d
       0.0305316 -0.030746112 -0.028534466 0.032228045
000360 69 b7 88 3c a1 6e e0 3c 80 90 41 3d aa 87 fa bc
       0.01668902 0.027396502 0.047256947 -0.030582268
000370 a0 4d f0 3c 34 85 a5 3d f3 5b 31 3d f0 a7 9e bc
       0.02933389 0.08082047 0.04330058 -0.019367188
000380 10 56 b6 3d 20 b1 8e 3d ee 86 ce bc 68 e5 fb 39
       0.08903134 0.06967378 -0.025210824 0.00048045372
000390 a6 e8 26 3c f2 e3 e5 bd c5 c2 34 3d e6 b1 77 3c
       0.010187304 -0.11225118 0.04413106 0.015118098
0003a0 20 9b 8e bc 85 78 63 bd 2f 60 aa 3d 42 20 85 bc
       -0.017407954 -0.05553486 0.08319127 -0.016250733
0003b0 61 95 d1 bc da 55 7b bc 86 ac 4b bd b0 e0 36 bd
       -0.025583925 -0.015340293 -0.049725078 -0.044647872
0003c0 32 1d 59 bd b2 4f a3 3d f6 b4 18 3d de 5f ca 3b
       -0.05300636 0.07974185 0.037281953 0.006175979
0003d0 ff 75 87 3c 83 04 f7 bd 34 f5 4c bd 1e 42 97 bd
       0.016535757 -0.120614074 -0.05003853 -0.07385658
0003e0 a7 98 21 bd 2e 5f b1 bb c3 14 24 3c 15 56 d5 3b
       -0.03945222 -0.0054129576 0.010014716 0.006510506
0003f0 85 b4 74 bd d6 9f c9 bc 3a 60 12 3d dc 1e c5 bc
       -0.05974247 -0.024612349 0.0357363 -0.024062566

6.bias f4 [12]
000000 2d 7a a8 3c 39 23 49 3d 78 df fc 3d 81 56 b8 3d
       0.02056607 0.049105857 0.12347311 0.09000874
000010 86 05 de bd 66 50 c3 bc 73 bb 2a 3d 01 17 1d 3e
       -0.10840897 -0.023842048 0.04168267 0.15340807
000020 3b 61 ba bc e9 e5 91 3c 54 4a ba 3d c4 a7 02 3e
       -0.022751441 0.017809825 0.09096208 0.1275931
