onnx_inference/data/model.onnx (onnx, 192987 bytes, 8 tensors)

0.weight f4 [128, 104]
0	0x3eea148e	0.45718807
1	0xbe8b3532	-0.27189022
2	0x3d5345cf	0.051580247
3	0x3f1dc0ee	0.6162251
4	0xbe70096f	-0.23441099
5	0xbd6e6ae8	-0.058207422
6	0x3ecbecf1	0.3982921
7	0xbe49e76d	-0.19717188
8	0xbe75a1fb	-0.23987572
9	0x3ecf491e	0.4048547
10	0xbe60f787	-0.21969424
11	0xbdcf1772	-0.10111894
12	0x3cc5741b	0.024103215
13	0x3e285a7c	0.16440767
14	0x3e0f3966	0.1398674
15	0xbd83fdd2	-0.06444897
16	0x3ec9803d	0.3935565
17	0xbedb665b	-0.4285153
18	0x3e370138	0.17871559
19	0xbe2e5ef2	-0.17028406
20	0x3f0259db	0.5091836
21	0x3e14d1f8	0.14533222
22	0xbe5dd475	-0.21663077
23	0x3eeb99e0	0.46015835
24	0x3ce27132	0.027641866
25	0xbf1cdcbc	-0.61274314
26	0xbe88b53a	-0.26700765
27	0x3f061c2a	0.52386725
28	0x3ea5f956	0.3241679
29	0x3f17254d	0.5904129
30	0x3e32e6d7	0.17470871
31	0x3eaae7ae	0.33379883
32	0xbe06d3ad	-0.13166685
33	0x3ea74290	0.3266797
34	0xbda1fbf4	-0.07909384
35	0x3d3c1fd1	0.04592878
36	0xbd7f1a7e	-0.062281124
37	0xbf1efac9	-0.6210142
38	0xbe92d97b	-0.2868155
39	0x3f2d0288	0.6758199
40	0x3e7df4f4	0.24800473
41	0x3f3fc297	0.74906296
42	0x3e6fbcb1	0.23411824
43	0x3e981da9	0.2971013
44	0xbd8a1a2a	-0.06743272
45	0x3f0ac74b	0.54210347
46	0x3c571212	0.013126867
47	0x3b8409fe	0.0040295115
48	0x3d5520f1	0.05203337
49	0x3cc23ede	0.023711618
50	0x3a161fbd	0.0005726775
51	0xbc4156a6	-0.011800444
52	0x3d0daa8a	0.034586467
53	0xbd9b6856	-0.0758826
54	0x3ce70f6e	0.0282056
55	0x3d7fa7ef	0.062416013
56	0x3c8e8998	0.017399594
57	0x3c9f0a28	0.019414023
58	0xbbaa80ed	-0.0052033574
59	0xbc51e357	-0.01281055
60	0xbd542fda	-0.051803447
61	0x3c7d2ec6	0.015453046
62	0x3d2abb6a	0.04168264
63	0x3d0953e3	0.033527266
64	0x3d0ecfc1	0.0348661
65	0x3de3b3d5	0.111182846
66	0x3d314d4b	0.043286603
67	0x3afca14e	0.0019274147
68	0xbc00b739	-0.007856184
69	0x3d7434bf	0.059620615
70	0xbce2e717	-0.027698083
71	0x3c8fd6c7	0.017558469
72	0xbe26c454	-0.1628583
73	0xbdc30ddd	-0.095241286
74	0x3dc556de	0.09635709
75	0x3d48f0ed	0.04905789
76	0xbbce55c6	-0.006296846
77	0x3d251198	0.04029998
78	0x3d635172	0.055497594
79	0x3d88bc93	0.06676593
80	0xbd45298e	-0.048135333
81	0x3ce9de63	0.028548425
82	0x3d76a9ec	0.060220644
83	0x3cce89d8	0.025212213
84	0xbda5be1d	-0.08092902
85	0x3dce4a99	0.10072822
86	0xbe38e082	-0.18054393
87	0x3c947e96	0.018126767
88	0xbe5c844e	-0.21534845
89	0x3e44fa41	0.1923609
90	0x3e68e974	0.22745305
91	0x3e5e85d4	0.21730739
92	0xbe0578cf	-0.13034366
93	0x3e61599d	0.22006841
94	0x3cfd5f99	0.030929374
95	0xbcfdfdbb	-0.031004777
96	0x3db04ab3	0.08607998
97	0xbdc2d43f	-0.09513139
98	0xbd52d8e5	-0.051476378
99	0x3d79648c	0.060886905
100	0xb897ebd3	-7.244167e-05
101	0x3b3c901b	0.0028772417
102	0xbcdd1460	-0.026987255
103	0xbd36c5ae	-0.044622116
104	0xbe885cc4	-0.26633275
105	0x3ddd4cbb	0.10805651
106	0x3e578280	0.21045876
107	0xbe112101	-0.14172746
108	0x3e2a7674	0.16646749
109	0x3e078d07	0.13237391
110	0xbd962b07	-0.073324256
111	0xbd1e12a8	-0.03859201
112	0x3e72bf46	0.23705778
113	0xbe3995d4	-0.18123561
114	0x3e5be087	0.21472369
115	0x3ea18cc6	0.31552714
116	0x3d692d8f	0.056928214
117	0xbd031880	-0.032005787
118	0x3bf37c6e	0.0074306047
119	0x3e4a1fec	0.1973874
120	0x3d039f60	0.032134414
121	0x3d9b27a2	0.07575919
122	0x3f153c48	0.58295107
123	0xbf65a807	-0.89709514
124	0xbe10810c	-0.14111727
125	0x3f218612	0.630952
126	0xbf67a45c	-0.9048517
127	0xbcac206e	-0.021011557
128	0x3eb710ac	0.35754907
129	0xbe10790c	-0.14108676
130	0x3e521a11	0.20517756
131	0x3d8067ff	0.06269836
132	0x3e80230f	0.25026748
133	0x3e992a35	0.29915014
134	0x3e0b2ca7	0.13591252
135	0x3f0ac0db	0.54200524
136	0xbb3bd36b	-0.002865995
137	0xbec60606	-0.3867647
138	0xbd6f3985	-0.058404464
139	0xbdc396ba	-0.09550233
140	0x3eb39ffd	0.35083
141	0xbdb7248b	-0.08942517
142	0x3e8ff42c	0.28115976
143	0x3e0b67be	0.13613793
144	0x3eac49b7	0.3364999
145	0x3e5f8780	0.21829033
146	0x3e4bf764	0.19918591
147	0x3edd37f7	0.4320676
148	0xbd8df10e	-0.06930743
149	0xbeeb2bf2	-0.45931965
150	0xbe0f29b6	-0.13980755
151	0xbe3f2464	-0.18666226
152	0x3c3d6860	0.0115605295
153	0x3cce6e97	0.025199218
154	0x3b5b684d	0.0033478916
155	0xbc9e0308	-0.019288555
156	0xbd52179b	-0.051292043
157	0x3d33f499	0.04393444
158	0x3cc24646	0.02371515
159	0xbd85be36	-0.065304205
160	0x3c5251f7	0.012836925
161	0xbb1beda5	-0.002379277
162	0x3d52dbb0	0.05147904
163	0x3ab47286	0.0013767041
164	0xbc205807	-0.009786612
165	0xbcfcd17c	-0.030861609
166	0xbca2cc84	-0.019872911
167	0xbd1d80cb	-0.038452905
168	0xbc3fbf24	-0.011703286
169	0x3cfb367a	0.030665625
170	0xbd4dfac1	-0.050287966
171	0xbd7a2f00	-0.06107998
172	0xbd4f9b87	-0.05068543
173	0x3d461fbc	0.048370108
174	0xbc3bca6d	-0.011461836
175	0xbcb70cc6	-0.022344958
176	0xbcc64c15	-0.0242062
177	0xbceac710	-0.028659374
178	0x3d8f2bb3	0.06990757
179	0x3db4bf40	0.088255405
180	0xbdf0b650	-0.11753523
181	0xbdbe2bbc	-0.092856854
182	0x3d40f407	0.047107723
183	0x3dc9b508	0.09848982
184	0x3cbe6fb1	0.023246618
185	0xbdc38542	-0.09546901
186	0x3db86385	0.09003357
187	0x3ccd990a	0.025097389
188	0x3d5b3fd7	0.05352768
189	0x3e1734ee	0.14766285
190	0x3e4bd630	0.19905925
191	0x3c93621e	0.017991122
192	0xbe4f991d	-0.20273252
193	0xbd06d8f5	-0.03292175
194	0x3dda3457	0.10654514
195	0xbbd592fa	-0.006517765
196	0xbdc8a240	-0.09796572
197	0x3d9e42a4	0.077275544
198	0xbb28fbd0	-0.0025784858
199	0x3e09914d	0.13434334
200	0xbd212d59	-0.039349888
201	0x3cd625f2	0.02614114
202	0xbdbbb6f0	-0.09165752
203	0x3d45e0af	0.048309978
204	0xbd3a68e9	-0.045510206
205	0x3d989119	0.0744955
206	0xbb0b81a4	-0.0021286989
207	0xbd1d3c3a	-0.038387515
208	0xbde86310	-0.1134702
209	0xbddd73ee	-0.108131275
210	0x3e96742a	0.293855
211	0xbe13c62b	-0.14431064
212	0xbe4a95d7	-0.19783722
213	0x3e9f0675	0.31059614
214	0x3e9d4430	0.30716085
215	0x3ec607d0	0.38677835
216	0x3e6c5baf	0.2308185
217	0x3dba3931	0.0909294
218	0x3e75851d	0.2397656
219	0x3ee46c5f	0.4461393
220	0xbd8f7c0c	-0.07006082
221	0x3e04d339	0.129712
222	0x3c1d222e	0.009590669
223	0xbe3a1c4f	-0.18174861
224	0x3f145c66	0.5795349
225	0x3ebc6126	0.36792868
226	0x3e325714	0.1741603
227	0x3d17550a	0.036946334
228	0xbd00d7be	-0.031455748
229	0x3e95e421	0.2927561
230	0x3e599dce	0.21251604
231	0x3e241cd6	0.16026625
232	0x3d9012dc	0.07034847
233	0xbe106ce8	-0.14104044
234	0x3dd7baeb	0.10533699
235	0xbe341d6c	-0.17589349
236	0x3da618c9	0.08110196
237	0x3f03e7fb	0.5152585
238	0x3e099c67	0.13438569
239	0xbd518147	-0.05114868
240	0xbcc226bb	-0.023700109
241	0xbe0fbc98	-0.14036787
242	0x3b7efab4	0.0038906755
243	0x3d55c44c	0.052189156
244	0x3d4fe99a	0.05075989
245	0xbdddcb94	-0.10829845
246	0x3ca54b90	0.020177633
247	0xbe344c5a	-0.17607251
248	0x3cb053ef	0.021524398
249	0x3f108e2a	0.56466925
250	0x3e61cefe	0.22051618
251	0x3dce6ce5	0.10079364
252	0x3c10f3ef	0.008847221
253	0x3cc32293	0.023820197
254	0xbdab8eb7	-0.0837683
255	0xbb806510	-0.0039182976

0.bias f4 [128]
0	0x3d488128	0.048951298
1	0xbe70ece7	-0.23527871
2	0xbebd3cb3	-0.36960372
3	0x3c9bca1a	0.019017268
4	0x3dbb7654	0.09153429
5	0xbdeada70	-0.11467445
6	0xbd264054	-0.04058869
7	0x3db8c851	0.09022582
8	0xbcf93b5b	-0.03042381
9	0x3e4fef7c	0.203062
10	0xbc029fe6	-0.007972693
11	0x3e621761	0.22079231
12	0xbe0e2b5e	-0.13883731
13	0xbbb68e1b	-0.0055711395
14	0xbd35707e	-0.044296734
15	0xbc54c474	-0.012986291
16	0x3e4b3ffb	0.19848625
17	0x3e59d28c	0.21271724
18	0xbddc4365	-0.10755042
19	0x3e563d1f	0.20921753
20	0x3dbb798d	0.09154043
21	0x3d9e5f96	0.07733075
22	0x3dc0aae3	0.09407594
23	0x3de2734f	0.110571496
24	0x3a8fa0be	0.0010957939
25	0xbd9a5e30	-0.07537496
26	0x3d3094d6	0.04311069
27	0x3d9b2e17	0.0757715
28	0xbe14414d	-0.14478035
29	0x3d916564	0.07099417
30	0x3d31352b	0.043263596
31	0xbd46ac0e	-0.048503928
32	0xbe2998fd	-0.16562267
33	0xbe287c48	-0.1645366
34	0x3dcfbb9e	0.10143207
35	0x3d74ed42	0.05979658
36	0xbdd38a71	-0.1032914
37	0x3ca4a8c9	0.020100014
38	0xbe05689e	-0.1302819
39	0xbe3eb06e	-0.1862199
40	0xbeb4c351	-0.35305265
41	0x3db14387	0.08655458
42	0x3d7e51ab	0.062089603
43	0x3cbae590	0.022814542
44	0xbe5bd05d	-0.21466203
45	0x3d017db1	0.03161401
46	0xbcbaea3b	-0.022816768
47	0xbde7c644	-0.11317113
48	0x3e00608d	0.12536831
49	0x3c7d0303	0.015442613
50	0xbd663135	-0.05619927
51	0x3c2aedea	0.0104327
52	0x3e69564d	0.22786827
53	0x3d0f9a3b	0.035059195
54	0xbd588feb	-0.052871626
55	0x3dea67ce	0.114455804
56	0xbd709a66	-0.058740996
57	0xbd49ece0	-0.049298167
58	0xbe094122	-0.13403752
59	0xbd8dd6f0	-0.06925762
60	0xbe47d732	-0.19515684
61	0xbcfcaaca	-0.030843157
62	0x3bd5d5ef	0.006525747
63	0xbd530713	-0.05152042
64	0x3cef4d55	0.02921168
65	0x3d603083	0.054733764
66	0x3d09e98b	0.03366999
67	0xbc5f5dd2	-0.013633208
68	0x3cb9b331	0.022668453
69	0x3de225a4	0.11042336
70	0xbd4ca94b	-0.049966138
71	0xbdd3e18f	-0.10345756
72	0xbd8aa222	-0.06769206
73	0x3e8ffe06	0.28123492
74	0x3c3edb2a	0.0116489325
75	0xbd5f3921	-0.05449784
76	0xbd8c1f41	-0.06841899
77	0xbb8ab810	-0.0042333677
78	0xbd0a6cb2	-0.033795066
79	0xbde19fe4	-0.11016825
80	0xbe03a02e	-0.12854072
81	0xbe520958	-0.20511377
82	0xbe474f98	-0.19463956
83	0xbdd18947	-0.10231262
84	0xbd3aea4e	-0.045633607
85	0xbceb78c0	-0.028744102
86	0x3d1ea75e	0.038733833
87	0xbe4326e4	-0.19057804
88	0xbd8e6e8d	-0.0695468
89	0xbdf7f845	-0.121079005
90	0x3c47ac6f	0.0121871075
91	0x3db5478c	0.08851537
92	0xbdc3adae	-0.09554611
93	0x3d2b8c9b	0.04188214
94	0x3dc9d51b	0.098551
95	0x3d9309c6	0.071795985
96	0xbbb67a42	-0.0055687735
97	0xbe0c4972	-0.13699892
98	0x3e3b8049	0.18310656
99	0x3e0ec3a8	0.13941824
100	0x3d409872	0.047020383
101	0x3d245450	0.04011947
102	0xbd58ddcb	-0.052945893
103	0xbd020a1b	-0.03174792
104	0x3cd9148c	0.026499055
105	0xbda48cb3	-0.08034649
106	0x3e3b82a2	0.18311551
107	0xbd7c772b	-0.061637085
108	0x3de7d2aa	0.11319478
109	0xbde32732	-0.1109146
110	0x3dbfafbb	0.0935969
111	0xbd9f0f0e	-0.07766543
112	0x3d0cfd34	0.03442116
113	0xbc89186a	-0.016735274
114	0xbbed4774	-0.007241184
115	0x3d5e3329	0.05424801
116	0x3c92d245	0.01792253
117	0xbcb7fba1	-0.022458853
118	0x3df1fef5	0.11816207
119	0x3d854d70	0.06508911
120	0x3e027113	0.12738447
121	0xbd04445d	-0.03229176
122	0xbe6e66ac	-0.23281354
123	0xbcc6cb24	-0.024266787
124	0x3df05e06	0.117366835
125	0xba5b7f74	-0.0008373179
126	0xbcc9f40e	-0.024652507
127	0xbd5b0cb4	-0.05347891

2.weight f4 [128, 128]
0	0x3e7342bf	0.2375593
1	0x3d908b71	0.07057846
2	0x3e1fae4f	0.15593837
3	0xbb7a1f92	-0.003816579
4	0x3d38f39d	0.045154203
5	0xbe587c01	-0.21141054
6	0xbcb12383	-0.021623379
7	0xbdbc88f4	-0.09205809
8	0xbe23264a	-0.15932575
9	0xbdbdaa8d	-0.092610456
10	0xbd865be8	-0.065604985
11	0x3ddbc481	0.107308395
12	0x3df3962b	0.11893877
13	0xbc88791b	-0.01665931
14	0xbd5c7fab	-0.05383269
15	0x3cf4b94f	0.029873518
16	0xbd95de22	-0.07317759
17	0x3bbca46a	0.0057569044
18	0xbd247724	-0.040152684
19	0x3d6ee273	0.058321428
20	0xbd74d95a	-0.059777595
21	0xbd4fb047	-0.05070522
22	0xbe2ef9bb	-0.17087452
23	0xbdaaa6d6	-0.08332603
24	0x3d2b5cea	0.041836657
25	0xbdf84a55	-0.12123553
26	0x3d806851	0.06269897
27	0xbe135f20	-0.14391756
28	0xbe08c569	-0.13356556
29	0x3ca2b5ec	0.019862138
30	0xbe6d1ae8	-0.23154795
31	0xbe3cf27f	-0.1845188
32	0xbdaa884b	-0.08326777
33	0xbde4e7fa	-0.111770585
34	0xbe4feeca	-0.20305935
35	0x3cd0a26a	0.02546807
36	0xbde68b32	-0.11257018
37	0xbd12df24	-0.035857335
38	0xbc166553	-0.009179431
39	0xbc25f09b	-0.010128166
40	0x3cdb01f3	0.026734328
41	0xbe3f4578	-0.18678844
42	0xbe4cadb2	-0.19988135
43	0x3dde6e48	0.10860878
44	0x3dab527e	0.083653435
45	0xbd5c823d	-0.053835142
46	0xbe0c9957	-0.1373037
47	0xbc6f3001	-0.014598847
48	0xbd29f9b9	-0.04149792
49	0xbe7412de	-0.23835322
50	0xbd8da1f3	-0.06915655
51	0x3ceec7d5	0.029148022
52	0xbdcca858	-0.099930465
53	0x3e2a7caa	0.16649118
54	0xbd79680c	-0.060890242
55	0x3e330be9	0.17485012
56	0xbdd3db7b	-0.10344597
57	0xbca4ce65	-0.020117948
58	0xbd1c5f9e	-0.038177125
59	0x3d2789a0	0.040902734
60	0xbdcbb6f0	-0.09947002
61	0x3d590b66	0.052989386
62	0x3d5a4eb8	0.05329773
63	0xbe2b188b	-0.16708581
64	0xbc9efdca	-0.019408125
65	0xbc5ff6b4	-0.013669658
66	0xbe502fce	-0.20330736
67	0x3e1a766f	0.15084241
68	0xbcc03200	-0.023461342
69	0xbc00df0c	-0.0078656785
70	0x3d73c117	0.059510317
71	0x3d0cc433	0.034366798
72	0x3d072f94	0.03300436
73	0x3e1a3549	0.15059389
74	0xbd7f745c	-0.06236683
75	0x3cbe2576	0.023211222
76	0xbe97873d	-0.29595366
77	0x3cf87042	0.030326966
78	0xbe472419	-0.19447364
79	0x3b8f0eba	0.004365769
80	0xbd8aa4be	-0.06769703
81	0xbd93a363	-0.07208898
82	0xbcc7b8d2	-0.024380121
83	0xbe241c47	-0.16026412
84	0xbe1ef8f2	-0.15524653
85	0x3dc28fd3	0.095000885
86	0x3cb3d908	0.021954075
87	0x3d32e592	0.043675967
88	0x3db61640	0.088909626
89	0xbe0732bd	-0.13202949
90	0x3cc48e89	0.023993747
91	0xbe7d35d3	-0.24727564
92	0xbc2b65c2	-0.010461273
93	0x3daaf4a5	0.083474435
94	0xbd656153	-0.05600102
95	0xbe2564f2	-0.16151789
96	0x3d994c7c	0.07485291
97	0xbdde3da2	-0.10851599
98	0x3d0f9911	0.035058085
99	0xbdf3b4eb	-0.11899742
100	0x3d6b6ead	0.057478596
101	0xbd5f3d32	-0.05450172
102	0xbccf8db0	-0.025336117
103	0xbd44c7e0	-0.04804218
104	0xbd0b851c	-0.03406249
105	0x3db164ee	0.08661829
106	0xbdb414a3	-0.08792999
107	0x3db1a3a9	0.08673794
108	0xbe17fd59	-0.14842738
109	0x3e05b443	0.13057046
110	0xbe0f3114	-0.13983566
111	0xbe4c70ab	-0.19964854
112	0xbd1c4fbe	-0.038161986
113	0x3d4c6212	0.049898215
114	0xbe4c746b	-0.19966285
115	0xbd9cbfb6	-0.076537535
116	0x3ddd98b4	0.108201414
117	0x3df667ca	0.12031515
118	0xbbb88faa	-0.0056323605
119	0xbc175890	-0.009237424
120	0xbd0cb1c6	-0.034349225
121	0xbcc7f395	-0.024408141
122	0x3dea460c	0.11439142
123	0x3daa57b4	0.08317509
124	0xbd2a5746	-0.041587137
125	0xbda5cf81	-0.08096219
126	0xbd243860	-0.040092826
127	0xbe2d68f8	-0.16934574
128	0x3e2ec9b3	0.1706913
129	0x3c6f3228	0.0145993605
130	0xbcdc5c65	-0.026899526
131	0x3d79df15	0.061003763
132	0x3d0da56a	0.03458158
133	0xbcbfea9e	-0.023427304
134	0xbdcdd89b	-0.1005108
135	0xbdee5a0f	-0.11638271
136	0xbcd5194d	-0.02601304
137	0xbdaf6523	-0.08564212
138	0xbe05393b	-0.13010113
139	0xbd58ed9a	-0.05296097
140	0x3da79a10	0.08183682
141	0x3d142d64	0.0361761
142	0x3beff249	0.007322584
143	0x3da4b8bd	0.080430485
144	0xbc094ca7	-0.008380092
145	0x3d9aa77e	0.07551478
146	0xbdd9454d	-0.10608921
147	0x3e2d2fdf	0.16912793
148	0xbd063f9e	-0.032775514
149	0x3b4253e2	0.0029652049
150	0x3cdf1de3	0.02723593
151	0x3db0ae31	0.086269744
152	0x3d50c83b	0.050972205
153	0x3c85dbc3	0.016340142
154	0xbe6b90ff	-0.2300453
155	0x3da14ac2	0.07875587
156	0x3bf45e93	0.007457563
157	0x3dad00c5	0.084474124
158	0xbaf7b980	-0.0018899888
159	0xbcabf8f6	-0.020992737
160	0xbda4e6a7	-0.08051806
161	0x3ca0cd6d	0.019629205
162	0xbe09e995	-0.1346801
163	0x3e215786	0.15756044
164	0xbd9545d1	-0.07288707
165	0xbee868e1	-0.45392516
166	0xbd9fc7d9	-0.0780179
167	0x3bdc4836	0.0067224754
168	0x3d16d42f	0.036823448
169	0xbd0cce10	-0.034376204
170	0xbdd2de43	-0.10296299
171	0x3c8605a0	0.016360104
172	0x3d7c4dcd	0.061597634
173	0xbd4ff0fd	-0.050766934
174	0x3e12a893	0.14322118
175	0x3d04f4bf	0.03245997
176	0xbde8fa7b	-0.113759
177	0xbc94c25f	-0.01815909
178	0xbd5f5827	-0.054527428
179	0xbdfd7bde	-0.123771414
180	0xbd0ed7ca	-0.03487376
181	0x3cc23bb6	0.023710113
182	0x3d082085	0.033234138
183	0xbe2bf9d6	-0.16794524
184	0xbdd0796d	-0.1017941
185	0x3d29b86e	0.04143565
186	0x3e049463	0.1294723
187	0xbe0a8a36	-0.13529286
188	0xbc2e593c	-0.010641392
189	0x3c1d6023	0.00960544
190	0xbd3ba379	-0.045810197
191	0xbe53cf14	-0.20684463
192	0xbe424f02	-0.18975452
193	0x3d875178	0.06607336
194	0xbe0ddc33	-0.1385353
195	0x3dbeb34f	0.09311544
196	0xbdd91616	-0.10599916
197	0x3a59e7a1	0.00083124085
198	0xbe633dbf	-0.22191523
199	0xbd2f4ebe	-0.042799704
200	0x3e140dfa	0.14458457
201	0xbdde5f69	-0.10858042
202	0xbdadcc2f	-0.084862106
203	0x3d91cbaf	0.07118928
204	0xbe0d5943	-0.13803582
205	0xbe01e524	-0.12685066
206	0x3e2ade52	0.16686371
207	0xbb881f31	-0.004154109
208	0x3dafd0d7	0.08584755
209	0x3d8f11c3	0.0698581
210	0xbd813fe3	-0.063110135
211	0xbb127a08	-0.0022350568
212	0xbdf97bb5	-0.12181798
213	0xbd5e0a66	-0.054209135
214	0xbe1f6452	-0.15565613
215	0x3ead7d82	0.33884817
216	0xbdb3600c	-0.08758554
217	0xbbdaa1b8	-0.0066721104
218	0xbd90fcbb	-0.070794545
219	0xbd6ab6c7	-0.057303216
220	0xbe268e78	-0.16265285
221	0x3e111445	0.14167888
222	0x3d827878	0.06370634
223	0xbdaa5103	-0.08316233
224	0x3d253528	0.040333897
225	0xbdcf5e67	-0.10125428
226	0xbe010710	-0.1260035
227	0xbe01e20d	-0.12683888
228	0xbdab600f	-0.08367931
229	0x3dc85ec7	0.09783702
230	0x3d74d4a9	0.05977312
231	0x3de611db	0.112338744
232	0x3e1ae3f9	0.15126027
233	0x3d77715f	0.060410853
234	0xbd630f0f	-0.055434283
235	0x3e44311c	0.19159359
236	0xbe4e31f8	-0.20136249
237	0x3d5f2a6f	0.054483827
238	0xbd719828	-0.058982998
239	0xbe0ae793	-0.13564901
240	0x3d01dad3	0.031702828
241	0xbdc829e7	-0.09773617
242	0x3caaafbb	0.020835748
243	0x3d882eb4	0.06649533
244	0xbd1c6fd8	-0.0381926
245	0xbe24115f	-0.16022252
246	0x3d3cb9c4	0.046075597
247	0x3ce29380	0.027658224
248	0x3dfee352	0.12445702
249	0x3bb35dac	0.005473813
250	0xbdc81b8e	-0.09770881
251	0xbd2fde91	-0.042936865
252	0xbc831861	-0.016002836
253	0xbcc86d36	-0.024466138
254	0xbdc233a2	-0.094825044
255	0xbe08cd08	-0.13359463

2.bias f4 [128]
0	0x3bc31128	0.005952973
1	0xbe0c6ca9	-0.13713326
2	0xbe7da5ad	-0.24770232
3	0x3ceb90ad	0.02875551
4	0xbc9488aa	-0.018131573
5	0xbd7aef26	-0.061263226
6	0xbe844f40	-0.25841713
7	0x3c98c825	0.018650124
8	0x3cf4610c	0.029831432
9	0xbe7457b2	-0.23861578
10	0x3dd5882b	0.104263626
11	0xbc494002	-0.012283327
12	0x3c77e92b	0.015131275
13	0xbd52d197	-0.05146941
14	0x3dbe06e5	0.09278659
15	0xbd820ee4	-0.063504964
16	0xbe0ef9d8	-0.13962495
17	0xbe51b004	-0.20477301
18	0xbd924c19	-0.07143421
19	0xbe4c9cc0	-0.1998167
20	0xbe49dc60	-0.19712973
21	0xbe49910f	-0.19684242
22	0x3d466a27	0.04844108
23	0xbde1dbfc	-0.11028287
24	0xbe1750fe	-0.1477699
25	0xbe28b41d	-0.16474958
26	0xbc07314a	-0.0082514975
27	0xbba0dc7a	-0.0049090954
28	0xbe09b6e8	-0.1344868
29	0xbdf95ef4	-0.12176314
30	0xbe1b830d	-0.1518671
31	0xbd1699fe	-0.036767952
32	0xbe8baa75	-0.27278486
33	0xbe0189ba	-0.12650195
34	0xbdc9dd63	-0.09856679
35	0xbe8bcde8	-0.27305532
36	0xbe56416c	-0.20923394
37	0xbda3faa4	-0.0800679
38	0xbdde8ba5	-0.10866479
39	0x3aecb29b	0.00180586
40	0x3dd5b832	0.10435523
41	0xbd7ac999	-0.061227415
42	0x3da877ee	0.08226
43	0xbe5b87bc	-0.21438497
44	0xbe429375	-0.19001563
45	0x3e189a90	0.14902711
46	0xbdaca5f1	-0.08430088
47	0xbdda0b84	-0.10646728
48	0xbe12111f	-0.14264344
49	0xbdde6c84	-0.108605415
50	0xbe461833	-0.19345169
51	0xbe856e37	-0.2606065
52	0xbd4b5622	-0.04964269
53	0xbe1db958	-0.15402734
54	0x3cb662aa	0.022263844
55	0xbdbf3745	-0.09336714
56	0xbe718996	-0.23587641
57	0xbdf60214	-0.12012115
58	0xbdc52dd6	-0.09627883
59	0xbe40bd20	-0.18822145
60	0xbe3977ef	-0.18112157
61	0xbd92612b	-0.071474396
62	0xbe0a2820	-0.13491869
63	0xbdeaf2cf	-0.11472093
64	0xbe225b96	-0.1585525
65	0xbc11001d	-0.008850125
66	0xbc740e2f	-0.01489596
67	0xbd5b583d	-0.053550947
68	0xbd71c5a9	-0.059026394
69	0xbe419c30	-0.18907237
70	0xbe3d8f0e	-0.18511602
71	0xbe192ba5	-0.14958055
72	0x3cc9355e	0.02456158
73	0xbdbe8ef4	-0.0930461
74	0x3bfb7c97	0.0076747644
75	0x3d1efff1	0.038818303
76	0xbd81c8f8	-0.0633716
77	0xbcc5aca6	-0.024130177
78	0xbe102b8a	-0.14079109
79	0x3d9ceac3	0.07661965
80	0xbe21346c	-0.15742654
81	0xbb8f6b26	-0.0043767868
82	0xbda06945	-0.078325786
83	0xbdc88db5	-0.097926535
84	0x3c84070d	0.016116643
85	0x3d1fbcb8	0.038998336
86	0xbd837011	-0.06417859
87	0xbdd3c412	-0.10340132
88	0x3cb51474	0.02210448
89	0xbe12ac0b	-0.14323442
90	0xbc9a090c	-0.018803142
91	0xbd753671	-0.059866372
92	0x3d8cc74c	0.0687395
93	0x3bc26a66	0.005933094
94	0xbdc68cde	-0.09694837
95	0xbd2d29cf	-0.0422762
96	0xbd7ed4da	-0.06221471
97	0x3d8c2b25	0.06844167
98	0xbdd664ce	-0.10468446
99	0x3ddf5256	0.10904376
100	0xbe475f67	-0.19469987
101	0xbdf305e2	-0.118663564
102	0xbe435703	-0.19076161
103	0xbd31455f	-0.043279048
104	0xbdf97eea	-0.1218241
105	0x3cb4a160	0.022049606
106	0xbaf422f9	-0.0018626145
107	0x3d1ea2e5	0.038729567
108	0x3d3771f2	0.0447864
109	0xbd60a449	-0.054844175
110	0xbdd1abcc	-0.10237846
111	0xbe4476f0	-0.19185996
112	0xbd4039bf	-0.04693007
113	0xbe1de4dc	-0.15419334
114	0x3d5fd320	0.054644704
115	0xbdad5290	-0.08463013
116	0xbd7f2858	-0.062294334
117	0xbe036594	-0.12831718
118	0xbe45de2d	-0.19323035
119	0xbdf73c40	-0.12072039
120	0x3d90bc41	0.070671566
121	0x3abf50d5	0.0014596233
122	0x3db4b460	0.08823466
123	0xbe1e1de0	-0.15441084
124	0xbdeaaa35	-0.11458246
125	0xbdf43351	-0.1192385
126	0xbcbc7efe	-0.023009773
127	0x3d234d83	0.039868843

4.weight f4 [128, 128]
0	0x3a772fe1	0.0009429437
1	0x3e0d5295	0.13801034
2	0x3d47a6c6	0.048743032
3	0xbc3910a9	-0.011295476
4	0x3e024750	0.12722516
5	0x3c667d8c	0.014068019
6	0x3dd2e75f	0.10298037
7	0xbd4b8b52	-0.049693413
8	0x3d121890	0.035667956
9	0xbd3bde51	-0.045866314
10	0x3d04a46c	0.032383367
11	0xbd089156	-0.03334173
12	0x3db28f30	0.08718717
13	0xbd67f7ec	-0.05663292
14	0x3d4548fc	0.048165306
15	0xbd60822d	-0.054811645
16	0x3c4064b0	0.011742756
17	0x3e268403	0.16261296
18	0x3c566a0d	0.013086808
19	0x3c9d872a	0.01922949
20	0x3cd2d26b	0.0257351
21	0xbd5baac8	-0.053629667
22	0x3d094092	0.033508845
23	0x3d85f465	0.06540755
24	0x3d0ef2b9	0.034899447
25	0xbe3474f8	-0.17622745
26	0xbcda12df	-0.026620327
27	0xbe5a622c	-0.21326512
28	0xbd15e2da	-0.036593296
29	0xbc9bbc66	-0.019010734
30	0xbccf53b6	-0.025308471
31	0xbdfb6b1c	-0.12276289
32	0x3d0279f6	0.031854592
33	0xbd4b7283	-0.049669754
34	0xbd8392bf	-0.06424474
35	0x3d99d47e	0.07511233
36	0xbd72ad4d	-0.059247304
37	0xbdf0b6e6	-0.11753635
38	0x3de0f654	0.10984483
39	0xbe06c799	-0.13162078
40	0xbdcc5e63	-0.0997894
41	0x3d66ae04	0.056318298
42	0xbd926d0c	-0.07149705
43	0x3e2f9b75	0.17149146
44	0x3de72be0	0.11287665
45	0x3d492c88	0.049114734
46	0xbd2c902e	-0.042129688
47	0xbdf7eaba	-0.121053174
48	0xbd6aaa6b	-0.05729143
49	0xbd80f21c	-0.06296179
50	0x3c400192	0.011719124
51	0x3deef748	0.11668259
52	0xbde43b72	-0.11144151
53	0xbd160cca	-0.03663329
54	0x3c95b5df	0.0182752
55	0x3e609728	0.21932662
56	0x3d17565a	0.036947586
57	0xbd9152a2	-0.07095839
58	0xbcb33f49	-0.021880763
59	0x3c86415b	0.016388586
60	0xbe2009f4	-0.15628797
61	0x3d60b0b0	0.054856002
62	0xbd546fcc	-0.05186443
63	0x3e25d5c4	0.16194826
64	0xbc41da64	-0.011831854
65	0x3d5e709f	0.054306623
66	0xbb8a18df	-0.0042143906
67	0x3dc4eed9	0.09615869
68	0xbd90a220	-0.07062173
69	0xbc28d32d	-0.0103042545
70	0x3d5cc88c	0.053902194
71	0x3dee7c80	0.1164484
72	0x3d6b4e93	0.05744798
73	0xbdb82bd9	-0.08992738
74	0xbd9fd85b	-0.078049384
75	0xbcea963b	-0.028636089
76	0xba3db084	-0.0007236081
77	0x3db4f195	0.088351406
78	0x3e0305ae	0.12795135
79	0xbdd7ad9f	-0.105311625
80	0xbd5b01b5	-0.053468425
81	0x3d6ad2db	0.057329994
82	0x3d3f9a5a	0.04677806
83	0xbd3a7fd0	-0.045532048
84	0xbb9e1ed4	-0.0048254523
85	0xbd8f9905	-0.07011608
86	0x3cf1dcca	0.029524226
87	0xbd96645a	-0.07343359
88	0xbdd92d17	-0.10604303
89	0x3de14841	0.110001095
90	0x3d321c44	0.043483987
91	0xbd0eab4e	-0.034831338
92	0xbc345e0f	-0.011008753
93	0xbd38a3f4	-0.045078233
94	0x3da7a2b3	0.08185329
95	0xbd5e7947	-0.054314878
96	0x3cfab000	0.030601501
97	0x3c5203c9	0.012818285
98	0x3c8c6aff	0.017140863
99	0x3e07a7a1	0.13247539
100	0x3de4553a	0.11149068
101	0xbe043f93	-0.12914877
102	0x3d7c76fd	0.061636914
103	0x3d2948a5	0.041329045
104	0x3ca2678f	0.019824771
105	0x3bd1257a	0.0063826414
106	0x3d2bd9e2	0.041955836
107	0xbe668d92	-0.22514942
108	0xbe1fe3c8	-0.15614235
109	0xbcef3a93	-0.029202735
110	0x3d34223f	0.043977972
111	0xbd3980dc	-0.045288906
112	0x3c4f87d5	0.012666662
113	0x3e18bdf4	0.14916211
114	0xbd743aed	-0.05962651
115	0x3e055cfb	0.1302375
116	0x3c9486d3	0.018130695
117	0x3deccbbd	0.115622975
118	0x3b83b9f4	0.00401997
119	0xbda44b99	-0.080222316
120	0x3dca7611	0.09885801
121	0xbe665e59	-0.22496928
122	0xbe014c43	-0.12626748
123	0x3d3d7002	0.046249397
124	0x3caec524	0.021334238
125	0x3d07b1a7	0.033128407
126	0xbe46762e	-0.1938102
127	0xbcf8c75d	-0.030368501
128	0x3ded224d	0.11578808
129	0x3d5bab0a	0.053629912
130	0x3e60e611	0.21962763
131	0x3a4c1e0b	0.0007786459
132	0xbe360d29	-0.17778458
133	0x3d491854	0.049095467
134	0x3d81d758	0.06339902
135	0xbcf1a251	-0.029496344
136	0xbdbf6092	-0.09344591
137	0x3d4f804d	0.050659467
138	0x3a2698c2	0.000635516
139	0xbc9d5469	-0.019205289
140	0xbdef2af9	-0.11678118
141	0x3d2ff6ba	0.042959906
142	0xbd672d84	-0.05643989
143	0x3e18a6d5	0.14907391
144	0x3e0c16c5	0.13680561
145	0xbd46cd74	-0.04853578
146	0xbde89eec	-0.11358437
147	0x3db83542	0.08994533
148	0xbdbe8c8e	-0.093041524
149	0x3dbb1c72	0.09136285
150	0xbd4bff8a	-0.049804248
151	0x3e46495a	0.19363919
152	0xbe0fe959	-0.14053859
153	0x3d26c509	0.04071525
154	0xbd5907ca	-0.052985944
155	0x3d725e6b	0.059172075
156	0xbdcea3bf	-0.10089826
157	0x3dc23908	0.09483534
158	0x3e4261c9	0.18982615
159	0xbcc59fa5	-0.024123976
160	0x3b301250	0.0026866384
161	0xbcc08e11	-0.023505243
162	0x3d86b377	0.06577199
163	0x3dddeb4a	0.108358935
164	0x3d77c52c	0.060490772
165	0x3cf06295	0.029343883
166	0xbd293be5	-0.041316886
167	0xbe082c54	-0.1329816
168	0x3c24356c	0.010022502
169	0xbd896f4a	-0.0671068
170	0x3d69cafc	0.057078347
171	0x3d204997	0.03913268
172	0x3e29d964	0.16586834
173	0xbdf83a9e	-0.12120555
174	0xbd3b1938	-0.045678347
175	0x3c44f2f2	0.012020813
176	0xbd4267c2	-0.047462232
177	0x3d215906	0.03939154
178	0xbe3ae868	-0.18252718
179	0x3d8bdc6f	0.06829154
180	0xbd03db72	-0.0321917
181	0xbaa44f72	-0.0012535884
182	0xbe108529	-0.14113297
183	0xbe15f37f	-0.14643668
184	0x3e50e5b4	0.20400125
185	0xbdabe5ed	-0.08393464
186	0xbcfc4aa5	-0.030797312
187	0xbdd65f34	-0.10467377
188	0x3e0a0422	0.13478139
189	0x3df61f48	0.12017685
190	0x3e40985d	0.18808122
191	0xbdc21931	-0.09477461
192	0x3e34aead	0.17644759
193	0x3e126e64	0.14299923
194	0x3dc9af32	0.09847869
195	0x3dc5be60	0.09655452
196	0x3d05466f	0.032537874
197	0x3d2b11fe	0.041765206
198	0x3d3f9d9b	0.046781164
199	0xbe49d26a	-0.19709173
200	0xbd672c45	-0.056438703
201	0x3e06af14	0.13152725
202	0x3d61ff14	0.055174902
203	0xbc8bfd76	-0.017088633
204	0x3da92520	0.08259034
205	0x3cd0a33b	0.02546846
206	0x3d0e49f1	0.034738485
207	0x3d89b97d	0.06724832
208	0xbda7a58a	-0.08185871
209	0x3d8a5e91	0.06756318
210	0x3dc25710	0.09489262
211	0xbde5e7ee	-0.11225878
212	0x3d67d7ca	0.056602277
213	0xbdb5db69	-0.0887974
214	0x3db7b066	0.08969192
215	0xbdf94cfe	-0.12172888
216	0xbd83781b	-0.06419393
217	0x3e7cfa6f	0.24704908
218	0xbdc9feb9	-0.098630376
219	0x3dbde4e2	0.092721716
220	0xbdd1ac66	-0.102379605
221	0xbce4d24a	-0.027932305
222	0xbdbe40bb	-0.0928969
223	0x3dbbce32	0.09170188
224	0xbe3c4c2c	-0.18388432
225	0xbe88bc7c	-0.26706302
226	0xbd62cf60	-0.05537355
227	0xbdc356a8	-0.09538013
228	0x3e04e4d2	0.12977913
229	0xbdd79cd1	-0.10527957
230	0x3de80c80	0.11330509
231	0xbcf3b427	-0.02974899
232	0x3d34ecd0	0.044171154
233	0xbe04f86c	-0.1298539
234	0xbe21e6dd	-0.15810724
235	0x3da0b23e	0.07846497
236	0x3d2d81d8	0.042360157
237	0x3d671f01	0.056426052
238	0xbd830efb	-0.06399342
239	0xbd0ce0fd	-0.034394253
240	0x3b301611	0.0026868621
241	0x3c6ceaed	0.014460308
242	0xbdea574b	-0.11442431
243	0xbe3ae35a	-0.1825079
244	0xbd4bcfd7	-0.04975876
245	0xbd88fc0f	-0.06688701
246	0x3d8b2307	0.0679379
247	0xbda3f9ec	-0.08006653
248	0x3e09e8c7	0.13467704
249	0x3e3108c4	0.172885
250	0xbce865a6	-0.028368782
251	0x3da22e7b	0.07919022
252	0x3d5cd6d4	0.053915814
253	0xbdc0e612	-0.094188824
254	0xbd310de0	-0.043226123
255	0x3d5257b6	0.05135318

4.bias f4 [128]
0	0xbe140145	-0.1445361
1	0xbe099de3	-0.13439135
2	0x3d92086f	0.07130515
3	0xbe181f3b	-0.14855663
4	0xbcf8c456	-0.030367058
5	0xbe4eeb13	-0.20206861
6	0xbd402fa6	-0.04692044
7	0xbc270d99	-0.010196113
8	0xbb949787	-0.004534665
9	0xbd5006bc	-0.050787672
10	0xbe42201e	-0.18957564
11	0xbe1517ec	-0.14559907
12	0xbc546d62	-0.012965532
13	0xbd9ee956	-0.07759349
14	0xbdb66949	-0.089068
15	0xbe2bb39c	-0.16767734
16	0xbe027b55	-0.1274236
17	0xbe8c348a	-0.27383834
18	0x3dc36ecc	0.09542617
19	0xbd50ad80	-0.050946712
20	0xbdccbc3b	-0.099968396
21	0xbe222663	-0.15834956
22	0xbdcb0ca3	-0.0991452
23	0x3adf1a12	0.0017021319
24	0x3d3c19ae	0.045922928
25	0xbe01bd8c	-0.12669963
26	0xbd1af65d	-0.037832607
27	0xbcf32742	-0.029681806
28	0x3be90bb1	0.0071119894
29	0x3cffdd52	0.031233463
30	0xbe63985f	-0.22226094
31	0xbe6f60cc	-0.23376769
32	0x3c8647b4	0.016391613
33	0xbe1946b0	-0.14968371
34	0xbe0493a4	-0.12946945
35	0xbe048ea9	-0.12945046
36	0xbd77a1c0	-0.06045699
37	0xbe3e350d	-0.18574925
38	0xbd090b17	-0.03345784
39	0x3c9cd897	0.019146247
40	0xbe0544d6	-0.1301454
41	0x3de84254	0.11340776
42	0xbda4a115	-0.080385365
43	0xbc40b54f	-0.011761977
44	0xbe86dedf	-0.26341912
45	0xbe611874	-0.21981984
46	0xbd32e2f0	-0.043673456
47	0xbdfb6425	-0.122749604
48	0xbce10952	-0.027470265
49	0xbdea04ae	-0.11426674
50	0xbe6bf4d7	-0.23042618
51	0xbe3bbe22	-0.18334249
52	0xbd8d768d	-0.069073774
53	0xbd08d25c	-0.03340374
54	0xbe461228	-0.19342864
55	0xbcef84bb	-0.029238096
56	0xbdc50d05	-0.09621624
57	0xbdde7d1c	-0.108637065
58	0x3d23d6ab	0.039999645
59	0x3b93c1e5	0.004509198
60	0xbe0ab1bf	-0.13544367
61	0xbddbcfc1	-0.10732985
62	0xbdd8155a	-0.105509475
63	0xbd9f35a6	-0.077739045
64	0x3d0d4c05	0.034496326
65	0xbe67b7c6	-0.22628698
66	0xbdf45d90	-0.11931908
67	0xbe1816a7	-0.14852391
68	0x3c35a2cd	0.011086178
69	0xbe5f6c0e	-0.21818563
70	0x3cb4d1b1	0.022072645
71	0xbd222d7c	-0.03959416
72	0xbda50aa9	-0.08058674
73	0xbe8617bd	-0.26189986
74	0xbdf52338	-0.11969608
75	0xbe20ee8c	-0.15715998
76	0x3c6ea04d	0.014564586
77	0xbdba762e	-0.09104572
78	0xbe854b6c	-0.26034105
79	0xbdaf322f	-0.08554494
80	0xbe0af638	-0.13570487
81	0xbe1922b2	-0.14954641
82	0xbe05a070	-0.13049483
83	0xbe262c5f	-0.16227864
84	0xbe40d7d1	-0.18832327
85	0x3d0e0913	0.034676623
86	0xbccde9c4	-0.025135882
87	0xbe077b89	-0.13230719
88	0xbe43c034	-0.19116288
89	0xbd878ece	-0.06619035
90	0xbd25c181	-0.040467743
91	0xbde0eb23	-0.10982349
92	0xbe295bac	-0.16538876
93	0xbd61fbde	-0.05517184
94	0xbde80e11	-0.11330808
95	0xbd21bc72	-0.039486356
96	0xbd4cb4a0	-0.049976945
97	0xbb768305	-0.0037614715
98	0xbdfc863b	-0.1233029
99	0xbd92d9b1	-0.071704276
100	0xbddb68a6	-0.107133195
101	0xbdaefdab	-0.08544477
102	0xbe4239e9	-0.18967403
103	0xbdce14bc	-0.100625485
104	0xbe26ec1f	-0.1630101
105	0xbc84d3ef	-0.016214339
106	0xbd9216b5	-0.07133237
107	0xbe186193	-0.14880972
108	0xbe5a30c8	-0.21307671
109	0x3d37f64d	0.044912625
110	0xbe0ef968	-0.13962328
111	0xbdb727cf	-0.0894314
112	0xbe3653b6	-0.1780537
113	0xbdc1e34b	-0.09467181
114	0xbc5a5303	-0.013325456
115	0x3b3e9812	0.002908234
116	0xbdb1472d	-0.08656154
117	0x3dbc8387	0.09204774
118	0x3d2e3fb1	0.04254121
119	0xbcad7621	-0.021174492
120	0xbde110f6	-0.10989563
121	0xbe1ef407	-0.15522777
122	0x3d90a050	0.07061827
123	0xbe175ed2	-0.14782265
124	0xbe27f290	-0.16401124
125	0xbe150865	-0.14553984
126	0xbd6d53d4	-0.057941273
127	0x3d175073	0.036941957

6.weight f4 [12, 128]
0	0xbb064fc7	-0.0020494328
1	0x3d70c5b3	0.05878229
2	0x3d90c71c	0.07069227
3	0xbbab589a	-0.005229068
4	0xbd93f2ca	-0.07224043
5	0x3d1a78ba	0.03771279
6	0xbcb5557c	-0.022135489
7	0xbd1d2216	-0.038362585
8	0x3d3de9f4	0.046365693
9	0xbcab78cc	-0.020931624
10	0xbc0c6966	-0.008570051
11	0xbdd9fb0c	-0.106435865
12	0xbd08d27c	-0.03340386
13	0xba2f68c7	-0.0006691333
14	0xbdacc1be	-0.08435391
15	0xbd17e446	-0.037082933
16	0x3d07c554	0.03314717
17	0x3c34a009	0.0110244835
18	0xbd4cbf5a	-0.049987175
19	0x3bdb0e98	0.0066850893
20	0x3c7e788c	0.01553167
21	0xbcc11d45	-0.023573527
22	0xbc440f86	-0.011966592
23	0x3dac6774	0.084181696
24	0x3c267900	0.010160685
25	0x3c58a174	0.013222087
26	0xbd97987c	-0.07402131
27	0x3bb6d7cb	0.0055799237
28	0x3ca6083e	0.020267602
29	0x3bead15b	0.0071660704
30	0xbe13c5d0	-0.14430928
31	0x3d23e7b8	0.040015906
32	0x3cc9fb8b	0.024656078
33	0xbbc1f88b	-0.005919521
34	0xbd410f3a	-0.04713366
35	0x3d27ad00	0.04093647
36	0xbcad58d2	-0.021160517
37	0xbc9dadf7	-0.019247992
38	0xbd0ee3ce	-0.03488522
39	0xbc80af20	-0.015708506
40	0x3cf1cbc2	0.029516105
41	0x3d2c2f4e	0.0420373
42	0x3d9bd6ce	0.0760933
43	0x3ac9798a	0.0015371304
44	0x3d3384d9	0.043827865
45	0x3ad2d0cc	0.0016083955
46	0x38d45de4	0.00010126436
47	0xbc25a3f0	-0.0101098865
48	0xbc5d2076	-0.013496509
49	0xbb329be0	-0.0027253553
50	0xbdca3e67	-0.098751836
51	0xbc05d036	-0.008167317
52	0xbd61236d	-0.054965425
53	0x3c346441	0.0110102305
54	0xbd900c3c	-0.070335835
55	0xbdaa7043	-0.083221935
56	0xbccf7df1	-0.025328608
57	0x3d25a820	0.04044354
58	0x3d2b2cd3	0.041790795
59	0xbcca05d4	-0.024660982
60	0x3ae217ac	0.0017249486
61	0xbdbced98	-0.09225005
62	0xbbf6e971	-0.0075351526
63	0x3ccad3bf	0.024759172
64	0x3baf1fab	0.0053443513
65	0xbcaf1c18	-0.0213757
66	0xba769b1f	-0.000940727
67	0xbd7a0cff	-0.06104755
68	0x3d4919a8	0.049096733
69	0xbd613e28	-0.054990917
70	0xbd7259a8	-0.059167534
71	0xbc2b102c	-0.010440867
72	0x3cfb2ebb	0.030661931
73	0xbd94d7d5	-0.07267729
74	0xbd01d12a	-0.031693615
75	0xbdc8109a	-0.097687915
76	0xbcb84e5a	-0.022498298
77	0x3b5c7243	0.0033637441
78	0x3d08f308	0.033434898
79	0xbbc3f2da	-0.005979878
80	0xbc66302f	-0.014049574
81	0x3d0c6163	0.034272563
82	0x3d0cbb9d	0.03435861
83	0x3c06f63b	0.008237417
84	0x3c04e7b4	0.008111883
85	0x3d393316	0.045214735
86	0xbc617a15	-0.013762017
87	0xba1caaa4	-0.0005976355
88	0x3cdddd93	0.027083194
89	0xbdf7ba71	-0.12096108
90	0x3da09224	0.07840374
91	0xbcbcc5ff	-0.02304363
92	0x3cce27f6	0.02516554
93	0x3c9796bc	0.018504493
94	0x3c0e297a	0.008676881
95	0xbd109902	-0.03530217
96	0xbd412a36	-0.047159396
97	0xbda3fd55	-0.080073036
98	0x3d0665ee	0.03281205
99	0xbd900694	-0.07032505
100	0xbd122b05	-0.035685558
101	0xbcc7ddbe	-0.024397727
102	0xbc2b56ef	-0.010457738
103	0xbd807a7e	-0.062733635
104	0xbcac77d5	-0.021053234
105	0xbcf2f150	-0.029656082
106	0x3d3d0d65	0.046155352
107	0xbcc8a0dd	-0.024490768
108	0xbd9f8795	-0.07789532
109	0xbd45f372	-0.04832787
110	0xbcf74568	-0.030184463
111	0x3c34047e	0.010987399
112	0x3bfe7846	0.0077658026
113	0xbca5be9c	-0.020232491
114	0x3cb4c5e8	0.022067025
115	0xbd16f7c0	-0.036857367
116	0x3d4590a1	0.048233632
117	0xbca989f4	-0.020695664
118	0x3dbdab50	0.09261191
119	0xbd062f66	-0.032760046
120	0xbae6f7a0	-0.0017621405
121	0x3cea5da0	0.028609097
122	0xbd97de0c	-0.07415399
123	0x3cfc51d7	0.030800743
124	0xbcc6f1ff	-0.024285315
125	0xbd43a536	-0.04776498
126	0x3d9154e0	0.07096267
127	0xbc2bda9b	-0.010489131
128	0xba958b87	-0.001140938
129	0xbc5209b0	-0.0128196925
130	0xbdf3a60b	-0.118969046
131	0x3d5b0045	0.053467054
132	0x3d0ec5c4	0.034856573
133	0xbbc6bdf4	-0.0060651246
134	0xbcc14d10	-0.023596317
135	0x3d03aa6b	0.032144945
136	0xbd46db6f	-0.048549112
137	0x3d1775cb	0.03697757
138	0xbcb8ba0f	-0.022549657
139	0x3db4c5a0	0.088267565
140	0xbc024eac	-0.007953327
141	0xbda21e14	-0.07915893
142	0xbc7eb170	-0.015545234
143	0x3dbb0472	0.09131707
144	0x3c1e3257	0.009655557
145	0xbbc623e0	-0.006046757
146	0xbd448947	-0.04798248
147	0xbd6e2290	-0.05813843
148	0x3b33741a	0.0027382434
149	0xbbefa660	-0.0073135346
150	0xbdb9e183	-0.09076216
151	0xbcbd9c28	-0.02314575
152	0xbc9e2b59	-0.01930778
153	0x3d76bdd5	0.06023963
154	0xbd6b72b1	-0.057482425
155	0x3c3b15af	0.011418744
156	0x3adbe33a	0.0016776093
157	0x3da24c2e	0.07924686
158	0x3b81f99f	0.0039665247
159	0xbdd3b5ed	-0.10337434
160	0xbd162b51	-0.036662403
161	0x3c03a104	0.008033995
162	0xbaa4b6d0	-0.0012566689
163	0xbd9ff5c7	-0.0781055
164	0xbcb04d92	-0.021521363
165	0xbd7cd6c8	-0.06172827
166	0x3c5c7463	0.013455483
167	0x3c89cfa1	0.016822638
168	0x3d3cf87f	0.04613542
169	0xbce9aeee	-0.028525796
170	0x3b94cd26	0.004541057
171	0xbbf1f063	-0.0073833927
172	0x3d146133	0.03622551
173	0xbd7660ff	-0.060151096
174	0xbcbe26ca	-0.023211855
175	0x3cf38c7b	0.029730072
176	0x3c29ea93	0.010370868
177	0xbcc88d4a	-0.024481434
178	0xbcaccf40	-0.021094918
179	0x3db0ac0e	0.08626567
180	0x3d6deb35	0.05808564
181	0xbc9e3566	-0.019312572
182	0x3c672ed0	0.014110282
183	0x3dcec8df	0.10096907
184	0xbb8fdba9	-0.004390199
185	0xbd7979b7	-0.060907092
186	0x3d280bd5	0.04102691
187	0x3cfa6fcf	0.030570893
188	0x3d10202a	0.035186924
189	0xbb6075f1	-0.0034249986
190	0xbc8b247e	-0.016985174
191	0x3cad5203	0.02115727
192	0x3d99bea4	0.07507065
193	0xb9652d1d	-0.00021855948
194	0xbd7a4683	-0.0611024
195	0xbb0d0272	-0.002151635
196	0x3d08ef9b	0.03343163
197	0xbccf2777	-0.025287373
198	0x3ca4ac39	0.020101653
199	0x3c733084	0.01484311
200	0xbd4c1dd1	-0.049833123
201	0x3daaf4f2	0.08347501
202	0xbb3dd523	-0.002896615
203	0xbd0c1e60	-0.034208655
204	0x3dda0901	0.106462486
205	0xbb323cb9	-0.0027196838
206	0x3bf45687	0.007456604
207	0x3d10a45c	0.035312995
208	0xba9190e9	-0.0011105809
209	0xbc79e35a	-0.015251959
210	0x3c9c0f24	0.019050188
211	0xbb58c46d	-0.0033076063
212	0x3d2da0d2	0.0423897
213	0x3bcfde36	0.0063436283
214	0x3b634850	0.0034680553
215	0xbdd6256e	-0.10456358
216	0xbd5a4472	-0.05328793
217	0x3d7d88d6	0.061898075
218	0xbd909517	-0.07059687
219	0xbcdabee8	-0.02670236
220	0x3cdf4d28	0.02725847
221	0xbc8f29c5	-0.017475972
222	0xbce39e1e	-0.027785357
223	0xbcaef816	-0.021358531
224	0x3d83675b	0.06416198
225	0x3da0fc26	0.078605935
226	0xbd0bf4b4	-0.034168914
227	0xbb46b44d	-0.003031987
228	0x3d8cbe32	0.068722144
229	0xbc41182a	-0.011785546
230	0xbd78e793	-0.06076772
231	0x3c80e3a6	0.015733551
232	0x3c384409	0.01124669
233	0x3d8f3013	0.06991591
234	0xbd1dcfa5	-0.038528103
235	0x3d18996d	0.037255693
236	0x3cbaefb1	0.022819372
237	0x3c7f18e3	0.015569898
238	0x3d435d76	0.047696553
239	0x3cd86425	0.02641494
240	0xbd6436f0	-0.055716455
241	0x3d1ca2dd	0.038241256
242	0xbd0a90a9	-0.033829365
243	0x3d086069	0.03329507
244	0xbc9f0cda	-0.019415308
245	0x3cb2fa79	0.02184795
246	0xbcc053ad	-0.0234774
247	0xbd543b17	-0.051814165
248	0xbc4c7148	-0.01247818
249	0x3d3dead9	0.046366546
250	0xbd50c168	-0.050965697
251	0xbdb0749c	-0.086159915
252	0xbd2ea39c	-0.0426365
253	0x3bdde09a	0.0067711594
254	0xbd010148	-0.031495363
255	0x3c12952a	0.008946696

6.bias f4 [12]
0	0x3e2131e5	0.1574169
1	0xbc190916	-0.009340545
2	0x3d5d4a51	0.05402595
3	0xbdcd5fda	-0.10028048
4	0xbe345385	-0.17609985
5	0xbd85d702	-0.0653515
6	0x3e55a281	0.20862772
7	0x3e375a3f	0.1790552
8	0xbdef5446	-0.11685996
9	0xbde5fae1	-0.11229492
10	0xbce694b5	-0.02814708
11	0xbd1c6211	-0.03817946
