onnx_inference/data/model.onnx (onnx, 192987 bytes, 8 tensors)

0.weight f4 [128, 104]
0	0x3e88d672	0.2672611
1	0xbe44de34	-0.19225389
2	0x3d63ef33	0.05564804
3	0x3ed30a16	0.41218632
4	0xbe96b95a	-0.29438287
5	0xbd95fb50	-0.07323325
6	0x3eba0fd4	0.363402
7	0xbe09fb13	-0.13474683
8	0xbda79ae2	-0.081838384
9	0x3ef71cbd	0.48264113
10	0xbe9e15f8	-0.30876136
11	0xbe5b41a7	-0.21411763
12	0x3dd95910	0.106126904
13	0x3dc8a412	0.09796919
14	0xbeb60637	-0.35551617
15	0xbd7632b2	-0.06010694
16	0x3e9513c5	0.29116645
17	0xbf5e7730	-0.86900616
18	0xbe347ba1	-0.17625286
19	0x3da7a8fd	0.08186529
20	0x3f64b607	0.8934025
21	0x3bfafd8a	0.0076596187
22	0xbd00a59e	-0.031407945
23	0x3f765213	0.96218985
24	0xbe32a6d9	-0.1744646
25	0xbf2bd115	-0.6711591
26	0xbe64b00c	-0.22332782
27	0x3f2455f7	0.6419367
28	0x3d01ee50	0.031721413
29	0x3e4dcb7b	0.20097153
30	0x3f0902b8	0.53519773
31	0x3e9d6b7c	0.30746067
32	0xbf00fd94	-0.5038693
33	0x3d4d4936	0.050118648
34	0x3dbf2e55	0.09335009
35	0x3e74a114	0.23889571
36	0xbea0e8e3	-0.31427678
37	0xbf3f591a	-0.74745333
38	0xbe8ac518	-0.27103496
39	0x3f358b68	0.7091584
40	0xbdbc5e9f	-0.09197735
41	0x3e9d4cb0	0.3072257
42	0x3f18ba49	0.5965925
43	0x3eab169e	0.33415693
44	0xbef182be	-0.4717006
45	0x3e6a0f83	0.2285748
46	0x3e6723f1	0.22572304
47	0x3e274817	0.16336094
48	0x3caa0099	0.020752238
49	0xbbc3677b	-0.0059632636
50	0x3d1b606d	0.037933756
51	0x3d722631	0.059118453
52	0x3d41687b	0.04721878
53	0xbd993b65	-0.07482032
54	0x3d8d3cac	0.06896338
55	0x3c97ecb2	0.018545482
56	0xbb7b1497	-0.0038311833
57	0x3bae2fc4	0.0053157527
58	0xbcc174e4	-0.023615308
59	0x3a90ba69	0.0011041883
60	0xbce33dbf	-0.027739404
61	0xbcdc83c9	-0.026918309
62	0x3d0ee97b	0.034890633
63	0xbd7ed95f	-0.06221902
64	0xbd6ddb54	-0.058070496
65	0x3dea89a4	0.11452034
66	0xbd0f8a54	-0.03504403
67	0xbb9dd76f	-0.0048169415
68	0x3d06530a	0.032794036
69	0x3d0074d5	0.03136142
70	0x3d016021	0.031585816
71	0xbc7f5818	-0.015584968
72	0xbe114fd6	-0.14190611
73	0xbde08fed	-0.10964952
74	0xbd6d23b0	-0.057895362
75	0x3d6c20f3	0.05764861
76	0x3d247b48	0.040156633
77	0x3dd6fd6f	0.10497557
78	0x3de36510	0.111032605
79	0x3e021e1d	0.127068
80	0x3d817685	0.06321434
81	0xbc7f9eec	-0.015601855
82	0x3c144e92	0.009051936
83	0x3d0f595f	0.03499734
84	0xbd8c7b0f	-0.06859409
85	0x3dd9a6f2	0.106275454
86	0xbe510633	-0.20412521
87	0xbc9386c8	-0.018008605
88	0xbce919fc	-0.028454773
89	0x3e38761e	0.18013808
90	0x3dfd4637	0.12366908
91	0x3de83435	0.11338083
92	0xbde1c98d	-0.11024771
93	0x3e3d66c9	0.1849624
94	0xbb814007	-0.0039444
95	0xbc7cff92	-0.015441792
96	0x3db3ad38	0.08773273
97	0xbe0c15c5	-0.1368018
98	0xbe039b08	-0.12852108
99	0xbce6b75d	-0.028163606
100	0xbc765d55	-0.0150369005
101	0x3cb9d492	0.02268437
102	0xbd2b9302	-0.041888244
103	0xbd409140	-0.04701352
104	0xbe3b094b	-0.18265264
105	0x3ef95c80	0.48703384
106	0x3decf476	0.11570065
107	0xbe0f5402	-0.1399689
108	0x3f09fbcc	0.53899837
109	0x3d2c5b01	0.042078976
110	0xbe84b219	-0.25917128
111	0x3e1694bc	0.14705175
112	0xbe14f554	-0.1454671
113	0xbe1c357d	-0.15254779
114	0x3e84dbff	0.25949094
115	0xbe04a264	-0.12952572
116	0x3c9b224b	0.01893725
117	0xbda493ca	-0.08036001
118	0x3d74cfc2	0.059768446
119	0x3c66e68a	0.014093051
120	0x3de556f0	0.11198223
121	0x3ea2b529	0.3177884
122	0x3f01fc9f	0.50776094
123	0xbeebd44d	-0.4606041
124	0xbe99a0d6	-0.3000552
125	0x3f206a68	0.62662363
126	0xbf339b4d	-0.70158845
127	0xbe4967cc	-0.19668502
128	0x3e1fe687	0.15615283
129	0x3e95f147	0.29285643
130	0x3e790526	0.2431837
131	0x3e3abf3e	0.18237016
132	0x3e715cf8	0.23570621
133	0x3ef8ebc5	0.48617378
134	0x3e35399d	0.17697759
135	0x3f3b46e6	0.7315506
136	0x3eaefe09	0.34178188
137	0xbf241ffc	-0.64111304
138	0xbdff2c7f	-0.12459659
139	0x3e9569b4	0.29182208
140	0x3e4058de	0.187839
141	0x3ebf8e27	0.3741314
142	0x3eca0245	0.39454857
143	0x3e9cb3c8	0.30605912
144	0x3e97c9f0	0.29646254
145	0x3ec722f7	0.38893864
146	0x3e376ec2	0.17913345
147	0x3f30342f	0.68829626
148	0x3e97755b	0.29581723
149	0xbf2c58e0	-0.6732311
150	0xbe4cf010	-0.20013452
151	0x3e037d3f	0.12840746
152	0x3d89ec3f	0.067345135
153	0x38a11a2c	7.681953e-05
154	0xbd9d9114	-0.07693687
155	0x3bc70fd9	0.0060748872
156	0xbccb6eb1	-0.024833055
157	0x3dc434c1	0.095803745
158	0xbcd1c190	-0.025604993
159	0x3db6711b	0.08908292
160	0xbcc9e52c	-0.02464541
161	0xbd2219d2	-0.039575405
162	0xbd24a62e	-0.040197544
163	0xbb3ac0fa	-0.002849637
164	0x3d79e522	0.061009534
165	0x3bb38710	0.005478747
166	0xbdc71cd2	-0.09722294
167	0x3cebd048	0.02878584
168	0x3c162f7d	0.0091665955
169	0xbdab913e	-0.08377312
170	0xbd24e305	-0.040255565
171	0x3db6520f	0.0890237
172	0xbdbce96f	-0.092242114
173	0x3de01217	0.1094095
174	0xbc5e9dd1	-0.013587431
175	0xbd7542d7	-0.059878197
176	0xbbc3a5eb	-0.0059707067
177	0x3dd56f5d	0.104216315
178	0x3e25b2aa	0.16181436
179	0x3dba8dad	0.09109054
180	0xbd3f4c97	-0.0467039
181	0xbd928e19	-0.07156009
182	0x3d80f77f	0.06297206
183	0x3dae862c	0.08521685
184	0x3d9325ab	0.07184919
185	0xbc85e951	-0.016346605
186	0x3d8011fb	0.062534295
187	0x3d8390d1	0.06424106
188	0x3dd00e31	0.10158957
189	0x3e25e021	0.1619878
190	0x3e64f2a7	0.2235819
191	0x3ca1a788	0.019733205
192	0xbe2ad209	-0.16681685
193	0xbd875047	-0.066071086
194	0x3d3e5e9f	0.046476956
195	0x3d249328	0.0401794
196	0xbce8c992	-0.028416429
197	0x3e3d266b	0.18471687
198	0x3e15a69d	0.14614339
199	0x3da01e0c	0.07818231
200	0xbdace7a6	-0.08442621
201	0x3e192f0f	0.14959358
202	0x3c9faa89	0.019490497
203	0xbd24425b	-0.040102344
204	0xbdaf0eca	-0.08547743
205	0x3df9fac1	0.12206031
206	0x3e388b29	0.18021835
207	0xbdc137d4	-0.094344765
208	0x3d8868bf	0.06660604
209	0x3e9f459d	0.31107798
210	0x3e797d1d	0.24364133
211	0x3eac6183	0.33668146
212	0x3eafa287	0.34303686
213	0x3e8e0c7d	0.27743903
214	0x3d012955	0.031533558
215	0x3f07f3b4	0.53106236
216	0xbe6d5da5	-0.23180254
217	0x3ea41a22	0.32051188
218	0x3e556ea3	0.20842986
219	0xbd17dfa8	-0.03707853
220	0x3cdcb4cd	0.026941681
221	0x3eb3f106	0.35144824
222	0x3d88b5b2	0.06675281
223	0xbdf2e764	-0.118605405
224	0x3ec9dd34	0.39426577
225	0xbcd3ed8b	-0.025870105
226	0x3ca66da7	0.020315958
227	0xbea4bfc7	-0.32177565
228	0x3c8d478a	0.017246027
229	0x3deaac31	0.11458624
230	0xbe90e00d	-0.28295937
231	0x3e8ec2e5	0.27883068
232	0x3ece1ba2	0.40255457
233	0xbd2867dc	-0.041114673
234	0x3c5d7ac9	0.013518044
235	0xbcf60811	-0.030033143
236	0x3d222dcc	0.039594457
237	0x3f09f7c7	0.53893703
238	0xbd57b151	-0.052659336
239	0xbd25a6e2	-0.040442355
240	0x3e4624d1	0.19349982
241	0xbdfb66a6	-0.12275438
242	0x3f63e066	0.8901428
243	0xbe97691b	-0.29572377
244	0x3eaa4e0a	0.33262664
245	0xbd305158	-0.043046325
246	0xbde5c791	-0.11219705
247	0xbc9e3fa4	-0.019317456
248	0x3d9b518e	0.07583915
249	0x3efc9e6a	0.4933961
250	0x3daf46f0	0.08558452
251	0x3e219e48	0.15783036
252	0x3e085ab7	0.13315855
253	0x3d734f87	0.059402015
254	0x3f4e1bb4	0.8051102
255	0xbeefb3f1	-0.46816972

0.bias f4 [128]
0	0x3d2b3404	0.041797653
1	0xbe08ba23	-0.13352256
2	0xbeb61733	-0.35564575
3	0x3d9d1a66	0.07671051
4	0x3d9b0d5f	0.0757091
5	0xbcec2156	-0.02882449
6	0xba77748c	-0.0009439669
7	0xbe88c2a0	-0.26710987
8	0xbd1c77cf	-0.038200196
9	0x3cce5d80	0.025191069
10	0xbe2579e1	-0.16159774
11	0xbd23da70	-0.04000324
12	0xbd502f14	-0.050826147
13	0x3d241efa	0.040068604
14	0xbdf1b78d	-0.11802588
15	0x3d3a1f0c	0.045439765
16	0x3e1c65ce	0.1527321
17	0xbc056977	-0.008142821
18	0xbe0909f8	-0.13382709
19	0x3e0d5479	0.13801755
20	0xbe96e3a1	-0.29470542
21	0xbc81ee30	-0.015860647
22	0xbd986393	-0.07440867
23	0x3d405c1d	0.046962846
24	0xbd342e86	-0.04398968
25	0xbd94beb8	-0.07262939
26	0xbd91383f	-0.07090806
27	0x3d3b4c3a	0.045726992
28	0x3d74a5cf	0.05972844
29	0x3cbd8dd5	0.02313892
30	0x3b94edb3	0.0045449375
31	0xbd13c7db	-0.03607927
32	0xbe802954	-0.2503153
33	0xbe06872c	-0.13137501
34	0x3e334809	0.17507948
35	0xbb92ff53	-0.0044860034
36	0xbe5b9160	-0.21442175
37	0x3ccd9907	0.025097383
38	0xbe2d2e6b	-0.16912238
39	0xbded1270	-0.11575782
40	0xbe4c0c38	-0.19926536
41	0xbe31247f	-0.17299078
42	0x3d857050	0.065155625
43	0x3cb8f6d0	0.022578627
44	0xbe2f811e	-0.17139098
45	0x3c9e25bb	0.0193051
46	0xbdb69532	-0.089151755
47	0xbd607136	-0.054795466
48	0x3e0a62ee	0.13514301
49	0x3d4e6b64	0.050395384
50	0xbe56fd97	-0.20995174
51	0xbe10a0e8	-0.14123881
52	0x3cf50fef	0.029914824
53	0x3ca29473	0.019846177
54	0xbe1e3409	-0.15449537
55	0x3db71e58	0.089413345
56	0xbdb40ab9	-0.08791108
57	0xbe0cc948	-0.13748658
58	0xbc08f507	-0.0083592
59	0x3c169758	0.009191357
60	0xbe6a4798	-0.22878873
61	0x3cd87103	0.026421076
62	0x3d02c507	0.03192618
63	0xbddc0854	-0.10743776
64	0x3c45dd87	0.012076742
65	0x3c4aabf1	0.012370096
66	0xbb8c9560	-0.004290268
67	0x3db86cfa	0.09005161
68	0xbcd6f269	-0.026238637
69	0xbb2bb0b3	-0.002619785
70	0x3d00e62b	0.031469505
71	0xbcd25285	-0.025674114
72	0xbe6e52c6	-0.23273763
73	0x3dce8234	0.10083428
74	0xbda77165	-0.08175925
75	0xbe411f80	-0.18859673
76	0xbc82fb43	-0.015988952
77	0xbd708edc	-0.05872999
78	0xbe4c9287	-0.19977771
79	0x3d80a02e	0.06280552
80	0xbe144024	-0.14477593
81	0xbe6c44aa	-0.23073068
82	0xbdbf41c9	-0.093387194
83	0xbda09d92	-0.07842554
84	0x3d8ac6cb	0.06776198
85	0x3e2d0dac	0.16899747
86	0xbd81889e	-0.06324886
87	0x3c83eb15	0.016103307
88	0x3d962f21	0.07333208
89	0xbda149c1	-0.078753956
90	0xbccd5d03	-0.025068766
91	0xbd94eedd	-0.07272122
92	0xbdf07bb4	-0.117423445
93	0xbe05c1fa	-0.13062277
94	0xbc62b7cc	-0.013837766
95	0x3d4a7822	0.049430974
96	0x3ae0ae2d	0.0017141752
97	0x3d5dd1a3	0.054155003
98	0x3ddcf9cb	0.10789832
99	0x3dfc5dba	0.123225644
100	0x3c98245c	0.018572025
101	0xbbad27ea	-0.005284299
102	0xbd13095e	-0.035897605
103	0xbd9ff5b9	-0.0781054
104	0xbac5cdea	-0.0015091274
105	0xbe1e9f60	-0.15490484
106	0xbdfb1092	-0.1225902
107	0xbb61d507	-0.003445925
108	0xbcabef58	-0.020988151
109	0xbd22044e	-0.039554887
110	0xbb66ff59	-0.0035247414
111	0xbc7c146c	-0.015385728
112	0xbbb9adca	-0.005666469
113	0x3d90ddd1	0.07073558
114	0xbcd103a0	-0.025514424
115	0x3e25d4f5	0.16194518
116	0xbd87306a	-0.06601031
117	0xbbaad39d	-0.0052132146
118	0x3dcab18c	0.09897146
119	0xbded648a	-0.11591442
120	0x3de3f209	0.11130149
121	0xbd59c9c1	-0.053170923
122	0xbe2a732f	-0.16645502
123	0x3d71c93e	0.05902981
124	0x3d1e6c69	0.038677607
125	0xbd67d43a	-0.05659888
126	0xbd910e23	-0.070827745
127	0xbe1d6da2	-0.15373853

2.weight f4 [128, 128]
0	0x3e0de2fb	0.13856117
1	0x3d9ce894	0.07661548
2	0x3dcdfc84	0.10057929
3	0x3d393026	0.045211934
4	0x3dac21db	0.08404895
5	0x3cc3d2a8	0.02390416
6	0xbd1d66b6	-0.03842803
7	0x3de5af10	0.11215031
8	0x3d18cd3d	0.037305105
9	0xbdc47dd8	-0.09594315
10	0x3c89f411	0.016840013
11	0xbe1cc26f	-0.15308546
12	0xbc689b57	-0.014197192
13	0x3dc58b1f	0.09645676
14	0xbd27edce	-0.040998273
15	0xbd065999	-0.03280029
16	0xbe059179	-0.13043775
17	0x3d96145a	0.073281005
18	0xbda1d8b5	-0.07902662
19	0xbde301f5	-0.11084358
20	0x3df6f771	0.120589145
21	0xbd8de48a	-0.06928356
22	0xbd609eb1	-0.05483884
23	0xbdd9cd64	-0.10634878
24	0x3ca14b85	0.01968933
25	0xbd4557a3	-0.04817928
26	0x3d505af9	0.05086801
27	0x3e00d432	0.12580946
28	0xbcf95c52	-0.03043953
29	0x3dcfd23a	0.101475194
30	0x3c80ae3a	0.015708078
31	0xbead4293	-0.33839855
32	0x3d8a7c0e	0.06761943
33	0x3c974d32	0.018469427
34	0xbd839137	-0.06424182
35	0xbc891fcf	-0.0167388
36	0x3a2f65c0	0.0006690882
37	0x3d3aa3b8	0.04556629
38	0x3dc69677	0.09696668
39	0xbdca4993	-0.098773144
40	0x3d786af3	0.06064887
41	0x3dac45c5	0.08411745
42	0xbdfe3ec7	-0.124143176
43	0x3bebf72f	0.0072010974
44	0x3dc185ff	0.09449386
45	0xbdbb9497	-0.09159201
46	0xbd37be29	-0.044859085
47	0x3e260607	0.16213237
48	0xbe46fc4d	-0.19432183
49	0xbd505261	-0.050859813
50	0xbcbe7abc	-0.023251884
51	0x3d1a29ea	0.03763763
52	0x3db36926	0.0876029
53	0x3e305a4d	0.17221947
54	0x3d85d079	0.06533904
55	0x3e2e9630	0.1704948
56	0xbe3bbe43	-0.18334298
57	0x3d05fa42	0.032709368
58	0x3d0bfd23	0.034176957
59	0x3c10f160	0.008846611
60	0x3e1b0fa9	0.15142693
61	0xbdd83b64	-0.10558203
62	0xbe33bb56	-0.17551932
63	0x3d18a90e	0.037270598
64	0xbe552c63	-0.20817713
65	0xbcf4a239	-0.02986251
66	0xbcc58a92	-0.024113927
67	0x3e1a0a64	0.15043026
68	0xbdf2b424	-0.11850765
69	0xbdebb3f6	-0.11508934
70	0x3da80756	0.08204524
71	0xbe203141	-0.15643789
72	0x3e481ad9	0.19541492
73	0x3c22760f	0.009915843
74	0x3dd87e30	0.10570943
75	0x3cfc0239	0.030762779
76	0xbe33de5e	-0.17565295
77	0xbe1b03e9	-0.1513821
78	0xbdef012a	-0.11670144
79	0xbe6ce1b7	-0.23132978
80	0x3dfb012d	0.12256084
81	0xbe08569f	-0.13314293
82	0xbdee4e7d	-0.11636064
83	0xbcafb29b	-0.02144747
84	0xbe18c4e3	-0.14918856
85	0xbb6ea3f5	-0.0036413644
86	0x3e951503	0.29117593
87	0x3d9f4245	0.07776312
88	0xbe318be2	-0.17338517
89	0xbe8245fc	-0.2544402
90	0x3c3dda5d	0.011587706
91	0x3e0a43c2	0.1350241
92	0xbdc24cdb	-0.09487315
93	0x3d1f755d	0.038930286
94	0x3e818d62	0.2530318
95	0x3de9e36e	0.11420332
96	0x3dd45856	0.10368411
97	0x3de9ded0	0.11419451
98	0x3e0b10e8	0.13580668
99	0x3d2d70e9	0.042344008
100	0x3d56aad4	0.05240901
101	0x3e4c85b8	0.19972885
102	0xbe0234f6	-0.12715515
103	0xbe0a06dd	-0.1347918
104	0xbdd23ef5	-0.10265914
105	0x3e05387f	0.13009833
106	0xbde57e13	-0.112056874
107	0x3e9febfa	0.31234723
108	0xbe32e4fb	-0.17470162
109	0xbd723bab	-0.059138935
110	0x3d82c4d6	0.063852
111	0x3d253499	0.040333364
112	0xbcde694d	-0.02714982
113	0xbd37f860	-0.044914603
114	0xbe3825f1	-0.17983223
115	0x3ca2ad1b	0.019857934
116	0x3e3d1e4a	0.18468586
117	0xbc8ac698	-0.0169404
118	0x3cdea5a9	0.027178602
119	0xbdc5f91d	-0.09666655
120	0xbdc22753	-0.09480157
121	0xbe14bc14	-0.14524871
122	0xbe693a5c	-0.22776169
123	0xbd5a55cb	-0.053304475
124	0x3dfa17fb	0.12211605
125	0x3d06728b	0.03282408
126	0xbe3a3416	-0.18183932
127	0xbda9886d	-0.08277974
128	0xbd50c612	-0.050970145
129	0xbb5ba369	-0.0033514148
130	0x3d20ebe9	0.03928748
131	0xbd586439	-0.052829955
132	0xbe48a633	-0.1959465
133	0xbce09205	-0.027413378
134	0xbdd53b6a	-0.10411723
135	0x3e2656ec	0.16244096
136	0x3d25b8d8	0.040459484
137	0xbda73d4a	-0.08165987
138	0xbb3d8c88	-0.0028922874
139	0x3e2c5604	0.16829687
140	0x3d3f9231	0.04677028
141	0x3c9dd9f9	0.019268977
142	0xbb9bb99f	-0.0047523524
143	0x3c48838a	0.012238393
144	0x3e37eda8	0.17961752
145	0x3db4bfee	0.0882567
146	0xbe3995f8	-0.18123615
147	0x3de09824	0.109665185
148	0x3e6b9948	0.23007691
149	0x3c0ba12e	0.008522315
150	0x3cc77697	0.02434854
151	0xbd5eb2ad	-0.054369617
152	0xbc9e4ab2	-0.019322727
153	0xbe880f0b	-0.26573977
154	0xbc933199	-0.017967986
155	0xbe82df73	-0.25561103
156	0x3e543da5	0.2072664
157	0x3dcf33e8	0.10117322
158	0x3d28a90c	0.04117684
159	0x3d09f62a	0.033682026
160	0x3e0acddd	0.13555093
161	0x3c8c729f	0.0171445
162	0xbc01faf1	-0.007933364
163	0x3d136d5c	0.035992965
164	0x3d8c7eb7	0.068601064
165	0xbd210e09	-0.039320026
166	0x3de2ce13	0.11074462
167	0x3df62cf4	0.12020293
168	0x3e92c0f2	0.2866283
169	0xbdc2aa3c	-0.09505126
170	0x3d9601a6	0.07324533
171	0x3e2ba44c	0.16761893
172	0xbce2645a	-0.027635742
173	0xbbe8284d	-0.0070848824
174	0xbc552041	-0.013008178
175	0xbca9f37f	-0.02074599
176	0xbccf3383	-0.025293117
177	0xbd0a0f7d	-0.033706177
178	0x3bd4300d	0.0064754547
179	0xbe1c98fe	-0.15292737
180	0x3dad9db1	0.08477343
181	0x3db50d4d	0.088404275
182	0x3d7b7556	0.061391197
183	0xbd8f4152	-0.06994881
184	0xbedf1251	-0.43568662
185	0x3def9eb4	0.11700192
186	0xbd7c2d13	-0.061566424
187	0xbe017521	-0.12642337
188	0x3afff970	0.0019529294
189	0x3db53eb2	0.08849849
190	0xbbfc0f9c	-0.0076922905
191	0xbc90e384	-0.017686613
192	0x3c22d27b	0.009937878
193	0x3cc104c4	0.023561843
194	0xbcea2a12	-0.028584514
195	0xbd9f1c06	-0.07769017
196	0xbd26db22	-0.040736325
197	0xbd0159d7	-0.03157982
198	0xbd443595	-0.047902662
199	0xbe4a67bd	-0.19766136
200	0x3e8099c9	0.2511733
201	0xbdd1903d	-0.102325894
202	0xbe26f252	-0.16303375
203	0x3d22e126	0.0397655
204	0xbda9b3e4	-0.082862645
205	0xbdc97372	-0.098364726
206	0xbd66eabf	-0.056376215
207	0xbecf6579	-0.40507105
208	0x3d92385b	0.07139655
209	0x3e059574	0.13045293
210	0xbd3032c5	-0.043017168
211	0x3c8f3c74	0.017484881
212	0xbc886928	-0.016651705
213	0xbd38458d	-0.044988204
214	0xbdfab013	-0.12240615
215	0xbe01d874	-0.12680227
216	0xbdc46800	-0.09590149
217	0x3df7daae	0.12102257
218	0xbdcdfa1c	-0.1005747
219	0x3cdf91b7	0.027291162
220	0xbd930748	-0.07179123
221	0x3ddd4a46	0.10805182
222	0x3ab09dd9	0.0013474777
223	0x3d841541	0.06449366
224	0xbb915d46	-0.004436168
225	0xbd8e62b7	-0.06952422
226	0xbe59bdb7	-0.21263777
227	0xbdf533b4	-0.11972752
228	0xbc017711	-0.007901923
229	0x3dfc78d4	0.12327734
230	0xbdbc4b26	-0.09194021
231	0xbc5e2a91	-0.013559953
232	0x3dbbd1eb	0.09170898
233	0x3c97198e	0.018444803
234	0x3ccdedab	0.025137743
235	0xbd69d742	-0.05709005
236	0x3ce125be	0.027483817
237	0x3d34fa1f	0.044183847
238	0xbe5024dc	-0.2032656
239	0xbdf850b9	-0.121247716
240	0xbe40dc7a	-0.18834105
241	0xbdac11f6	-0.08401863
242	0xbe8fedf7	-0.2811124
243	0x3d8d6632	0.06904258
244	0x3d9264b2	0.07148112
245	0xbe2cb739	-0.16866769
246	0xbccc1c3a	-0.024915803
247	0x3d972d94	0.0738174
248	0xbe835686	-0.2565195
249	0x3da4500f	0.080230825
250	0xbe0ceccb	-0.13762204
251	0xbc503290	-0.012707368
252	0xbde41ba7	-0.11138087
253	0x3cb733ff	0.02236366
254	0xbdef90fc	-0.116975754
255	0xbd19d140	-0.037553072

2.bias f4 [128]
0	0xbcc1234a	-0.023576397
1	0xbe57abe1	-0.2106166
2	0xbeaa852a	-0.3330472
3	0x3c2d05c3	0.010560456
4	0xbe11d449	-0.14241137
5	0xbe0dc973	-0.13846378
6	0xbe048d31	-0.12944485
7	0xbde2f387	-0.110816054
8	0xbe0e2bcd	-0.13883896
9	0xbe709abd	-0.23496528
10	0x3d455642	0.048177965
11	0x3d11e52b	0.035618942
12	0xbe0d3ced	-0.13792773
13	0xbe09acd9	-0.13444842
14	0x3d13e316	0.036105238
15	0xbd7f3b0e	-0.06231218
16	0xbda5c4c5	-0.080941714
17	0xbdc20ca6	-0.09475069
18	0xbda3958a	-0.07987507
19	0xbea080ab	-0.31348166
20	0xbdd280b6	-0.10278456
21	0xbddad74c	-0.10685596
22	0xbd46a1e2	-0.048494227
23	0xbe63e4c9	-0.22255243
24	0xbe0d77fe	-0.13815305
25	0xbe21ad0c	-0.15788668
26	0xbd6fe6f4	-0.058569863
27	0xbc7312f2	-0.01483606
28	0xbde80401	-0.11328889
29	0xbd52b223	-0.051439416
30	0xbca5fa11	-0.020260843
31	0x39d3ae72	0.00040375028
32	0xbeb4c713	-0.35308132
33	0xbe68cb47	-0.22733794
34	0xbb9c345d	-0.0047669844
35	0xbefa307c	-0.48865116
36	0xbe4c21ca	-0.19934765
37	0xbd93cded	-0.072170116
38	0x3c535053	0.012897569
39	0xbd066bdd	-0.03281771
40	0xbd328407	-0.043582942
41	0xbc8601a2	-0.0163582
42	0x3df16766	0.117873
43	0xbe094a6a	-0.13407293
44	0xbe6cdff7	-0.23132311
45	0xbe1db160	-0.15399694
46	0xbda875af	-0.08225571
47	0xbe3c40fb	-0.18384163
48	0xbe0eea5c	-0.13956589
49	0x3e2753c7	0.16340552
50	0xbe1067f7	-0.1410216
51	0xbe591d68	-0.21202624
52	0x3c883346	0.016626012
53	0xbdb5054e	-0.088389024
54	0x3de074bb	0.109597646
55	0xbe38bcd3	-0.1804078
56	0xbedc2c66	-0.43002623
57	0xbd47fa03	-0.048822414
58	0x3aa9348a	0.0012909335
59	0xbe86d47d	-0.2633399
60	0xbea0943f	-0.31363103
61	0xbd5dff98	-0.05419883
62	0xbe6c4ac4	-0.23075396
63	0xbe4924db	-0.19642965
64	0xbe8e6f3b	-0.27819237
65	0xbe29efa8	-0.16595328
66	0xbe2816af	-0.16414903
67	0xbd87d0f5	-0.06631652
68	0xbd238375	-0.03992029
69	0xbe0c8109	-0.13721098
70	0xbd95229c	-0.07281992
71	0xbe90f749	-0.28313664
72	0xbc1a0e1a	-0.009402776
73	0xbdd37260	-0.1032455
74	0x3bca24c9	0.006168936
75	0xbdcee4f0	-0.1010226
76	0xbde815be	-0.11332272
77	0xbc998996	-0.018742364
78	0xbda285b4	-0.07935658
79	0x3cd201b2	0.025635574
80	0xbdc2eee8	-0.09518224
81	0xbdba0938	-0.090837896
82	0xbd459787	-0.04824021
83	0xbe003905	-0.12521751
84	0xbbc4422a	-0.0059893327
85	0x3c8155ab	0.01578792
86	0x3ada5aad	0.0016659104
87	0xbd932715	-0.07185189
88	0xbd5423dd	-0.051792014
89	0xbe255f65	-0.16149671
90	0xbccfca0a	-0.025364894
91	0xbd8b5634	-0.06803551
92	0xbd501edb	-0.050810676
93	0x3d80c5eb	0.0628775
94	0xb8b6a2c8	-8.708757e-05
95	0xbd0c45f8	-0.034246415
96	0xbe94c49c	-0.2905625
97	0x3e0a6528	0.1351515
98	0xbe7119da	-0.23545018
99	0x3dcc17c0	0.099654675
100	0xbe34f861	-0.17672874
101	0xbdcfeb39	-0.10152287
102	0xbd10254d	-0.035191823
103	0xbe077109	-0.13226713
104	0xbd3766c9	-0.044775758
105	0xbd54599e	-0.051843278
106	0xbd4878fa	-0.048943497
107	0xbc1e66b7	-0.009668044
108	0x3d133791	0.035941664
109	0xbe08c721	-0.13357212
110	0xbda8baf7	-0.08238786
111	0xbe548d22	-0.20756963
112	0xbd99bc3b	-0.07506605
113	0xbe0c374b	-0.13692968
114	0x3b6c7915	0.0036082913
115	0xbd2eb113	-0.04264934
116	0xbca3cb88	-0.019994512
117	0xbdef8107	-0.11694532
118	0xbdc54692	-0.09632601
119	0xbdefe3b6	-0.11713354
120	0xbd9c2707	-0.076246314
121	0xbe01313a	-0.12616435
122	0xbdbe6ef7	-0.092985086
123	0xbd6b2a9b	-0.05741368
124	0xbe304d77	-0.1721705
125	0xbdb6fd8f	-0.08935081
126	0xbd183bcf	-0.037166413
127	0x3dac2d93	0.0840713

4.weight f4 [128, 128]
0	0x3be64c61	0.007028148
1	0x3da12db8	0.07870048
2	0x3da1186f	0.078659885
3	0x3d1c2fc1	0.03813148
4	0x3d2bc851	0.041939083
5	0xbe69390e	-0.22775671
6	0x3c345870	0.011007413
7	0x3d18aae8	0.037272364
8	0xbd4b17ca	-0.049583234
9	0x3d3dcea2	0.04633964
10	0x3bd189ff	0.0063946242
11	0xbe90177c	-0.28142917
12	0xbe468c75	-0.19389518
13	0xbcc22c48	-0.023702756
14	0x3ba77a03	0.0051109805
15	0xbe3d63c6	-0.18495092
16	0x3dc5ca34	0.09657708
17	0x3acbca6e	0.0015548
18	0x3dba25ba	0.09089227
19	0xbe022ee4	-0.127132
20	0xbe08f397	-0.13374172
21	0xbd1d8dd3	-0.038465332
22	0xbe01c303	-0.12672047
23	0xbdd71414	-0.105018765
24	0x3c64b52e	0.013959212
25	0xbd0402c5	-0.032229204
26	0xbd2f6070	-0.04281658
27	0xbcaaed9c	-0.020865254
28	0xbb8b2125	-0.0042458945
29	0x3e2eb31d	0.17060514
30	0x3d91c54e	0.07117711
31	0xbd788092	-0.06066949
32	0xbd655f1d	-0.05599891
33	0x3d9167c5	0.070998706
34	0xbcda2c5b	-0.026632478
35	0xbdbfacd7	-0.093591385
36	0x3d0dcb48	0.034617692
37	0xbdc74892	-0.097306386
38	0xbd5c7fc0	-0.05383277
39	0xbe90c9a5	-0.28278843
40	0xbc72ff08	-0.014831312
41	0xbe343dc9	-0.17601694
42	0x3d193fac	0.037414238
43	0xbc8ce00c	-0.017196678
44	0x3cbb44d1	0.022859963
45	0x3d41db66	0.047328375
46	0xbd166f12	-0.03672702
47	0xbdf6bc87	-0.120476775
48	0xbd9d4e23	-0.07680919
49	0xbd8bd3d5	-0.06827513
50	0xbcdbed25	-0.026846478
51	0x3e3852b8	0.18000305
52	0xbe1abd02	-0.15111163
53	0xbdee5f34	-0.11639252
54	0x3c8eadfb	0.017416945
55	0x3e481fdd	0.19543405
56	0xbdedaad5	-0.11604849
57	0xbe82c5c2	-0.25541502
58	0x3d984c8e	0.07436477
59	0x3e00b271	0.1256807
60	0xbd7dd341	-0.061969046
61	0xbd2f8659	-0.042852733
62	0xbe37955f	-0.17928074
63	0xbd5dbacd	-0.054133225
64	0x3d85eaab	0.065389
65	0xbd081134	-0.03321953
66	0x3e144ee9	0.14483227
67	0x3e44ad78	0.19206798
68	0x3d5a5213	0.05330093
69	0x3db363e1	0.08759285
70	0xbe4dd25a	-0.20099774
71	0x3e10b003	0.14129643
72	0x3d592128	0.053010136
73	0xbd11d522	-0.03560365
74	0xbd18e1bf	-0.037324663
75	0xbd8c4147	-0.06848388
76	0xbd8e09b0	-0.069354415
77	0x3ce8d187	0.028420223
78	0x3d5fdab5	0.054651935
79	0xbe340d6f	-0.1758325
80	0x396b18ca	0.00022420581
81	0xbefdf663	-0.4960204
82	0xbda2e93a	-0.07954641
83	0xbdec9f16	-0.11553781
84	0x39bbc7f3	0.00035816393
85	0xbd300bcc	-0.04298
86	0x3d83a7b2	0.0642847
87	0x3db0d586	0.08634476
88	0xbe5c4114	-0.215092
89	0xbdcedb01	-0.101003654
90	0xbe49a14b	-0.19690435
91	0x3de36603	0.111034416
92	0x3cb210d1	0.021736534
93	0xbd90c342	-0.070684925
94	0x3dceaf76	0.1009206
95	0xbdf131df	-0.1177709
96	0xbbdf9172	-0.0068227584
97	0xbcd6fe82	-0.026244406
98	0xbd5ba693	-0.053625654
99	0x3cd5c9fa	0.026097286
100	0xbbf3ca5b	-0.007439894
101	0xbdae211a	-0.08502407
102	0xbcf1f110	-0.029533893
103	0xbd9358ab	-0.071946464
104	0x3da998df	0.08281111
105	0x3dde0967	0.10841637
106	0x3d9a6103	0.07538035
107	0xba56833a	-0.00081830064
108	0x3db4158d	0.08793173
109	0xbe235dd3	-0.1595376
110	0xbc785b40	-0.015158474
111	0x3dfed353	0.12442651
112	0x3cfed8a9	0.031109171
113	0x3dac7b92	0.08422007
114	0xbd9b9b59	-0.075979896
115	0x3d9ae897	0.07563894
116	0x3cf9a283	0.030473
117	0x3dcb73ad	0.09934173
118	0x3c264b53	0.010149795
119	0xbdbb0bac	-0.091330856
120	0x3d19b7a3	0.037528645
121	0xbda7b855	-0.081894554
122	0xbe056026	-0.13024959
123	0xbd56304d	-0.052292157
124	0xbd3b274a	-0.045691766
125	0xbdc7b2ad	-0.097508766
126	0xbe442121	-0.19153263
127	0xbce018ff	-0.027355669
128	0x3d345727	0.044028427
129	0x3e034831	0.12820508
130	0x3d33d6ee	0.043906145
131	0xbe01f019	-0.12689246
132	0xbc0e5eee	-0.008689625
133	0xbe840dfc	-0.2579192
134	0x3c39fae7	0.011351324
135	0x3de67b7d	0.11254022
136	0xbcba8ed8	-0.022773191
137	0xbd8f6ef8	-0.070035875
138	0xbe158d12	-0.14604595
139	0xbe0da1f6	-0.13831314
140	0x3a701b87	0.00091593753
141	0x3cf86baf	0.030324785
142	0xbe8b14ea	-0.27164394
143	0x3d456f18	0.04820165
144	0xbe8c0686	-0.27348727
145	0x3d2df870	0.042473257
146	0xbe230ec1	-0.15923597
147	0x3de30d57	0.11086529
148	0x3c41516c	0.011799198
149	0x3ce42857	0.027851267
150	0x3e22776a	0.15865865
151	0xbdb1c099	-0.08679313
152	0xbd393c47	-0.0452235
153	0xbd2fb529	-0.042897377
154	0x3d444de8	0.04792586
155	0xbda6754e	-0.08127843
156	0x3c7dd0c9	0.015491673
157	0x3d961de1	0.07329918
158	0x3d01b8ed	0.0316705
159	0xbe9c33ec	-0.30508363
160	0x3d3c1ab0	0.04592389
161	0x3ceee124	0.02916009
162	0xbd061290	-0.032732546
163	0x3e026723	0.12734656
164	0x3c7961e8	0.015221097
165	0xbe2a0cf3	-0.16606502
166	0xbd1cc49a	-0.03827343
167	0xbc27f4e9	-0.010251262
168	0x3a67dd94	0.00088449684
169	0xbd050b5c	-0.032481536
170	0x3c3c1d33	0.011481571
171	0xbd778c41	-0.06043649
172	0x3c4564d1	0.012047962
173	0x3d76485b	0.060127597
174	0xbe3bff48	-0.18359101
175	0x3d744035	0.059631545
176	0xbd614967	-0.055001643
177	0xbdd71b65	-0.10503272
178	0xbdb7eb49	-0.08980424
179	0x3daee71f	0.085401766
180	0x3de24589	0.11048419
181	0x3e042f70	0.12908721
182	0x3d07fcb3	0.033199977
183	0xbd9d2158	-0.076723754
184	0x3cdc2220	0.02687174
185	0xbe947748	-0.28997254
186	0x3d00cf69	0.0314478
187	0xbd42079e	-0.047370546
188	0x3e200f1b	0.15630762
189	0x3e0aefed	0.13568087
190	0x3d15b411	0.036548678
191	0x3d4933e8	0.049121767
192	0xbadceb3d	-0.0016854774
193	0x3c8df5c3	0.017329102
194	0xbe251232	-0.16120222
195	0x3e047232	0.12934187
196	0x3dd84336	0.105596945
197	0x3e32a804	0.17446905
198	0x3d134879	0.035957787
199	0xbe51a406	-0.20472726
200	0x3cca422b	0.024689754
201	0xbdafc232	-0.08581962
202	0x3dccd36f	0.10001265
203	0x3c03ec12	0.008051889
204	0xbd97790b	-0.07396134
205	0xbe58025e	-0.21094653
206	0xbd3ea9d5	-0.046548683
207	0xbb999a4f	-0.0046875845
208	0xbcbb19c3	-0.022839433
209	0x3dba2963	0.09089925
210	0xbca9106e	-0.020637717
211	0xbdaf216f	-0.08551299
212	0x3debff17	0.11523264
213	0xbe04e6d3	-0.12978677
214	0x3d81ef88	0.06344515
215	0x3d0dcd88	0.034619838
216	0xbdee5db7	-0.116389684
217	0x3dee8ec6	0.116483256
218	0xbd64da65	-0.05587234
219	0x3dbee002	0.0932007
220	0xbe0297a4	-0.12753159
221	0xbd82816d	-0.06372342
222	0x3a0e6546	0.0005431961
223	0xbe59e46a	-0.2127854
224	0x3e1b9b9d	0.1519608
225	0xbde14292	-0.109990254
226	0xbd584ad2	-0.05280573
227	0xbd076d85	-0.03306343
228	0xba3d8792	-0.00072299794
229	0xbd1a5486	-0.037678264
230	0xbd8ef30a	-0.0697995
231	0x3deefbb9	0.11669106
232	0xbbf3ac64	-0.007436322
233	0xbdc1b811	-0.09458936
234	0xbcde581a	-0.02714162
235	0xbe5005e7	-0.20314752
236	0xbd7eca29	-0.062204514
237	0x3dd2a936	0.10286181
238	0x3cdc5f4f	0.026900915
239	0x3c727827	0.014799154
240	0x3bb36c77	0.0054755765
241	0x3d6bf34d	0.057605077
242	0xbd69034d	-0.056887913
243	0x3e16296e	0.14664242
244	0x3c6c0cb3	0.014407325
245	0xbe3281ee	-0.17432377
246	0x3ce2d31b	0.027688554
247	0xbe158d11	-0.14604594
248	0x3d2e81c7	0.042604234
249	0x3d16508d	0.036697913
250	0xbe50120c	-0.20319384
251	0x3dbe01cd	0.09277687
252	0xbcc40d6a	-0.023932178
253	0xbd3b1169	-0.0456709
254	0xbe3ec6c2	-0.18630508
255	0xbe3e4a0c	-0.18582934

4.bias f4 [128]
0	0xbcbd2e7c	-0.023093455
1	0xbe1feeb4	-0.15618402
2	0x3c803a94	0.015652932
3	0xbdf7d9fc	-0.12102124
4	0xbdbeda50	-0.093189836
5	0xbd9d4f75	-0.07681171
6	0xbdc5e3cc	-0.096625894
7	0x3c80630d	0.015672231
8	0x3c38d5ef	0.0112814745
9	0xbd607495	-0.05479868
10	0xbd885639	-0.06657071
11	0xbe0ad892	-0.13559178
12	0xbcc77bae	-0.024350967
13	0xbd8df673	-0.06931772
14	0xbe3ac701	-0.18239976
15	0xbef388ff	-0.47565457
16	0xbe5e68f6	-0.21719727
17	0xbe37ad45	-0.17937191
18	0xbd99096c	-0.074725
19	0xbd60fffe	-0.054931633
20	0xbd8026ba	-0.062573865
21	0xbe9db5fe	-0.30802912
22	0xbe85edae	-0.26157898
23	0xbdf82bf1	-0.12117756
24	0x3dfc37c2	0.123153225
25	0xbe6cfe2f	-0.23143838
26	0x3c2834ef	0.010266527
27	0xbda0ef2a	-0.07858117
28	0xbd98da97	-0.07463568
29	0x3aea0b4d	0.0017856151
30	0xbefeb74d	-0.49749222
31	0xbe38eac9	-0.18058313
32	0xbd71b6da	-0.05901227
33	0xbe9c4cb2	-0.30527264
34	0xbd701831	-0.05861682
35	0xbd9d630f	-0.076849096
36	0xbcbc4f7c	-0.02298712
37	0xbe264bc0	-0.16239834
38	0xbce92038	-0.028457746
39	0x3ce37e7f	0.027770279
40	0xbe4f1e10	-0.20226312
41	0x3e386653	0.18007784
42	0xbe3aa7b7	-0.1822804
43	0xbd8ac3a2	-0.06775595
44	0xbe09c26a	-0.1345307
45	0xbe681141	-0.22662832
46	0x3c0601cb	0.008179138
47	0xbde690f5	-0.11258117
48	0xbc4ec87b	-0.01262104
49	0xbe10f289	-0.1415502
50	0xbe22ef05	-0.15911491
51	0xbea45d81	-0.32102588
52	0x3bef3c04	0.0073008556
53	0xbde2923d	-0.11063049
54	0xbe646c15	-0.22306855
55	0xbdf31cbb	-0.11870714
56	0xbdd6572c	-0.104658455
57	0xbdc0fb88	-0.09422976
58	0x3cad8109	0.021179693
59	0xbca25a18	-0.01981835
60	0xbe7aa53f	-0.24477099
61	0xbde3de2e	-0.11126362
62	0xbe72e291	-0.2371924
63	0xbd3ec55f	-0.046574946
64	0x3c9a977a	0.018871058
65	0xbe769c81	-0.24083139
66	0xbe2a57ba	-0.16635028
67	0xbdbb8e10	-0.09157956
68	0xbc800ac6	-0.015630137
69	0xbe4ab1ed	-0.19794436
70	0xbc9536ef	-0.018214671
71	0xbd830264	-0.0639694
72	0xbd9d43bf	-0.07678937
73	0xbe3c1b83	-0.1836987
74	0xbd6226be	-0.05521273
75	0xbe0ac811	-0.13552882
76	0x3cf993ba	0.03046595
77	0xbe8221e4	-0.25416481
78	0xbeb9e068	-0.3630402
79	0xbe397fe4	-0.18115193
80	0xbe6b21eb	-0.22962157
81	0xbdb539c9	-0.08848912
82	0xbe035480	-0.12825203
83	0xbe24a322	-0.16077855
84	0xbdcd21ae	-0.100161895
85	0x3dc50c87	0.0962153
86	0x3972e5ac	0.00023164478
87	0xbe6c6271	-0.23084427
88	0xbe4e8ea3	-0.20171599
89	0xbe04dd44	-0.12975031
90	0xbe939bbe	-0.2882976
91	0xbdc14a77	-0.09438031
92	0xbdd039ee	-0.10167299
93	0xbdb4f55c	-0.08835861
94	0xbe9eb15f	-0.30994698
95	0xbe662110	-0.2247355
96	0xbe8a6da6	-0.2703678
97	0xbc594d58	-0.013263069
98	0xbe104f41	-0.14092733
99	0xbd756969	-0.05991498
100	0xbd1f0667	-0.038824465
101	0xbe30f90e	-0.17282507
102	0xbe4c9e2f	-0.19982217
103	0xbbbf5279	-0.005838689
104	0xbe21cb4c	-0.15800208
105	0xbe2954da	-0.16536275
106	0x3c780c9f	0.015139728
107	0xbe4c97a1	-0.19979717
108	0xbe15a952	-0.14615372
109	0xbbecd991	-0.0072280844
110	0xbe4b1238	-0.19831169
111	0xbe6d8d19	-0.23198356
112	0xbd3c0938	-0.04590723
113	0xbd42654f	-0.047459897
114	0xbdd5257f	-0.104075424
115	0x3d31c563	0.043401133
116	0xbe016a64	-0.12638241
117	0x3d16bdc7	0.03680208
118	0xbd9e4090	-0.07727158
119	0xbc720a80	-0.014773011
120	0xbe48b034	-0.19598466
121	0xbe8adcb1	-0.271215
122	0x3d12a8dd	0.03580557
123	0xbe1be197	-0.15222774
124	0xbe60bffb	-0.21948235
125	0xbda33596	-0.07969205
126	0xbe06dc1c	-0.13169903
127	0x3d33fa9c	0.04394017

6.weight f4 [12, 128]
0	0x3ab279d1	0.0013616626
1	0xbd7cf0ea	-0.06175319
2	0xbc2e4aac	-0.01063792
3	0x3c61b8b3	0.013776946
4	0x3c08ddbe	0.008353649
5	0xbbe1ee91	-0.0068948944
6	0xbdc4326c	-0.0957993
7	0xbd537db8	-0.051633567
8	0xbdc336c8	-0.09531933
9	0xbcfa935c	-0.030587845
10	0x3c8c4245	0.017121444
11	0x3cdcf532	0.026972387
12	0x3d077097	0.03306636
13	0x3da77a5a	0.081776336
14	0xbb949c8e	-0.0045352643
15	0x3d8e63af	0.06952607
16	0x3d6f1b64	0.05837573
17	0x3ca85935	0.02055035
18	0xbd87446f	-0.066048495
19	0x3d1a3eb2	0.037657447
20	0x3d1eca0d	0.03876691
21	0x3d53c815	0.051704485
22	0x3c0820a4	0.008308563
23	0xbc99ec7b	-0.01878952
24	0xbcd8758c	-0.026423238
25	0xbd0c2333	-0.034213256
26	0xbd00f277	-0.031481232
27	0xbc2f4813	-0.010698336
28	0x3da59878	0.08085722
29	0x3d00a4d2	0.031407185
30	0x3c8a5b8e	0.01688936
31	0xbd0c43f4	-0.034244493
32	0x3c4eb2ea	0.012615899
33	0xbdba21bb	-0.09088465
34	0xbce422a8	-0.027848557
35	0x3bdf8fb0	0.006822549
36	0xbcfa7537	-0.03057347
37	0xbda20b57	-0.07912319
38	0x3d16db4a	0.036830224
39	0x3b978c14	0.004624853
40	0xbd157027	-0.03648391
41	0x3c43fd30	0.01196222
42	0x3d6362d8	0.055514187
43	0xbce80d90	-0.02832678
44	0xbd8df0d8	-0.06930703
45	0xbb586b26	-0.003302285
46	0x3d04286d	0.032265116
47	0x3d001e04	0.031278625
48	0x3ca7f2d6	0.020501535
49	0x3ce0dfe3	0.027450508
50	0x3dc70872	0.09718408
51	0x3bb09d74	0.0053898636
52	0x3d0c7a87	0.03429654
53	0x3d0c9a41	0.034326795
54	0xbd8462f0	-0.06464183
55	0xbd2c5b36	-0.042079173
56	0x3c9492ff	0.0181365
57	0x3c54e484	0.0129939355
58	0xbdd04123	-0.10168674
59	0x3d567715	0.05235966
60	0xbd2986b1	-0.041388217
61	0x3ca4bbae	0.020109024
62	0x3db6b409	0.08921058
63	0xbc09cef2	-0.008411156
64	0xba2ff613	-0.0006712388
65	0x3d85958e	0.06522666
66	0x3d6b12df	0.057391044
67	0xbc89b1fb	-0.0168085
68	0xbcd319ba	-0.025769103
69	0xbcd2a5f0	-0.02571389
70	0xbcf1d4ad	-0.029520357
71	0x3c2b065d	0.010438529
72	0x3d921656	0.071331665
73	0xbbf53d80	-0.007484138
74	0xbbb4c13a	-0.0055161985
75	0x3b4102cc	0.002945113
76	0xbc4433ff	-0.011975287
77	0x3bd78226	0.006576794
78	0x3c0329e8	0.008005597
79	0xbd7c9d7f	-0.061673637
80	0xbd11cfdf	-0.035598632
81	0xbd305fd2	-0.04306013
82	0xbc3c2339	-0.011483007
83	0xbc40ca12	-0.011766927
84	0xbb89b2ee	-0.0042022383
85	0xbd17635f	-0.036960002
86	0xbe055444	-0.13020426
87	0xbceda41e	-0.029008921
88	0xbc98a661	-0.018634023
89	0xbd319041	-0.043350462
90	0x3ba9ad94	0.005178163
91	0x3d868ec5	0.065702
92	0x3bbd87bd	0.0057840035
93	0xbcff90ae	-0.031196918
94	0x3d1bb668	0.038015753
95	0x3d368462	0.044559844
96	0x3d32a8f1	0.043618146
97	0xba52e974	-0.00080456515
98	0x3da7f1f3	0.08200445
99	0xbc3741bb	-0.011185105
100	0xbd7433c3	-0.059619676
101	0x3d7d68d1	0.06186754
102	0x3da0cea5	0.07851914
103	0x3d0f606c	0.035004064
104	0xbd09eb5b	-0.033671718
105	0x3cc5aad6	0.024129312
106	0xbd26de13	-0.04073913
107	0xbcf1dcff	-0.029524324
108	0xbcd89032	-0.026435945
109	0xbcefb225	-0.02925975
110	0x3c89f71a	0.01684146
111	0xbc00aec4	-0.007854167
112	0x3c4d74ef	0.012540086
113	0xbd58a7b9	-0.052894328
114	0xbc90a097	-0.0176547
115	0xbd0fef21	-0.03514016
116	0x3df0efb7	0.11764472
117	0x3d2b8994	0.04187925
118	0x3dd6dc7b	0.10491272
119	0x3d488026	0.048950337
120	0xbd1501ce	-0.036378674
121	0x3d8fe289	0.0702563
122	0xbd065532	-0.032796092
123	0x3d0e0abe	0.034678213
124	0xbdf42e83	-0.11922934
125	0xbc8af64f	-0.016963152
126	0x3d85af1a	0.065275386
127	0x3a849776	0.001011594
128	0x3b667b47	0.0035168694
129	0x3d242a1c	0.04007922
130	0xba8bd554	-0.0010668435
131	0xbcf8462f	-0.030306904
132	0x3c21d5a4	0.009877596
133	0x3ce8be1e	0.028410967
134	0x3cbea3c0	0.023271441
135	0x3d8c967c	0.0686464
136	0xbc7e4cef	-0.015521272
137	0xbbce20a7	-0.0062905136
138	0xbb4b93e0	-0.0031063482
139	0x3d93767d	0.07200334
140	0x3cce570d	0.025187993
141	0x3bba02ec	0.005676618
142	0xbcab41b5	-0.020905355
143	0x3d36ef01	0.044661526
144	0x3d5fe3e7	0.054660704
145	0xbd540ead	-0.05177181
146	0x3ce0e813	0.027454412
147	0xbd700cf8	-0.058606118
148	0x3cd3afa8	0.025840595
149	0xbd013db8	-0.031553
150	0xbd474fb8	-0.04866001
151	0xbdae6ae8	-0.085164845
152	0x3d2cf000	0.04222107
153	0x3c87984f	0.016552119
154	0x3d15e101	0.036591534
155	0xbc869922	-0.016430441
156	0xbd2b0ad5	-0.041758377
157	0xbc96eb20	-0.018422663
158	0x3bc534c8	0.006018255
159	0x3bc25a7d	0.005931197
160	0xbc6e8e22	-0.014560254
161	0x3cbccc8d	0.023046756
162	0x3ce3761a	0.027766276
163	0x3cc5a596	0.02412681
164	0xbd0a3465	-0.033741374
165	0x3cec70ef	0.028862445
166	0x3d2061b3	0.039155673
167	0xbc84a58d	-0.016192222
168	0x3d846fd6	0.064666435
169	0x3cd0ed47	0.025503768
170	0x3ce69f3d	0.028152103
171	0x3d2ae44a	0.04172162
172	0x3d154b34	0.036448672
173	0xbd4b8ce5	-0.049694914
174	0xbcabbbc4	-0.020963557
175	0xbc0b87bd	-0.008516249
176	0x3cc4a3c3	0.024003869
177	0x3bc22a62	0.0059254626
178	0x3bb07ffb	0.00538635
179	0x3c9d530d	0.01920464
180	0x3c07970f	0.008275761
181	0xbb59e816	-0.0033249906
182	0xbccba664	-0.024859615
183	0xbd59aef7	-0.053145375
184	0x3cf36558	0.02971141
185	0x3c490ba0	0.012270838
186	0x3d784941	0.060616735
187	0xbca9de3b	-0.02073585
188	0xbb8927fa	-0.004185674
189	0x3cf0ec6b	0.029409608
190	0x3d94c0cb	0.07263335
191	0x3cf8737e	0.030328508
192	0x3cca5496	0.024698537
193	0x3d0acb38	0.03388521
194	0xbd73292b	-0.059365433
195	0x3d363a0b	0.044488948
196	0x3c80a63c	0.015704267
197	0xbd099cb1	-0.0335967
198	0xbbe11e0b	-0.0068700365
199	0xbbfd9d31	-0.007739686
200	0xbda08485	-0.07837776
201	0x3d0c9ddd	0.034330238
202	0x3d8a5994	0.06755367
203	0xbd2685ba	-0.040654875
204	0xbaacbc28	-0.0013178634
205	0x3bae1ca3	0.0053134724
206	0x3c9ea43d	0.019365424
207	0xbd4d3a86	-0.05010464
208	0xbb337195	-0.0027380933
209	0x3d81143e	0.06302689
210	0x3cfb58fd	0.030682081
211	0x3a97765c	0.001155566
212	0xbc93473f	-0.017978309
213	0xbd27a0a1	-0.040924672
214	0x3d9f5dfc	0.07781598
215	0xbd8a8784	-0.06764129
216	0xbd36ab92	-0.044597216
217	0xbcfb0e81	-0.030646564
218	0xbd3f4aaa	-0.046702065
219	0xbd048376	-0.032351933
220	0xbce5a4c1	-0.028032662
221	0xbc63a6ad	-0.013894719
222	0xbce54fcf	-0.027992157
223	0x3ce7a5f0	0.028277367
224	0xbc2b68f8	-0.010462038
225	0x3c86dd76	0.016463023
226	0xbd897586	-0.06711869
227	0x3d0c37d1	0.03423292
228	0x3c2916a5	0.01032034
229	0xbd21aa00	-0.039468765
230	0x3c1ccf37	0.009570888
231	0x3d12e433	0.03586216
232	0x3e1324ae	0.14369461
233	0x3baffecb	0.00537095
234	0xbc760d5d	-0.0150178345
235	0xbda36833	-0.07978859
236	0xbd934dc2	-0.071925655
237	0x3c97b646	0.018519532
238	0xbd8aeb5d	-0.06783173
239	0xbbd50d81	-0.006501854
240	0xbd39d076	-0.04536482
241	0x3d273636	0.040823184
242	0x3cdef908	0.027218357
243	0xbc69cd9d	-0.014270213
244	0xbda0f280	-0.07858753
245	0x3c59748b	0.013272415
246	0xbd9698c1	-0.07353354
247	0xbd94deb0	-0.07269037
248	0xbc089347	-0.008335895
249	0xbc0abc64	-0.008467767
250	0xbcd25c5b	-0.025678804
251	0xbd6d7108	-0.057969123
252	0xbc19d0f8	-0.009388201
253	0xbd89377a	-0.067000344
254	0xbd0844fb	-0.03326891
255	0x3d1c48f8	0.038155526

6.bias f4 [12]
0	0x3decf2c5	0.11569742
1	0x3d740d8c	0.05958323
2	0xbcbd4ec4	-0.023108847
3	0x3c93d376	0.018045168
4	0xbe35e120	-0.1776166
5	0xbe6069b7	-0.21915327
6	0x3e6a8191	0.22900988
7	0x3e1dfc67	0.15428315
8	0x3ca5e850	0.020252377
9	0x3ccddc0f	0.025129346
10	0x3de1c51a	0.11023922
11	0x3df54d39	0.1197762
