onnx_inference/data/model.onnx (onnx, 166363 bytes, 8 tensors)

0.weight f4 [128, 52]
000000 18 7b ed 3e b5 f3 75 3e 15 f2 24 3e 86 d8 25 3c
       0.46382976 0.24018748 0.16107972 0.010122424
000010 03 f0 83 bc 04 76 15 bd e9 ab ea bd e5 cb 5f 3d
       -0.016105657 -0.0364895 -0.114585705 0.05463781
000020 36 91 99 be cc a6 8f 3e e2 86 2b 3e 4f bd cc 3d
       -0.299936 0.28056943 0.16750672 0.09997045
000030 a7 bd 93 be 3d 48 03 3f e7 32 61 be 6c 5e 66 3c
       -0.2885563 0.512821 -0.21992074 0.014060598
000040 68 dd 48 3e 80 34 25 3f 5c 23 72 3e be b1 10 3e
       0.1961571 0.64533234 0.23646301 0.14130303
000050 e0 51 4c bd 3f ee 7e 3f c7 66 c9 bd 1a 39 cf 3e
       -0.04988277 0.99582285 -0.09834056 0.40473253
000060 29 c2 04 3b b3 7d 20 3d 65 b8 06 3d 14 e3 dd 3d
       0.002025733 0.039182376 0.032890696 0.10834327
000070 eb 32 02 3e 94 f2 9d 3d ee 87 8e bd da 56 8d bd
       0.12714736 0.07712284 -0.0695952 -0.06901331
000080 40 99 20 3d 14 00 a2 bd 46 35 16 3d a0 85 5c 3e
       0.03920865 -0.07910171 0.0366719 0.21535349
000090 06 fb c3 be 20 07 90 bd b3 02 bf 3d 97 60 b1 bc
       -0.38277453 -0.07032609 0.09326687 -0.021652503
0000a0 59 18 97 3d 62 e4 02 3e 91 a3 11 3e 8c 76 df bd
       0.07377691 0.12782434 0.14222552 -0.10911283
0000b0 2f 3d 9b bd 4e a5 5a 3e be fe d4 39 8e f6 1c 3e
       -0.07580029 0.21352121 0.0004062559 0.15328428
0000c0 b9 7f 48 bd 9d 99 be bd 93 13 09 bd bd ed 14 be
       -0.04894993 -0.09306643 -0.033465933 -0.14543815
0000d0 d1 cf 56 3f 76 36 b1 bf d4 c7 96 3e 8a 5c 05 3d
       0.8391085 -1.3844745 0.29449332 0.032558955
0000e0 11 95 a7 bc be 7d ff 3b 6f 5c f0 bd e0 0b 89 3e
       -0.020456823 0.007796972 -0.1173638 0.26766872
0000f0 41 22 87 bc 77 95 06 3f 76 fa 10 bf 29 68 1d 3e
       -0.016495826 0.52571815 -0.56632173 0.15371765
000100 29 5f 42 be 26 0e a4 3e da 76 58 bf 48 ed d6 3e
       -0.18981613 0.32042044 -0.84556353 0.41977906
000110 b4 1b 03 3f bd da 3d 3f 2c 07 33 3d 2e 7e b5 3e
       0.51214147 0.74161893 0.04370801 0.3544783
000120 d7 c7 f6 3e 34 82 eb bc e2 d7 da 3e 51 e9 50 3d
       0.4819934 -0.02874861 0.4274283 0.051003758
000130 c3 37 68 bd e6 09 72 bd 92 a8 11 3e 09 54 37 bd
       -0.056693804 -0.05909147 0.1422446 -0.044757877
000140 04 35 19 bd be 7d 0b bd 5c 77 98 3d a1 48 2a bd
       -0.037404075 -0.034055464 0.07444641 -0.04157317
000150 61 01 90 bd 22 17 2e 3c 1f 87 09 3d 90 4e da 3d
       -0.07031513 0.0106256325 0.033576127 0.10659516
000160 62 d3 3f 3d 8b 3f c0 3b c7 82 16 be 10 ee 3d be
       0.04683245 0.00586695 -0.14698325 -0.18547845
000170 a3 57 92 3c b8 f9 7a bd b4 ef 92 3e fa b5 77 3e
       0.017864054 -0.061273307 0.28698504 0.24190512
000180 4b 4d 53 3c ac 84 93 be 3d e2 0c be a2 b0 ab bd
       0.012896846 -0.28812158 -0.13758178 -0.083832994
000190 f2 ce 28 be 5e 46 56 3e 91 2e c3 be 67 50 39 bd
       -0.16485193 0.2092528 -0.38121465 -0.045242693
0001a0 3d 2f 9e 3d 76 d2 c2 be 30 b2 62 3e 56 82 bf 3c
       0.07723854 -0.38051194 0.22138286 0.023377579
0001b0 8d da f6 3a 7d fa 25 3c 99 99 88 3d c0 b0 d6 3a
       0.0018833444 0.010130522 0.066699214 0.001637958
0001c0 06 3a 33 3e a3 dd 3d bd 75 04 97 3d 34 c3 f0 be
       0.17502603 -0.046353947 0.07373897 -0.47023928
0001d0 85 67 11 3f a1 9e 15 3f a3 83 59 be 5b 78 4d 3f
       0.56798583 0.58445174 -0.21241622 0.8026177
0001e0 a0 aa df 3e 71 be c2 3c dc 9a 17 3f 2d db 0b 3e
       0.43684864 0.02377245 0.5922067 0.13657828
0001f0 df 06 b7 3e 50 66 25 be 65 25 1d bf 0b d9 17 3f
       0.3574743 -0.1615231 -0.61385185 0.59315556
000200 4d 2f ed bc 7c 17 ae 3c 3c 34 5a 3d 6e 19 a3 bd
       -0.028953219 0.021251433 0.05327247 -0.07963835
000210 5f 55 2d bd 58 13 ca 3c a7 c0 f9 bc 26 44 6c 3d
       -0.042317744 0.024667427 -0.030487372 0.05768218
000220 c1 c0 d2 3c 45 f1 02 bc 87 10 85 3c 70 93 b7 bc
       0.025726678 -0.007992093 0.016243232 -0.02240917
000230 4b 96 a3 3e a5 16 06 3e 54 1e 28 3e 96 55 bd 3d
       0.31950602 0.13094576 0.1641782 0.0924484
000240 5e b8 d5 3c 6c 13 f5 bc b5 7f 34 3e eb 7b 7d 3d
       0.02608889 -0.029916488 0.17626841 0.061885756
000250 9e f2 5f be 55 16 cb 3d d5 fb 57 be bb 6e 1d be
       -0.21869895 0.09916369 -0.2109216 -0.15374272
000260 95 00 20 bb 9a 69 a1 3d e6 c9 40 3e 36 24 a0 bd
       -0.002441441 0.0788147 0.18827018 -0.07819407
000270 bf e4 2a 3e 16 18 3c 3f e5 e2 a1 3d d4 65 fb bc
       0.16688822 0.7347425 0.07904605 -0.030688204
000280 d3 1b 58 3a 8d 91 7e bb 04 c5 bc 3c 51 8e f6 3a
       0.0008243892 -0.003884408 0.023043163 0.0018810724
000290 82 da 17 3d 83 74 14 bf 68 6a 29 be f7 46 cf be
       0.03707362 -0.5799028 -0.16544497 -0.4048383
0002a0 d0 ba 9f 3e e7 4e ee be ac 01 82 bf 51 61 96 be
       0.31197214 -0.46544573 -1.015676 -0.29371122
0002b0 9c 83 5a bf 1f 64 1a 3f 1f cf d6 3d 95 d4 9f be
       -0.8535707 0.6030902 0.10488724 -0.31216875
0002c0 cd 47 81 bc 3c 21 af bd ee b8 01 bf d4 59 b2 3e
       -0.015781308 -0.08551261 -0.50672805 0.34834158
0002d0 d3 42 2f bb af cc 4c bc 24 76 29 bc ba 9e 0c 3d
       -0.0026742711 -0.012499972 -0.010343108 0.03433106
0002e0 6c 35 8f 3c 97 65 1a 3c d7 42 82 bc 40 98 f1 bb
       0.017481528 0.009423635 -0.015901012 -0.007372886
0002f0 b6 79 dc 3d 83 49 c9 3b f8 c0 16 bd 00 ba fe 3c
       0.10765402 0.0061427965 -0.036805123 0.031094551
000300 73 6f 76 3d 6d 87 6c 3c d4 ac b6 be ce e7 9d be
       0.06016488 0.014436585 -0.35678732 -0.30840915
000310 bc e3 f9 3c 56 be 5b 3c c9 5c 45 be ef d6 90 3e
       0.0305041 0.013412079 -0.19273676 0.2828898
000320 c8 68 8d 3c 42 f9 b1 bd 9f 78 19 be 87 51 d6 3d
       0.017261878 -0.0869012 -0.1498742 0.10464769
000330 af 63 27 bd a4 b7 88 3d fa ab ba 3e 91 53 5d be
       -0.04086655 0.06675652 0.36459333 -0.2161391
000340 0e fb a6 3e f7 04 f8 3e 8e 17 d2 3d 65 7c 24 3d
       0.32613415 0.48441288 0.10258399 0.040157694
000350 e9 1c d3 3c 87 c9 04 3c 14 69 ec 3c ae c9 96 3d
       0.025770621 0.0081046885 0.028858699 0.07362686
000360 3d 58 5a 3e 66 88 20 bf 15 71 37 3f 1d 77 6e bf
       0.21322723 -0.6270813 0.71656924 -0.931505
000370 83 ec ce 3d 05 53 18 3e 9b 1c 92 be ea 9e 9a 3c
       0.10103705 0.1487542 -0.2853745 0.018874604
000380 42 55 43 3f 8a 95 13 bf 77 98 da 3e 8d af 85 be
       0.7630197 -0.57650054 0.42694446 -0.26110497
000390 ef 34 ed 3e 8b 08 28 3e 4b 9d dd 3e f3 40 e9 3e
       0.46329448 0.16409509 0.43284068 0.45557365
0003a0 50 a9 00 3c f4 85 9e 3d cc 7a 96 bd da a5 63 bd
       0.007852867 0.07740393 -0.073476404 -0.05557809
0003b0 77 f8 ff 3c 07 be 06 bd 55 52 0b bd 1e 57 29 bd
       0.031246407 -0.032896068 -0.034014065 -0.041342847
0003c0 2c 4b 99 bb b5 e8 19 be 51 3b ff 3b ad d3 e2 bc
       -0.0046781506 -0.15030177 0.0077890535 -0.027688826
0003d0 38 00 d6 bc 78 db 7d 3d 9a e0 81 3e 96 2a 73 3c
       -0.026123151 0.06197688 0.2536667 0.014841696
0003e0 21 1d 90 be 2d c3 c2 be 4a 19 2c 3e 3e 88 8c 3e
       -0.28147224 -0.38039532 0.16806522 0.27447695
0003f0 49 4e 15 3e be d6 d8 3c 63 3f 63 3e 47 97 48 be
       0.14580645 0.026469585 0.22192149 -0.19588958

0.bias f4 [128]
000000 aa d4 71 bd 12 d2 fb bd 46 c8 2a be 0f a7 b1 bd
       -0.059040703 -0.12295927 -0.16677961 -0.08674442
000010 5a 22 6e 3c 2b 63 e5 bd b8 41 64 bd de db 2f 3e
       0.014534557 -0.112005554 -0.055726737 0.17173716
000020 be 5a 2c bd 5f 37 15 bd 4c 90 95 3c 73 63 8c bd
       -0.042078726 -0.03642976 0.018257283 -0.06854906
000030 ec 71 1d be 6d c6 ae be 94 63 f8 3d 80 7a dc bd
       -0.15375489 -0.34135762 0.12128368 -0.107655525
000040 c9 98 d4 bd 12 8e 13 be 15 5d b8 3d f1 39 f9 3d
       -0.10380704 -0.14409664 0.09002129 0.121692546
000050 2d 7a fc bd 4c e3 e6 bd a4 14 25 be a5 1a 14 3e
       -0.12327991 -0.11273822 -0.16121155 0.14463289
000060 1c 5b 36 be 43 e5 03 3e b3 65 25 be 32 9b 81 3d
       -0.17808193 0.12880425 -0.16152076 0.06328429
000070 c7 8d 3c be 23 11 84 3d a5 79 a3 bd 9c 9b 72 3d
       -0.18413459 0.06448581 -0.07982186 0.059230432
000080 0e 9e 1c 3d bb 51 f5 3d e8 4f 5f 3d 2f de 92 be
       0.03823667 0.119784795 0.054519564 -0.28685138
000090 81 e1 0b bd e5 a4 63 3d d5 78 0e 3d f5 50 96 bd
       -0.034150604 0.055577178 0.034783203 -0.0733966
0000a0 98 bb 92 bd 61 25 3c 3e 70 ce 3b 3e 2a 5a 8d bc
       -0.07164687 0.18373634 0.18340468 -0.017254908
0000b0 32 0c 1c 3c 04 59 df bd d0 16 8f bb 09 14 78 bd
       0.009524392 -0.1090565 -0.004366733 -0.060565982
0000c0 f2 9f 98 3d 5f 71 58 3e 8b ef a0 3d 78 cc 14 bd
       0.07452382 0.21136998 0.07858189 -0.03632781
0000d0 c9 03 d6 bd 27 df 05 3e 9f c8 c4 bd f9 9d 69 bd
       -0.10449941 0.13073407 -0.09608578 -0.05703542
0000e0 3e 6c e8 3d 8c 09 d6 bd ba ee e4 3d bf ed 8b bd
       0.113487706 -0.1045104 0.11178346 -0.06832456
0000f0 ad d5 99 be 46 22 fd bc 0e 64 58 be 78 3b b6 3d
       -0.30045834 -0.030900132 -0.21131918 0.088980615
000100 44 da bd 3d 50 9d 40 be f1 a1 2b bd 61 38 3e bd
       0.092701465 -0.1881001 -0.041902486 -0.046440486
000110 aa 97 37 be 81 4b f2 bd af 32 f0 3d be d3 aa 3b
       -0.17928949 -0.118308075 0.11728417 0.00521323
000120 50 3f 1b 3d aa e1 22 bd 43 60 65 be b9 c9 12 be
       0.037902176 -0.03976599 -0.22400002 -0.14334764
000130 6f f0 ab 3d 0f 4c 59 3d 21 31 16 3a 97 48 23 3e
       0.083954684 0.05305105 0.00057293667 0.1594566
000140 09 79 13 bd 3d b7 0e be 30 27 ce 3d d9 bb 45 be
       -0.0360041 -0.13937087 0.10066068 -0.1930994
000150 05 8d 2a be 1c f3 d9 3d d6 3c 2b bd f7 8a d0 3d
       -0.16655357 0.106420726 -0.041806065 0.101827554
000160 bd ed 4e be 4c ab 94 3d 4c e7 e1 3b 18 b6 39 bd
       -0.20207877 0.07259235 0.006894028 -0.045339674
000170 6c aa 60 3d 92 1c f4 bc 48 ab 0d be b2 e8 ad 3d
       0.054850027 -0.02979878 -0.1383487 0.08491649
000180 9a b1 5b bd d7 29 0c bd 1a cc ab bc c3 b8 41 bc
       -0.05363617 -0.03421959 -0.020971347 -0.011823836
000190 33 35 cd 3d 20 8f 3c bd db ce 7e 3d a7 e1 16 3e
       0.100199126 -0.046034932 0.06220899 0.14734517
0001a0 74 03 c1 3d ef cf a1 3d 1a 3f 35 be 2a 74 dd bd
       0.09424487 0.07900988 -0.17699853 -0.10813172
0001b0 10 ac a4 bd 13 69 13 bd ed c8 53 3e e6 8f 6c 3d
       -0.08040631 -0.03598888 0.20682116 0.05775442
0001c0 de 45 65 3c 1a 56 f1 bd 21 c6 8f bd e7 46 f4 3d
       0.013993708 -0.11784001 -0.07020212 0.11927586
0001d0 2c 21 9f 3d 72 d2 1f be 33 85 3a be 24 34 31 bd
       0.07769999 -0.15607622 -0.18214874 -0.043262616
0001e0 83 02 58 bd bf eb 22 3e 12 21 1f be 9c 78 92 3d
       -0.05273677 0.15910242 -0.15539959 0.07151911
0001f0 88 e0 d6 3d a3 db 0f 3e c5 b6 ac 3d e6 4e 85 3d
       0.10492045 0.14048629 0.08433298 0.06509189

2.weight f4 [128, 128]
000000 aa 18 8e 3e 27 c9 e1 bc b9 30 80 bd 22 32 6b bd
       0.27753192 -0.027561737 -0.06259293 -0.057420857
000010 18 09 24 bd c1 66 a1 bd dd e9 52 3d b3 ac 4f 3c
       -0.040047735 -0.07880927 0.05149256 0.012675452
000020 00 87 6e be 56 ff 1e bd f5 cd 27 3e 80 42 9b bc
       -0.23293686 -0.038817726 0.1638716 -0.018952608
000030 6f 78 01 3e 10 00 9a 3d 54 37 38 be a0 ce f0 3c
       0.12643598 0.07519543 -0.17989856 0.029395401
000040 fe 03 00 3d bf 59 ea bd e5 ca a2 bd f2 07 8a bd
       0.031253807 -0.11442899 -0.07948855 -0.06739797
000050 ce 85 e0 3c e0 bd a0 bd cd 15 39 bd 68 0a d4 3c
       0.027407553 -0.07848716 -0.045186806 0.025883868
000060 50 21 da 39 54 32 db bd bd af 83 3c b6 2b 64 be
       0.0004160502 -0.10702959 0.01607501 -0.222823
000070 b1 6c 63 bd 66 c5 67 be d8 c1 a4 bd cb eb 5b be
       -0.055523578 -0.22633895 -0.08044785 -0.21476667
000080 7f 8c 11 be be ba 95 bc c3 10 ba 3d 10 61 1c 3e
       -0.14213751 -0.018277522 0.09085228 0.15271401
000090 dd fd 1f bd c6 ff 25 3e b8 8c e2 3a af a6 d2 bd
       -0.039060462 0.16210851 0.0017284369 -0.102856986
0000a0 ac 2c 7d 3c 8c cf c4 3b 81 76 28 3c 45 07 76 3d
       0.015452545 0.006006187 0.01028216 0.060065527
0000b0 c2 5b 86 bb c8 f1 c8 3d 26 61 14 be 08 d5 87 3e
       -0.004100294 0.09811741 -0.14490184 0.26529717
0000c0 47 a3 1e be 97 9d 30 3d 74 e0 21 bd 4a e4 eb 3d
       -0.15491973 0.04311904 -0.039520696 0.11518152
0000d0 54 dd 1d 3d 30 3a f0 3d dd de 0c bd e3 97 ff bd
       0.038541153 0.117298484 -0.034392226 -0.12480142
0000e0 18 fb c4 bd 03 7c 1a 3d 7a 88 a4 bd ed a3 10 be
       -0.09618205 0.037715923 -0.08033843 -0.14125033
0000f0 53 f2 c2 3d a6 50 8d be 7f d5 d0 3c e9 67 83 bd
       0.09518876 -0.27600592 0.025492428 -0.06416304
000100 f1 86 00 3d 6e f3 95 bd e9 07 83 3c f9 32 1f 3c
       0.03137869 -0.07321821 0.015994983 0.009716743
000110 a9 45 ab bd 5e 91 10 3e 5e 88 b2 bd 0d a4 2c 3e
       -0.08362896 0.14117953 -0.08717416 0.16859455
000120 5a ca da bd 2f 7c 7d 3d 3b 8b b5 3d fb 00 ac bc
       -0.10683127 0.06188601 0.08864447 -0.020996561
000130 c9 89 c1 3d 7b a4 94 3d 36 bc 50 be 62 6d 6b bd
       0.094501086 0.07257935 -0.20384297 -0.057477362
000140 2c ac 17 3e bc 01 09 bd 08 12 f1 bd 63 9c 05 bd
       0.14811772 -0.03344892 -0.11771017 -0.032619845
000150 7f 9b 00 bd e0 47 be 3d ab b0 81 bc 65 2c 15 3e
       -0.031398293 0.09291053 -0.015831312 0.14567716
000160 a3 5a 8b 3e e2 5c 36 3d 0e 84 28 be a5 f4 13 3e
       0.27217588 0.044522174 -0.16456625 0.14448793
000170 f3 46 a6 bc 4b 70 ac 3d 23 b5 b4 3c 18 09 e4 bd
       -0.020297503 0.08419856 0.022059029 -0.11134547
000180 86 b8 23 be 3d 34 69 bd 5d 25 eb bd 04 06 23 3e
       -0.15988359 -0.056934584 -0.11481736 0.15920264
000190 14 46 1a be 26 da 86 bc 1a 94 d1 bd 6d b0 d8 bc
       -0.15065795 -0.016461443 -0.10233326 -0.026451314
0001a0 d2 6e 83 3d 5c b4 14 bd 7a cd 6a bd 03 37 07 bc
       0.06417622 -0.036304817 -0.057324864 -0.008252862
0001b0 b6 1a 13 bd fc 21 33 3d ca 4a 14 3c 15 8c 08 3d
       -0.035914145 0.043733582 0.009051034 0.033336718
0001c0 cb be 6a bd d6 5f 30 3d de 63 53 bc 2a df 51 be
       -0.05731086 0.043060146 -0.012902228 -0.20495287
0001d0 70 d9 13 3c 6d 67 10 3e 2a b9 1c 3e ec 73 20 bd
       0.009024009 0.14101954 0.1530501 -0.03917305
0001e0 d7 63 c4 bd 36 60 4e bc 7b ed c2 3b 61 ab 83 3d
       -0.095893554 -0.012596181 0.00594872 0.06429172
0001f0 8d 54 b5 3d 03 b0 1f be f7 70 a2 3c 8f 14 82 3e
       0.088540174 -0.15594487 0.019829256 0.2540631
000200 98 75 0b be 63 1a 47 bd 03 a4 f9 bc 3b 7d b1 be
       -0.13619077 -0.04860915 -0.030473715 -0.34665856
000210 81 6f b4 3d 39 98 92 bd e6 f8 54 bd 0c 46 2d 3e
       0.0881033 -0.071579404 -0.05199518 0.16921252
000220 c1 75 12 be d3 d3 10 3e ac 98 33 3e dc cc 61 be
       -0.14302732 0.14143305 0.17538708 -0.22050804
000230 a0 ae 80 be 7f 5a 86 bc 0d e3 ba 3d 73 eb f6 bc
       -0.25133228 -0.016400574 0.09125338 -0.030141568
000240 06 14 c9 bd 6f 87 d5 bc 71 eb 6d 3d dc 9c ed 3c
       -0.09818272 -0.026065556 0.058085863 0.02900546
000250 72 67 a2 3d d5 dc 26 bc 2d fd 38 3d f6 78 0c be
       0.07929887 -0.010184486 0.045163322 -0.13718018
000260 2b 91 d0 bd b4 50 0c bd 9e 09 e0 bd 45 d7 89 bd
       -0.101839386 -0.034256652 -0.10939334 -0.067305125
000270 97 84 df 3d 96 fb cb 3d 36 2c 37 bd f3 6e 12 bd
       0.109139614 0.099600956 -0.044719897 -0.03575034
000280 73 68 1d 3e b9 2f 14 be 8f 77 a7 be c5 b2 00 be
       0.15371875 -0.1447133 -0.32708403 -0.12568195
000290 8f 16 b7 bc 6c e6 0f be 6b 80 b4 bd 5e 44 fe 3c
       -0.022349624 -0.14052743 -0.08813556 0.03103846
0002a0 86 ae c9 be 94 cb 4e 3e ed 1e 28 3e ab 6b 27 3d
       -0.39390963 0.20194846 0.16418047 0.040874165
0002b0 a1 08 da 3d 23 c1 8b 3d 37 d9 70 be 1b 63 ad bc
       0.10646177 0.06823947 -0.23520361 -0.021165421
0002c0 7c 2d 43 bd 9f 16 f7 be 36 84 b9 bd 85 9a c1 bb
       -0.0476508 -0.48259446 -0.0905842 -0.0059083127
0002d0 27 e5 22 bc 88 80 08 3c f4 bf 94 be b9 65 97 3d
       -0.0099423295 0.0083314255 -0.290527 0.07392449
0002e0 15 17 14 bc 2b 10 32 bd 20 da b1 3d 2e 8c b7 bd
       -0.009038706 -0.04347245 0.08684182 -0.08962284
0002f0 0a 21 84 be 90 bf ad bd c2 53 33 3d ad 13 89 be
       -0.25806457 -0.08483803 0.04378105 -0.26772824
000300 2d e9 54 bd 96 19 02 be 87 2e 86 bd 1e 1e db 3d
       -0.051980186 -0.12705073 -0.06551843 0.10699104
000310 aa ce 84 3c af 8a 81 be 0a 6e 23 bd e7 df 92 bd
       0.016211826 -0.2530112 -0.039899863 -0.07171612
000320 c8 ce 29 3d 88 04 ca be e7 ae 08 be 25 36 78 3d
       0.041456968 -0.39456582 -0.1334797 0.06059851
000330 0c 1a ef 3d b7 b0 40 bd 79 1d e3 3c a9 ee b3 3c
       0.1167489 -0.04704353 0.027724015 0.021964388
000340 43 4c 25 3c 99 b7 ed bd 49 f4 8b 3c b7 88 3a 3e
       0.010088983 -0.11607284 0.017084258 0.18216215
000350 06 e7 85 3e c2 68 50 bd d3 26 e3 3b 38 fb 00 3d
       0.2615282 -0.050881155 0.0069321184 0.03148958
000360 ef 1d 73 be 3b 73 93 bd 6a 02 86 3d eb c1 11 be
       -0.23741888 -0.07199713 0.06543429 -0.1423413
000370 36 a4 d1 bd 59 ab 98 bd 48 92 51 bd 5b 3c 0a bd
       -0.10236399 -0.07454557 -0.051164895 -0.033748966
000380 e2 58 bd 3d 89 3a 4e bd b6 48 8d 3c f2 4e 4e be
       0.09245469 -0.050348792 0.017246585 -0.20147303
000390 58 35 0c be 14 84 39 3e fc 08 c0 be 2e fd 87 bc
       -0.13692224 0.1811679 -0.37506855 -0.016600218
0003a0 f5 82 09 3e b1 9f 41 bd 1e 13 a6 bd c3 e3 d4 bd
       0.13428862 -0.047271434 -0.08109115 -0.103950046
0003b0 50 b0 60 bc 05 dd eb 3d 5b 98 70 3d ac 00 c9 3d
       -0.013713911 0.115167655 0.058739047 0.09814581
0003c0 f6 65 25 bd 50 b3 4f 3d 24 71 5b 3d 33 fd a7 3a
       -0.04038044 0.050708115 0.053574696 0.0012816548
0003d0 77 30 3b 3d d5 e1 d1 3d d6 1c dc bc a1 55 01 be
       0.045700517 0.10248152 -0.026869219 -0.12630321
0003e0 ae f6 06 bc f4 a4 4a 3d 10 de 00 be 9b eb 6b bc
       -0.008237524 0.049473718 -0.1258471 -0.014399434
0003f0 5b ab 1f be 58 ec e2 bd 96 32 8a be 8b 31 dc bd
       -0.1559271 -0.11080235 -0.2699172 -0.10751637

2.bias f4 [128]
000000 e2 29 10 be 12 d2 d1 bd 8f 9d 06 be 23 41 af 3d
       -0.14078477 -0.10245146 -0.13146041 0.08557346
000010 19 f6 71 3d 84 27 03 be 17 7a 38 bd 02 f1 ac bc
       0.059072588 -0.12808043 -0.04503831 -0.021111015
000020 e7 f4 02 3e c4 27 be 3c 4e e2 dd bd 8b 64 dd bc
       0.12788735 0.023212321 -0.1083418 -0.027025482
000030 d0 53 28 bd ad 9d 8e 3d e3 3a a8 bd 9c 97 25 be
       -0.041095555 0.06963668 -0.08214357 -0.16171116
000040 64 b7 c5 bd dd c0 10 be 59 6e 37 be 77 dd 2d bd
       -0.096541196 -0.14136072 -0.17913188 -0.042447533
000050 41 43 84 bd bc 5a da bd bc 15 8b 3d 84 a4 56 be
       -0.0645814 -0.106618375 0.06791255 -0.20961195
000060 e4 f0 42 3c 49 00 36 bd f5 92 70 be 54 26 37 be
       0.011898253 -0.044433866 -0.2349356 -0.17885715
000070 b3 a8 d9 3c 60 cd 9f 3d ed 90 db bd ac 70 8f bd
       0.0265697 0.07802844 -0.10721002 -0.07003912
000080 35 0a aa bd e3 47 26 3e 3e 16 61 be ed 77 32 bc
       -0.08302728 0.1623836 -0.21981141 -0.01089285
000090 c6 e8 2d bd 5a b8 27 be ca 99 cd bd f2 d9 9b bd
       -0.04245832 -0.16378918 -0.100390986 -0.07609929
0000a0 04 6d 4a be be 43 f6 bc 12 d3 b7 3c 63 9a 00 be
       -0.19768149 -0.030061599 0.022439513 -0.12558894
0000b0 2e 27 f5 bd 2f cb 09 be ab 19 e2 bc 35 a1 31 bd
       -0.119703636 -0.13456415 -0.02760013 -0.04336663
0000c0 d8 03 7b be eb 4c fc bd 5a fc df bd 9e 65 cd bd
       -0.24513185 -0.123193584 -0.10936804 -0.100291476
0000d0 13 4e 8c be 5b 1d 98 3d 9c 5c 84 bd 0c fa 9b 3d
       -0.27403316 0.07427474 -0.06462976 0.07616052
0000e0 73 b9 31 be 0f 0a c3 3d 04 58 40 3d ff 9f f2 bc
       -0.173559 0.09523403 0.04695894 -0.029617308
0000f0 ce 76 79 be 89 7b 0f be 90 5b 18 be 3b 8a 04 be
       -0.24361727 -0.14011969 -0.14878678 -0.12943356
000100 76 39 75 bd 46 e8 70 bd 24 bc 37 be 3e 45 7d 3c
       -0.059869252 -0.058815263 -0.17942864 0.015458403
000110 7a 93 12 be 6f df 05 3d 01 64 c2 3c 95 dc 49 bd
       -0.1431407 0.032683786 0.023729326 -0.04928263
000120 2f 0d 07 bc c7 28 e7 bd 4e 68 e1 bd b2 27 1d 3e
       -0.008242889 -0.112870745 -0.11006223 0.15347174
000130 ca 5d aa bd a9 dc 1b be 57 08 a2 bd cb b9 ff bd
       -0.0831867 -0.15220894 -0.07911747 -0.12486609
000140 5d d3 a8 bd c7 6d 22 be c0 7a 29 be 33 9f d8 3b
       -0.08243439 -0.15862189 -0.16550732 0.006610775
000150 a2 23 7b 3d 57 ed 14 be 01 4d 18 be 20 df f5 bc
       0.06131328 -0.14543663 -0.14873125 -0.03001362
000160 09 d8 48 be 1a 2a d3 bc a8 6a 22 bd 09 e9 c6 3d
       -0.19613661 -0.025776912 -0.039652497 0.09712417
000170 69 58 cd bb 6a 8a 00 3d 14 69 c5 3d 35 5a 46 be
       -0.006266643 0.031382002 0.09639183 -0.19370349
000180 57 09 22 be 5b 6e f4 bd 2f 5e d5 bd 4a 0c d2 bd
       -0.15823875 -0.11935111 -0.10418355 -0.1025625
000190 65 a8 ec bd 25 0e 8d bd ce c1 70 bc 18 7e e6 bd
       -0.11555556 -0.068874635 -0.014694644 -0.11254519
0001a0 14 1a 29 be 51 b9 a5 bd 55 c9 7c be ee 31 bc bd
       -0.16513854 -0.08091987 -0.24686177 -0.09189211
0001b0 9a cd 8b bc cc e2 e6 bd 54 c9 f8 bd 63 f3 2d be
       -0.017065812 -0.11273727 -0.12147775 -0.16987376
0001c0 62 16 10 bd 52 aa ac bd 9b 36 39 be 20 72 8b 3d
       -0.035177596 -0.084309235 -0.18087237 0.06808877
0001d0 68 01 97 be 62 2a e0 bc da 79 b7 bc fd 97 23 be
       -0.2949326 -0.02736396 -0.02239697 -0.15975948
0001e0 a5 cc 9e 3d 13 e4 89 bd 55 4a 34 be fa 39 2b be
       0.077538766 -0.06732955 -0.1760648 -0.16721335
0001f0 21 a2 ce bd 47 3a 8d bc 3d 3c b9 bd ce 5f 45 3d
       -0.100895174 -0.017239703 -0.09044693 0.04818707

4.weight f4 [128, 128]
000000 37 9d 20 3e e4 fc 43 be 93 4b 16 be e5 c6 e9 bd
       0.15684973 -0.19139439 -0.14677267 -0.11414889
000010 4d f7 86 bd b9 2e d6 bd 71 13 ec 3d 8e fe c0 bd
       -0.06590138 -0.104581304 0.11527146 -0.094235525
000020 91 d0 a3 3d a8 6a 5c bd f9 48 17 bb f7 57 6f 3d
       0.07998765 -0.053812653 -0.0023084267 0.0584335
000030 1d ad 79 3c 57 4e b5 bc 16 32 e6 3c 17 a0 13 3b
       0.015239027 -0.022132082 0.028100055 0.002252584
000040 de fc 06 bd 88 fa 98 bd 8b e6 53 bd 61 6c 4c 3c
       -0.032955997 -0.0746966 -0.051733535 0.012477011
000050 21 b1 88 bc 39 0e 1b 3d e9 b3 a1 bd ab ab 82 bd
       -0.016686024 0.03785536 -0.07895643 -0.06380399
000060 6e 48 22 be 19 4b 19 3d 10 06 cd 3d fb a3 54 3d
       -0.15847942 0.037425134 0.10010922 0.051914196
000070 5e b9 8a bb 33 17 8c bd 7a 1f 91 bb bb 9e 97 3d
       -0.0042335233 -0.068403624 -0.004428801 0.07403322
000080 78 d2 af 3d d6 b5 21 be c9 6d 9b 3d 51 8b f0 bc
       0.085850656 -0.15792021 0.07589299 -0.029363306
000090 a0 58 50 3d ae 45 04 3e 0c 4a f5 bc d2 c5 67 bd
       0.05086577 0.12917206 -0.029942535 -0.05658514
0000a0 31 a9 2d 3e 0d 84 13 bd cc ac fc bc bd e8 16 3d
       0.16959073 -0.036014605 -0.030844115 0.03684305
0000b0 35 1f 83 3d 69 18 b9 bd 4b 84 a0 bd 10 93 a5 3c
       0.06402437 -0.09037859 -0.07837733 0.020211726
0000c0 61 e6 43 3e 20 cd 83 bd 4e 39 54 be 98 1e 5d 3e
       0.19130851 -0.06435609 -0.20724985 0.21593702
0000d0 b0 74 88 3d cd 3f 3d 3c ad 97 0b 3e 44 23 cf bd
       0.066628814 0.011550856 0.13632078 -0.10114148
0000e0 3d 7f 04 3e ae b0 9d 3c 76 23 c3 3c 42 de 36 bd
       0.12939163 0.019249287 0.02382062 -0.044645555
0000f0 8c ff 99 3e a3 ad 3a be 21 e2 69 bd cb 7f 01 be
       0.3007778 -0.182303 -0.05710042 -0.12646405
000100 87 2e fe 3d 7a 55 a9 bd f0 15 e5 3d fe 66 9d bd
       0.12411218 -0.082682565 0.11185825 -0.0768566
000110 b1 f7 4a 3d cf 47 e0 bd dd ab c2 bb e3 a9 37 be
       0.049552623 -0.109511964 -0.005940898 -0.179359
000120 b3 fb 91 bb 5b ae ec bd 05 e0 59 be 07 6d b0 3b
       -0.0044550537 -0.11556693 -0.21276863 0.005384091
000130 f7 32 0a 3d c0 86 c4 3e 19 3c df 3d 1b b8 46 be
       0.03374001 0.38384056 0.109001346 -0.19406168
000140 40 05 f6 bc e7 00 3d 3d b0 82 e8 3d c4 4e 7d 3b
       -0.0300318 0.04614344 0.11353052 0.0038651684
000150 1a 68 1c be b8 a2 7d 3d c6 97 d8 bd 55 a0 6e 3d
       -0.15274087 0.06192276 -0.105758235 0.058258373
000160 72 be ae bb 3b 1c c1 bd 28 5f d4 3d a1 5f 27 bd
       -0.0053327614 -0.09429213 0.10369712 -0.040862683
000170 22 6e e1 bd 86 23 65 bd f8 ab 2e be 10 4d 8b bc
       -0.11007334 -0.05594208 -0.17057788 -0.01700452
000180 bc 50 a1 3d eb ed fe bc 28 b7 3f bc fe 33 31 bd
       0.07876727 -0.031119308 -0.011701383 -0.043262474
000190 03 53 50 bd 58 17 49 3d 24 2a db bd 2a 54 26 3e
       -0.050860416 0.049094528 -0.10701397 0.16243044
0001a0 c3 0a 14 3e 9d 0e c0 3c 84 78 d8 bc e7 a1 62 bd
       0.1445723 0.023444468 -0.026424654 -0.055330183
0001b0 83 eb 36 bd 27 3e a9 bd cf 6b 32 bd d5 17 4d 3d
       -0.044658195 -0.08263808 -0.043559846 0.050071556
0001c0 56 21 07 bd 79 a8 df 3c 61 f1 cc 3d 9e 11 0f 3e
       -0.032990776 0.027302014 0.10006977 0.13971564
0001d0 cb d5 e5 3d 46 13 3a bd 6a 17 06 bd 14 76 96 bc
       0.112224184 -0.045428537 -0.032737173 -0.01836685
0001e0 b1 71 08 be 42 78 48 be 52 7a d1 bd 61 9a 75 bb
       -0.1332462 -0.19577125 -0.10228409 -0.003747605
0001f0 96 82 6e 3b a1 93 47 3e 07 c3 87 bb e8 77 6a bc
       0.0036393753 0.1948991 -0.004143122 -0.014310814
000200 2b 12 4f 3d 86 a6 8a bb 04 c5 22 bd 8c ab 0d be
       0.050554436 -0.004231277 -0.03973867 -0.13834971
000210 29 81 80 be 91 77 c7 3d 36 a5 2d bd c8 1b d0 3d
       -0.2509854 0.09739602 -0.042393886 0.10161549
000220 a7 f7 14 3d ad af 11 be cc 4a 8a 3d bb a7 ac 3c
       0.036368992 -0.14227171 0.067525476 0.021076074
000230 0f 05 74 bd ce 7f 1c be 7b cd f3 bd a9 1e 0b bd
       -0.059575137 -0.15283129 -0.11904427 -0.033964787
000240 4a 7b 14 be ef e3 09 be 70 e9 84 bc 08 9d 24 be
       -0.14500156 -0.13465856 -0.016224593 -0.16075528
000250 78 6b 59 bd 45 a4 07 bc 7e f3 a8 3c d3 f1 97 3c
       -0.053081006 -0.008278911 0.020623919 0.018547928
000260 16 73 25 3e 08 9b 75 bb f6 85 45 bd 38 ab 29 3c
       0.16157183 -0.003747644 -0.04822346 0.010355763
000270 4d d9 88 3d 77 20 1b bd 4d 82 51 3c aa 5d 47 3c
       0.06682072 -0.037872758 0.012787414 0.012168327
000280 ae 72 1c be 88 63 93 3d 4b 0e 91 3c a1 04 7f 3d
       -0.15278122 0.071967185 0.01770701 0.062260274
000290 c8 22 a9 3c 9c 15 14 be 2a e9 5b 3d c8 09 13 be
       0.020646468 -0.14461368 0.05368916 -0.143592
0002a0 b9 2a ba 3d 92 67 14 be 66 b2 ad bd be 33 64 3d
       0.0909018 -0.14492634 -0.084812924 0.055713408
0002b0 e6 79 15 3c 5f d8 26 3d c8 7c 17 bd 23 a5 db bc
       0.009123301 0.04073369 -0.036984235 -0.026812142
0002c0 93 20 a8 bd f9 c6 9e 3b 0e 82 c3 3d 8a 94 45 bb
       -0.08209338 0.0048454967 0.0954629 -0.003014835
0002d0 07 8a 26 3e 1d 4f a9 bd 98 d8 d4 bd e2 ac cc 3d
       0.16263591 -0.08267043 -0.103928745 0.09993912
0002e0 b0 3b ae 3c a7 16 75 bd 8c ee 9f bd 82 5a c2 3d
       0.021268696 -0.059836056 -0.07809171 0.09489919
0002f0 43 32 b0 3d bd ad d9 bd ff 5b a6 bd 9a 8c f0 39
       0.08603337 -0.10628841 -0.081230156 0.00045881124
000300 ef da f5 bd f0 bf 37 bd 14 3a bc bd fe 11 46 3d
       -0.12004649 -0.04486078 -0.09190765 0.048357002
000310 8a 78 42 bc 89 eb d7 37 60 77 82 3d 9c 3d 53 3e
       -0.011869559 2.5739677e-05 0.06370425 0.20628971
000320 68 5e 8c 3d 64 11 25 3e a1 d0 0a 3d 30 c7 14 be
       0.06853944 0.16119915 0.03389037 -0.14529109
000330 79 9e 0e be d7 6d 24 bc 12 1d c3 3c 67 69 85 3d
       -0.1392764 -0.0100359535 0.023817573 0.065142445
000340 2b 6c 1c 3d e4 bf dd 3d 8d ed 41 bd 28 fb 06 3e
       0.038189095 0.10827616 -0.047345687 0.13181746
000350 d3 7e 2e 3d 6d 95 da bd 2c 60 1d 3e 4c 04 fa 3c
       0.042601418 -0.10673032 0.15368718 0.030519627
000360 bd 60 52 3e 65 24 23 bd 0f a2 08 be 1a 9d 85 bc
       0.20544715 -0.03982963 -0.1334307 -0.016310263
000370 0e 43 3b 3e 55 5e 53 3d ca 50 87 bd 22 15 b3 bb
       0.18287298 0.051603634 -0.06607206 -0.0054651657
000380 d5 e3 e0 bd 7f 9c cc 3d 3a 75 27 3d 48 c6 19 3e
       -0.109809555 0.09990787 0.04088328 0.15017045
000390 32 4b f9 3d 72 5f c8 ba e5 94 17 3e 25 3e 0e bc
       0.121725455 -0.0015287234 0.14802893 -0.008681809
0003a0 f1 52 ee bc d3 c1 ac bd e9 76 12 3e a7 74 fc 3c
       -0.029092284 -0.084354065 0.14303173 0.030817343
0003b0 bb 6f 12 be 9b ca de bb c4 e1 2d bd 3f bf 06 bb
       -0.14300434 -0.006799055 -0.042451635 -0.002056077
0003c0 19 59 d8 3d 0c 8d 2c be 0b ed 23 3d f6 51 84 bc
       0.10563869 -0.1685068 0.040020984 -0.016152363
0003d0 6f 5a 41 3d 71 24 00 3e 56 66 88 bd af fa c4 bc
       0.047205385 0.12513901 -0.06660144 -0.024045317
0003e0 b7 00 31 bc 41 18 98 bd b8 e4 6e 3e f5 36 d3 bd
       -0.010803393 -0.07426501 0.23329437 -0.103132166
0003f0 c8 09 47 bd 3b bb 93 3d 40 ad 09 3d 15 b8 3b 3c
       -0.048593313 0.07213446 0.03361249 0.011457463

4.bias f4 [128]
000000 a2 ad c1 bc 7d 5c 45 be e4 9e 2c 3d d3 c4 52 bd
       -0.023642365 -0.19273563 0.042143717 -0.051457237
000010 1d 19 f7 bd 40 40 98 be 49 33 c0 bd 0c 0f 10 be
       -0.12065337 -0.2973652 -0.09384782 -0.1406824
000020 05 fb ca bd 65 4e cb bc 33 ba 31 be dc 28 a3 bd
       -0.099111594 -0.024817655 -0.17356186 -0.07966778
000030 61 47 98 be ba 89 a0 3a 56 b7 df 3b 58 f6 88 bc
       -0.29741958 0.0012248077 0.0068272753 -0.016719028
000040 4f 27 6c 3d cf 1d 88 be e9 9c 0d bd 8a 16 6f be
       0.057654675 -0.26585242 -0.03457347 -0.23348442
000050 40 b9 02 3e 3a 7e ce bd c0 35 ba bb 98 a3 cc bd
       0.1276598 -0.100826696 -0.005682677 -0.099921405
000060 eb 27 3c be 3e e9 41 be 26 5f 19 be 99 12 d7 bd
       -0.18374602 -0.18936631 -0.14977702 -0.10501594
000070 f9 7b e0 bc 2a 1c a1 bc fe 83 cf bd 4d a6 0e be
       -0.027402865 -0.01966675 -0.101325974 -0.13930626
000080 30 65 9e bd 6e b9 03 be a2 03 39 be 79 7a 26 be
       -0.07734144 -0.12863705 -0.18067792 -0.16257657
000090 82 40 10 be 16 3d af bd c2 bc 98 bd 58 71 8c bd
       -0.14087108 -0.08556573 -0.07457878 -0.06857556
0000a0 a7 4c 1f 3d 07 6b cb 3c 9d 67 72 bd 88 e2 eb bb
       0.03889146 0.024831308 -0.059180845 -0.0071986355
0000b0 cb 5e e5 bd 39 be 03 be 3d 1a dd bc 1f 78 55 bd
       -0.11199721 -0.12865533 -0.02699005 -0.05211651
0000c0 84 34 3e be 50 4b 54 be af 38 a8 bd 8b c8 f2 bd
       -0.1857472 -0.20731854 -0.082139365 -0.11854657
0000d0 fd a1 50 bd 6f 84 50 be fe 10 96 bd ae 2c 28 be
       -0.050935734 -0.2036302 -0.0732746 -0.16423294
0000e0 24 e6 bf bd 0c 26 05 be 40 d6 b3 3d b5 3f 92 bd
       -0.09370068 -0.13002795 0.08781099 -0.071410574
0000f0 52 d6 62 bd c5 55 18 be 38 cb 7c bd 46 ef 91 bc
       -0.055380173 -0.14876468 -0.061717242 -0.01781429
000100 48 ce 41 ba 9d 96 e2 bd 32 f8 70 be 30 e3 2e be
       -0.0007393104 -0.110638835 -0.23532179 -0.17078853
000110 cc df bb bd 50 0c 72 be 94 de 86 bd 51 48 4e 3c
       -0.09173545 -0.2363751 -0.06585422 0.012590484
000120 02 93 9e bd 23 27 6a bd 31 0d 21 3d 6c d7 78 3d
       -0.07742883 -0.05716623 0.03931922 0.060752317
000130 f9 90 b6 bd e7 2c 0b be 70 10 24 3d d4 43 98 bd
       -0.0891437 -0.13591348 0.04005474 -0.07434812
000140 67 7a 3f be eb e2 33 be 39 9d 07 3c f2 49 a1 bd
       -0.18699037 -0.17567031 0.008277231 -0.07875432
000150 06 df 8c bd dd df 5f bd 9c 79 73 be 30 6d e9 3c
       -0.06878476 -0.054656852 -0.23776859 0.028494447
000160 a4 35 17 3c e8 5e de bd f7 87 12 bd 53 a3 29 be
       0.0092290975 -0.10857946 -0.035774197 -0.1656621
000170 96 14 84 bc 47 07 51 be 8e b6 d4 bd db e1 72 3c
       -0.016123097 -0.20412932 -0.10386382 0.014824356
000180 18 47 cb bd c4 56 5e bc bc 5f 7d 3d ec 5a 4a be
       -0.099256694 -0.013570491 0.061858878 -0.19761246
000190 d9 c9 31 bd 9d bf 14 be d0 b6 12 bd 04 8e 1a bc
       -0.043405388 -0.1452622 -0.035818875 -0.009433273
0001a0 0e d5 50 bd 1b 5a 9f bb 47 83 6b be 94 4f 8e bd
       -0.050984435 -0.0048630363 -0.22999297 -0.06948772
0001b0 6f 32 6c 3d f6 4c 05 be 5a 39 1e be fb 8d 0b be
       0.057665285 -0.1301764 -0.15451565 -0.1362838
0001c0 21 2c f1 bd e5 86 7d bd 08 99 1b bd 05 a5 55 be
       -0.11775995 -0.061896224 -0.03798774 -0.20863731
0001d0 53 6a 54 3d 72 c5 88 bd 3e 57 c0 bb cb 87 88 bd
       0.05185921 -0.06678285 -0.005869775 -0.066665255
0001e0 ac 2a f9 3c c8 d6 02 bd f3 bd d4 bc 5e 6a 3c bd
       0.030415855 -0.031943113 -0.025969481 -0.045999877
0001f0 8b 81 a2 be c9 83 29 be 8a ea 6f 3b 9e 94 8b bd
       -0.31739458 -0.16554178 0.0036608302 -0.06815456

6.weight f4 [12, 128]
000000 5e 65 1e bd f1 3d 72 bd 4b 80 12 3d 91 44 b2 3c
       -0.03867089 -0.059141103 0.03576688 0.02176121
000010 e3 c8 cb 3c 1f e5 1a bd a9 49 31 bd fa 57 d7 bc
       0.024876064 -0.037816163 -0.04328314 -0.026287068
000020 70 7a 30 3c bf f7 34 3d a8 08 2d ba 17 be b2 3d
       0.010771379 0.04418158 -0.0006600716 0.08727663
000030 61 8a 83 bc b7 0c e0 bc 6a c4 a5 3c 85 22 c0 3d
       -0.016057195 -0.027349813 0.02023526 0.09381584
000040 b6 83 ad bb 75 3b 24 3b f2 93 43 bd b7 5d 81 3d
       -0.005295242 0.0025059853 -0.047748514 0.06316703
000050 25 05 20 bd 27 29 56 bd fc 35 ef 3c 8a 32 8f bc
       -0.039067406 -0.05228534 0.029200546 -0.017480154
000060 d5 d5 20 3d 72 96 49 3d 46 3a 1d 3c cb 4c 5e bd
       0.039266426 0.04921574 0.009596413 -0.054272454
000070 07 2c 9b 3d bc b1 53 bd 21 b9 f5 bc 90 ec fa bc
       0.07576757 -0.051683173 -0.029995503 -0.03063038
000080 ce 85 e6 3c cd 26 a6 bd 46 2c f7 3a 2b be 59 3b
       0.028139975 -0.081128694 0.0018857799 0.0033224921
000090 ce 98 9b 3c 6c f2 a1 3c f9 94 4b bc ac aa 26 3d
       0.018993761 0.019768916 -0.012425655 0.04069011
0000a0 3e 23 3e 3c f0 51 08 3d ec a2 39 bd 2b b0 1e 3d
       0.011605082 0.033281267 -0.04532139 0.038742226
0000b0 26 e9 9a bc 1c 9a 79 bc 61 1b d2 3c ea ba a2 3d
       -0.018910002 -0.015234496 0.02564782 0.07945807
0000c0 37 e0 e8 bb e9 58 22 3d 4e c0 99 bd 96 d3 83 bc
       -0.0071068066 0.039635573 -0.07507382 -0.016092103
0000d0 5d 45 8e 3a 6a 2c 68 bb f9 55 f0 bd ac 24 e5 bd
       0.0010854412 -0.0035426863 -0.11735148 -0.11188635
0000e0 ca 0a 32 bc 51 df b6 bb 67 87 a7 3c c5 e5 cc bc
       -0.01086683 -0.0055808206 0.020450307 -0.025011906
0000f0 4e d4 26 3c 9f ce 41 3d 17 bc dc bd e7 6b 93 3b
       0.010182453 0.04731619 -0.10778063 0.004498947
000100 14 cc c5 3d 79 50 fe 3d ff 4e 1b 3d b8 22 5c 3c
       0.096580654 0.12417693 0.037917133 0.013436012
000110 bb 71 18 be f8 0e a9 3d 48 75 78 bd 1b 2d 95 bb
       -0.14887135 0.08254808 -0.060658723 -0.004552496
000120 2e f2 c0 3d 36 58 cd 3d 11 92 81 3c ff c9 3b 3d
       0.09421192 0.100265905 0.01581672 0.045846935
000130 47 a5 ce bc 4a 5f 34 3b b0 15 80 3d 33 2a ff bd
       -0.025225295 0.0027522617 0.062541366 -0.12459221
000140 b1 77 75 bd 57 83 45 bd 10 0b f0 bc bf f9 c8 3c
       -0.0599286 -0.04822096 -0.02930215 0.02453315
000150 15 d3 39 bc 78 5d 99 bc ce 0c 31 bc ce ba 64 3d
       -0.01134183 -0.018721327 -0.0108062755 0.055842213
000160 56 35 ab 3c 5e e0 12 3d 8b 36 27 3c e5 e5 f2 3b
       0.020899456 0.035858504 0.010205875 0.0074126595
000170 18 17 78 3d 4f 48 65 bd 3d 66 b0 3c 92 e8 c0 3b
       0.0605689 -0.055977162 0.021533126 0.0058870995
000180 25 91 12 bd 9c 2d 2c 3c fe b5 63 3d 28 4a ef bc
       -0.03578295 0.010508921 0.055593483 -0.029210165
000190 fc 4f 5c bd 67 61 8a bd a1 16 d6 bc e8 44 75 bc
       -0.053787217 -0.06756859 -0.026133837 -0.014970042
0001a0 bd 37 a5 3b 19 f5 b5 3c 48 4a 2b 3c 5e 42 24 bd
       0.005042045 0.022211598 0.010454722 -0.040102355
0001b0 e4 b9 22 bc 95 6d 7f 3b 25 d5 a5 ba 71 c5 c3 bc
       -0.009932015 0.0038975228 -0.0012652023 -0.023897858
0001c0 0b 6b a9 3a f2 af 7d bd b1 ea f7 bc a5 aa 36 bd
       0.0012925578 -0.061935373 -0.030263277 -0.044596333
0001d0 35 d3 21 3d ad ca 96 3d 4e fd 4b 3c 6b 50 5c 3d
       0.039508063 0.07362876 0.012450529 0.05378763
0001e0 7d 2f d2 bc df c4 a5 bc 66 ce 14 3d be 57 05 bd
       -0.02565741 -0.020235477 0.03632965 -0.03255438
0001f0 e8 70 97 3c 00 7e a4 3b c9 9a df bc 29 14 4c 3c
       0.018486455 0.005019903 -0.027295487 0.012455978
000200 d6 32 da bc 83 22 e0 3d e0 eb d9 bc fe 3d 90 3c
       -0.026635569 0.109440826 -0.026601732 0.017607685
000210 58 3d 15 3d 2c 77 64 bc c0 d0 5b bc 31 41 02 bd
       0.036435455 -0.013944428 -0.013416469 -0.031800453
000220 1b e2 98 bd 7a 32 0a 3d b8 90 3c bd ba 39 1e bd
       -0.07465001 0.033739544 -0.046036452 -0.03862927
000230 42 80 f1 3c 99 66 c2 bd be 66 b8 bc 66 5a 33 bc
       0.029480103 -0.09492225 -0.022509929 -0.010946846
000240 87 01 5d bc 67 b5 08 3a 90 37 5a 3d 16 bd 24 bd
       -0.013489134 0.00052150193 0.053275645 -0.04021939
000250 56 d6 15 bd 13 14 6d bd 04 36 b2 3c f3 aa 86 bc
       -0.03658136 -0.057880472 0.021754272 -0.016438937
000260 b2 a6 7c bb 8c 12 86 bc 4e 4f 3a 3d be 70 e6 3c
       -0.0038551507 -0.016366266 0.045485787 0.028129932
000270 92 b5 cd 3b 04 5a 07 bd 13 3a 92 3d ca 33 5c bc
       0.0062777484 -0.03304483 0.07139983 -0.013440082
000280 cc 19 6c bc 95 04 a0 3d 64 96 62 3d ca 56 8f 3a
       -0.014410447 0.07813374 0.055319205 0.0010935899
000290 d7 66 80 3c 65 ed e7 bc b2 2b a7 bb 11 de 05 3d
       0.015674038 -0.02831144 -0.0051016444 0.032682482
0002a0 69 46 63 3d d1 ed 4e 3a 58 11 21 3d c3 f5 48 3d
       0.05548707 0.0007893714 0.03932318 0.0490625
0002b0 2b 74 f2 ba 6d 74 e9 bc 7b 09 47 bd 8f 1a a0 bb
       -0.0018497756 -0.028497899 -0.048593026 -0.0048859785
0002c0 5e 50 09 3d f5 79 d3 3b 80 00 84 3b b7 02 1f 3c
       0.03352391 0.0064537474 0.00402838 0.009705237
0002d0 52 94 32 3c 63 22 6b bc 57 34 91 3d 75 da 0c 3e
       0.01089962 -0.01435146 0.07090061 0.1375521
0002e0 c1 92 05 3c 74 c4 54 bc ae 83 0a bd c7 de e7 bb
       0.008152665 -0.012986291 -0.033816986 -0.0070761177
0002f0 78 0c 5f 3c 52 83 a3 bd f2 e8 dc 3c f6 15 80 bd
       0.013613813 -0.07984032 0.026966546 -0.06254189
000300 e4 81 4f 3d 97 28 0f bd 8c b1 9a bc 1c c1 0c bc
       0.050660983 -0.03495082 -0.01888349 -0.008590963
000310 71 8e 23 3d c8 a0 5b 3d 05 4d b9 3d 86 cc 99 3c
       0.039930765 0.05362013 0.090478934 0.018774282
000320 45 88 e2 3c 1c 37 40 bc 1c 12 31 bc 95 90 a9 bc
       0.027652869 -0.011731889 -0.01080754 -0.020698825
000330 74 40 24 3d 71 17 bd 3c 05 b5 8a 3d ce 7d 0f 3b
       0.04010053 0.023082467 0.06772808 0.0021895054
000340 ad 89 b3 3d 46 49 10 bd 65 a4 bf bc 5e 30 78 3d
       0.08766494 -0.03522613 -0.02339382 0.060593
000350 20 ff 49 bc 9c 8d a8 bc 61 d0 2c 3c fb 86 c1 3c
       -0.012328893 -0.020575337 0.010547728 0.023623934
000360 23 a1 8d 3c e2 0e 34 bd ff 00 94 bc 36 6f 31 bc
       0.01728875 -0.043959506 -0.018066881 -0.010829737
000370 66 88 83 bd 62 86 60 bd 3d dd 94 3b 13 e1 fd 3b
       -0.064225 -0.054815657 0.004542975 0.007747778
000380 a7 c8 36 3c f2 f1 db 39 ed d8 21 bd 36 eb 75 bd
       0.011156238 0.00041951198 -0.039513517 -0.060038768
000390 5d b1 2f bd 49 18 84 bd 1e c7 87 3d e9 7b 42 3d
       -0.042893756 -0.064499445 0.066297755 0.04748145
0003a0 c7 3a 97 bc 9d e7 3d bd 52 0a 78 3c 0e ad 35 bc
       -0.018460644 -0.04636346 0.015139179 -0.011088623
0003b0 ef 0a 20 3d c1 8a 3b 3d e7 65 a0 bd fe 57 b0 bc
       0.039072927 0.045786623 -0.07831936 -0.021526333
0003c0 17 fe 69 3c 0f 63 1f 3d 05 43 1a bd db b4 28 bd
       0.014281771 0.03891283 -0.03766157 -0.041188102
0003d0 55 5c 46 bd 48 a7 90 bd a1 21 4c bd 96 e2 23 bd
       -0.0484279 -0.07063156 -0.04983676 -0.04001101
0003e0 df 57 45 bc 6b 01 e7 3c ff ec 0f bd 4b 59 c2 3c
       -0.012044876 0.028198918 -0.035138126 0.023724219
0003f0 59 a7 2a bd cb b8 03 3d 72 2c 11 3d 91 5d c7 bc
       -0.0416635 0.032158654 0.035442777 -0.024336608

6.bias f4 [12]
000000 96 ef 4b 3d c3 66 6f 3b 8f ca 87 3d 87 93 18 3e
       0.049789034 0.0036529757 0.06630432 0.14900027
000010 09 61 f6 bd 7d 89 9d bd 37 9a fe 3c dc 53 2c 3e
       -0.12030227 -0.076922394 0.031079395 0.16828865
000020 8b 89 c7 bb 8a 9c c6 3c a0 42 7a 3d ea 37 0d 3e
       -0.0060893944 0.024244566 0.061098695 0.13790861
