onnx_inference/data/model.onnx (onnx, 162779 bytes, 8 tensors)

0.weight f4 [128, 45]
00000000: bca9 cb3b a5b4 a43b 8d1e b03a 23b6 66bd
00000010: aedb ff3c 63b5 2e3c 999a 1dbf 97a6 82bf
00000020: a654 d13e 92b7 62be 5559 8c3e a2cf 52be
00000030: a7dc 083f 8802 1b3e b08f 983e e4d7 29bf
00000040: 184c 6bbe 7e14 863c 6150 09bd 8606 313c
00000050: ce67 9abe 79df 8dbd 2f0d 00bd e192 cb3d
00000060: 36a1 10bd fd3b 053d e203 293e b9a6 e73c
00000070: b30c 403d de31 173d 41eb 92bb 6f06 0a39
00000080: 1ff9 4e3d ae2a 3bbe 4225 c6be 41c1 debd
00000090: aa00 03be c558 d4bd adc3 80bc 9938 0e3e
000000a0: ade4 1fbe f8d8 b53d de65 88be 7e56 523d
000000b0: 6138 debc d74c e3bc da92 bdbc 3069 4c3c
000000c0: 70d1 943d 98e9 dc3d e0d9 a53e ec00 c93e
000000d0: 5cbe 3e3e ecdf 4a3f bd2b 4fbf bb93 6bbe
000000e0: 4201 b23e edf8 a53d 8388 6d3d 458c 633f
000000f0: cc87 55bf be8d e53e 84ae 91be c322 32be
00000100: bdf0 033f f69a f9be 363c 103b 2009 02bd
00000110: dfda 54bc d7ee 1d3d 5b5b 9a3c 08a7 013d
00000120: 80a7 59bd 1f03 7ebd e9df 30bc 44c1 3f3c
00000130: 66bc 56bd da80 9a39 03d2 19bd 1856 e33d
00000140: 04aa 423e 02a2 693e 9905 af3d 3326 b73d
00000150: 012d 3fbd 9b54 efbd cf4e 393c 622d b3be
00000160: 6f07 313d 60f0 273e 17b0 e6bc 0eac 8cba
00000170: 2627 063c 192a 18be 552c 42bd 979f 9d3e
00000180: be1d 2a3e d4d1 073f d2f9 c93e f9b7 debe
00000190: ed75 863e 7784 e63e be6e ec3e e258 d03e
000001a0: f67d 863e cf3c 45be b336 cebe 5271 4fbe
000001b0: 498e f43e 52c9 b8be d2bf 8dbd c7d3 193e
000001c0: c1f9 bcbd 20fc 003c 2b86 b7bd 5136 45bd
000001d0: 5be0 5a3d 25d6 16bd cf9f 26bd 0d72 a7bd
000001e0: 1c34 003c 3bad 8f3d 67d0 a9bd 9b58 823e
000001f0: bb17 0d3e a4de 16be 5956 a9be 3406 893e
00000200: c118 553e 8d56 afbe 25bb 873d e977 90be
00000210: 533a 513e 6e08 0d3e fb5a 8fbe f131 a73c
00000220: 2b28 24bb 866e fdbb 833e 73bc 56ac 7d3d
00000230: 7168 59be afaf d83d 59e4 0b3e 3aad eb3d
00000240: 1097 2e3f 945f d83e 5b8a ba3f f3fa 0a3f
00000250: d15f 823e dceb adbd d057 ab3e 6dac 063f
00000260: 5cce 623e 8d9e 633e 19a2 813f 2273 73be
00000270: defe 723c babd 893d dc8a c03b 6205 7abc
00000280: 48f1 f9bb fd18 86bc b2a3 e7bc e31c 59bd
00000290: 5ad8 97bd 56e5 d83b f0f0 36bc 2811 dbbb
000002a0: b6a3 553d 1699 d53d a7a7 a1be 49b0 373e
000002b0: 574e 11be 95e2 473d ce4e 20be 59a8 d33b
000002c0: 98e0 0ebe 2f1b 17be 0be5 7b3e 012e 7fbe
000002d0: ea3a 97bc fc4a 713c 0bec c43b 631c 29be
000002e0: 3a7c ac3e a959 f03d b593 c6bd 446b 1b3d
000002f0: 53f3 513f 1e35 313f 7642 58be fe2a 26be
00000300: c455 35bf 8db1 19bf 18d0 403d bb68 fd3e
00000310: 9e30 493e dcd8 903e 0bde f93e f639 f93e
00000320: dd99 4b3f 8389 303d 05f6 9dbb 5449 d3bd
00000330: ecd4 96bc 5e8c c23d 0d5e 9a3c c551 c1bc
00000340: b37c 9f3d 110d 89bc 67cc 203d 3407 5a3c
00000350: 3573 a53c 24c4 5b3e 3b08 abbe 107f b63d
00000360: 7522 3b3e 77f1 24be dc5b 363d c415 f13d
00000370: 3fad c4be 1ab2 9abe 1ed6 adbe c9f1 4fbd
00000380: 4641 523e 5169 e3bc f409 4e3d 0144 61bd
00000390: 7be6 4f3d f24a 8a3e 6558 323e b944 b73e
000003a0: 8d6a 203f 48f4 febe 6cea 683f 6a5b 563f
000003b0: f9fd 203e 0896 883f f296 453f 9d1e 813d
000003c0: e2e4 683f 4f35 813f f08f 823d 6f4f 783e
000003d0: 8eff 10bf b783 bf3e 8bee 6abd 7bd8 073e
000003e0: a061 5fbd 10b5 0a3b 502b 033e 8394 07be
000003f0: e49b 51bc 00f9 a9bc 7855 d43d eec1 f7bc
0.0062153023 0.0050264173 0.0013436839 -0.056326043 0.031232681 0.010663363 -0.6156402 -1.0207089
0.40884894 -0.22140339 0.27411905 -0.20587018 0.5346169 0.15137684 0.29797125 -0.6634505
-0.22978246 0.016367193 -0.03352392 0.010804778 -0.30157322 -0.0692739 -0.031262573 0.09940124
-0.035309993 0.032527912 0.16505387 0.028277742 0.04688711 0.03691279 -0.004483611 0.00013163102
0.05053055 -0.18278 -0.387003 -0.10876704 -0.12793222 -0.10368494 -0.015718305 0.13888778
-0.15614577 0.08879274 -0.26640218 0.051352017 -0.027126493 -0.027746601 -0.023141313 0.0124762505
0.072665095 0.10786742 0.32392788 0.39258516 0.18627304 0.7924793 -0.80926114 -0.23005573
0.34766585 0.081041194 0.057991516 0.8888591 -0.83410335 0.44834703 -0.28453457 -0.17396073
0.5153921 -0.48751038 0.0022008545 -0.031746984 -0.012991636 0.038557854 0.01884239 0.031653434
-0.053138256 -0.062014695 -0.010795572 0.011703793 -0.052425765 0.0002946917 -0.0375538 0.111004055
0.19010168 0.22815707 0.085459895 0.08942833 -0.04667378 -0.11686059 0.011310293 -0.34995562
0.04321998 0.1640029 -0.028160138 -0.0010732429 0.008188045 -0.14859809 -0.04740556 0.3078582
0.16612908 0.5305455 0.3944841 -0.43499735 0.26261845 0.45022938 0.4617824 0.40692812
0.26267976 -0.19261478 -0.40276107 -0.20258072 0.47764805 -0.36091095 -0.069213524 0.15022193
-0.09227324 0.007872611 -0.089611374 -0.048147503 0.05343662 -0.036825318 -0.04067975 -0.0817605
0.007824924 0.07015463 -0.08291703 0.25458226 0.13778584 -0.14733368 -0.3307369 0.26762545
0.20810224 -0.3424572 0.06627492 -0.28216484 0.20432405 0.13772747 -0.279991 0.020409556
-0.0025048356 -0.0077341227 -0.014846447 0.06193193 -0.21231247 0.10580384 0.13661326 0.1150765
0.68199253 0.4226042 1.4573473 0.5428917 0.25463727 -0.08492252 0.33465433 0.5260685
0.22149032 0.22228451 1.0127593 -0.23774388 0.014831273 0.067256406 0.0058759283 -0.015260072
-0.00762764 -0.016369337 -0.028276298 -0.053006064 -0.07414313 0.006619136 -0.011165842 -0.006685395
0.05215808 0.104295895 -0.3157322 0.17938341 -0.1419004 0.04880007 -0.15655062 0.0064592776
-0.13952863 -0.14756463 0.24599092 -0.24919893 -0.01846071 0.01472735 0.006009584 -0.16514735
0.33688527 0.11735851 -0.09696142 0.037944093 0.8201191 0.69221675 -0.21119103 -0.16227338
-0.7083399 -0.60036546 0.047073454 0.49493966 0.19647452 0.2829045 0.48802218 0.48677033
0.7953165 0.04309989 -0.0048205876 -0.103167206 -0.018412076 0.09499429 0.018843675 -0.023598561
0.07787456 -0.016729863 0.039257433 0.013307381 0.020196537 0.2146154 -0.33404717 0.08910954
0.18274863 -0.16107737 0.044521198 0.117717296 -0.38413426 -0.30214006 -0.3395242 -0.050767694
0.20532712 -0.02776018 0.05030246 -0.054996494 0.050756913 0.27010304 0.17416532 0.3579462
0.62662584 -0.49795747 0.909827 0.83733237 0.15721883 1.0670786 0.7718345 0.06304667
0.9097425 1.0094393 0.0637511 0.24249052 -0.56639946 0.37405178 -0.0573564 0.13266174
-0.05453646 0.002116505 0.12809491 -0.13240246 -0.012793515 -0.020748615 0.10367864 -0.03024384

0.bias f4 [128]
00000000: 2356 4dbe 2ed6 71be d89c 68be d471 27be
00000010: a931 d43d dbb2 c5bc 9f58 7a3c e86f b93b
00000020: 9ff9 7c3e dd37 c6bd b692 7e3e 064c 043e
00000030: 4eda 40bd 210f b13d 0810 ffbd 657b 91be
00000040: 36f3 9ebd a1ec b33e f4d0 243e 60af b3bd
00000050: 4598 383e 0d41 72be 1e4f febd 6cfb a83d
00000060: 5f9f 92be 18d5 333e db0c ce3d 281d d4bd
00000070: 2d3f 0b3d d12f c3bd 667a 7abe 5861 9c3d
00000080: 9d0c a0bd 97ba b63d f0e7 82bd ba47 ee3d
00000090: 9180 f6be 8b53 ee3d 23d4 a5be d77e 2ebe
000000a0: e031 fabc 1515 343e 1b91 95be b508 0e3d
000000b0: ee79 883e 71ea 193e 8847 7dbe 7992 70bd
000000c0: 985a 9e3c 44e2 adbe e12c a0bd 3579 153e
000000d0: c09a d2bc 3106 48be 91ee 67be 680d 29be
000000e0: d7e0 f4bd ab11 06bd 28a7 7bbe 6cb4 2bbe
000000f0: 0ca0 ccbd 1283 9bbd a5fe c9be f51e 0dbe
00000100: 6533 173e 825f 2fbd 2a07 68be 91e7 d23e
00000110: d323 5b3c b197 213d d36b 3dbd 8c7e 34be
00000120: 35ee 173e b2f9 88be ee2d 263c 3d4a e33c
00000130: 7bb9 353d 9f67 bd3c c889 be3c c8b5 2abe
00000140: 3795 f7bd dbfa ecbd a865 33be 1878 8abe
00000150: b464 a3bd 4878 123e efcd 823c a7c3 e53d
00000160: 25a3 74be b5de 63be 12d1 4dbe 024e 813e
00000170: abff 4dbe 3dde 6d3d ee73 83bd ade4 39be
00000180: 64bc c13d fc05 c5bd c7de 34be b56e 1e3e
00000190: 90c2 923e d0ad 8fbd a7fe be3d e465 04bd
000001a0: 670c 2abe 78c2 adbe 2170 30bd 6ca4 3bbd
000001b0: 580c 7e3e 2708 c1bd ad93 2dbc 1ae1 8dbd
000001c0: 26c2 98be ed9d 2cbe d36e 863e 107d 573d
000001d0: a92e 30be 38a6 3d3e c416 bf3d 71dd 96bb
000001e0: 8b4d 5ebe c4cf c1bc 52ee 0fbe 833d 82bd
000001f0: aefc 29be 11b8 a1be 3ac3 a3bc d335 833c
-0.2005239 -0.2361686 -0.22716081 -0.16352016 0.103610344 -0.024133136 0.015279918 0.005659092
0.24704598 -0.09678624 0.24860653 0.12919626 -0.04708319 0.08645464 -0.124542296 -0.28414455
-0.077612326 0.3514147 0.16095334 -0.087736845 0.18026836 -0.23657627 -0.12417434 0.0825108
-0.28637215 0.17561758 0.10061046 -0.103571236 0.033995796 -0.09530605 -0.24460754 0.07635754
-0.07814906 0.08922308 -0.06391895 0.116347745 -0.48144963 0.11637028 -0.3238841 -0.17040573
-0.03054136 0.17586167 -0.2921227 0.034676272 0.26655525 0.15030839 -0.24734318 -0.058733437
0.019330308 -0.3396169 -0.0782106 0.14597018 -0.025708556 -0.19533612 -0.226496 -0.1650902
-0.11956947 -0.032731693 -0.24575484 -0.16768044 -0.09991464 -0.07593359 -0.3945209 -0.1378134
0.14765699 -0.042815693 -0.22658983 0.41192296 0.01337524 0.039451305 -0.046245407 -0.17626399
0.14836963 -0.26753002 0.010142786 0.02774536 0.04436634 0.0231207 0.023259059 -0.16670907
-0.12089007 -0.115712844 -0.17519248 -0.2704475 -0.07978192 0.14303696 0.015967337 0.11218958
-0.2389036 -0.22252925 -0.20099285 0.25254828 -0.20117061 0.05807327 -0.06418596 -0.18153639
0.09459761 -0.09620282 -0.17663108 0.15471919 0.28664064 -0.07015574 0.09325915 -0.032323733
-0.16606294 -0.3393743 -0.043075684 -0.0458111 0.24809396 -0.09425383 -0.010594291 -0.069277
-0.29835624 -0.16857119 0.26256427 0.052609503 -0.172053 0.18520439 0.09330514 -0.0046040346
-0.21709268 -0.02365864 -0.14055756 -0.06359389 -0.16600296 -0.31585744 -0.019990552 0.016016876

2.weight f4 [128, 128]
00000000: 3d52 8bbd 1cc6 843d 6a86 953d 0bd1 163e
00000010: 7c68 353e f124 063e 4c7c 6cbd 6b78 f03c
00000020: c50c 57bd 3341 9fbd b20c 203c 2305 cdbd
00000030: 5ec9 843d 1870 8cbe 0d7b 243c be80 483e
00000040: 35dd 8d3d 9688 aebc ce13 86bc 16e1 2abe
00000050: 0649 9dbd 0be2 ddbd 6307 7abd 6a90 8dbc
00000060: 2a10 27bd 28fa dbbd c456 3ebc 5201 c1ba
00000070: 3cf0 e3bd 9c3f 22bd 9303 16be d4a7 9f3d
00000080: 2fb3 7abe ff89 9dbc 1ac9 673d bb2f 053e
00000090: 9184 0a3e 59c1 583e 70e3 21bd 7c85 01be
000000a0: 9287 febd c907 e53d 698b cdbd e500 f63c
000000b0: b1f9 bebd 4707 1abe d926 4c3d 97c5 16be
000000c0: 68bb 123e ac7c 91bb ef88 083d f148 45be
000000d0: 6c67 5dbe b3cc 333d fe53 fcbd 5571 343d
000000e0: 83c8 9b3d 72d8 4f3e d561 d83d 8371 89be
000000f0: 94e0 adbd b232 f7bc 5506 663d dc90 353d
00000100: 969a 46be 2b2f bdbd 691a 81bc 3894 10be
00000110: b794 ea3d 8f3d a6bc 1787 afbd 7366 98bb
00000120: 117c 8a3d 36ee 543e 2d55 58be 8be3 103d
00000130: 0e8a 40be ef33 7d3d 7f65 f53d 87a3 37bd
00000140: 1321 09bd 3858 b4bd 70d2 ee3d 95dd d13d
00000150: ce37 a4bc 521d 3cbe ecfc c4bc 7586 37be
00000160: cd19 73bd f217 963d 972d 9d3c a5b5 57bc
00000170: 1938 c13c f833 143e f4d0 8f3c 8a4a 603e
00000180: 9c98 b5bb c21a 80bd e0ec 443d bd17 b7bd
00000190: 2f45 ea3d 2ad9 503e 96eb 81bd ba24 c93d
000001a0: c205 aebc afc7 fa3d 2130 1a3e d335 393e
000001b0: eeb2 f93d 1904 5e3e 2291 d2bd 3905 5dbc
000001c0: bd75 12be 6cab 7a3e af3c c33d 2528 7ebe
000001d0: ddac 14bd caf4 62bd 95df f4be 31c0 023d
000001e0: 808b 0cbd a68e 0dbd 5a06 83bb 0c12 b53c
000001f0: cdd1 3d3e 7d66 6c3d 6210 0e3d 5d75 eebd
00000200: 262d aebd 9a3a 2a3e 2524 223d bfb5 df3c
00000210: 21e8 55bd 4db0 59bd e43a 8abd 4939 48be
00000220: 602f 6cbe 45e4 523d 2d9c 073e f3cc 643d
00000230: f11f 4d3c 2cf5 69be 1d5a a93c 0c92 7bbc
00000240: 308f c7bd d48b 873d d024 e5bc 5148 92bd
00000250: e622 383e 5bb4 ce3d 44bd 65be ad99 013e
00000260: daf1 2fbd 0055 173d 5c5f c93d 16ba 1d3e
00000270: 9fe3 ef3c c6d1 393d a928 e8bd ae2d 8a3d
00000280: a966 29be 3f45 8f3d c97b 34bd 3713 dabd
00000290: 434e 6e3c a319 eebd d13c cbbd 6aa9 563d
000002a0: 194e 343d 1064 8abd 4305 0ebe a01e 03bc
000002b0: 6c03 4dbe 7a72 e0bd 2148 8bbd f754 633d
000002c0: f4f7 a6bc d88e 9ebd b805 a4bc 24a4 78bd
000002d0: 3f1c 09be fb35 193d 601f 903c 72dd 60be
000002e0: dc2f 853d 563e 863d d6e4 25bd 13d2 d8bd
000002f0: 19e7 2d3e ea0b d03d 9810 31bc c897 8b3d
00000300: b879 6abe 9bd6 ec3d 94aa 4cbc 7780 ecbd
00000310: 319c 3d3e e5d7 b03c 2941 7a3d 8107 24be
00000320: 1261 f83c 70cc d83d 7468 f3bd c017 a5bd
00000330: 4429 273d d313 2bbe 77f8 40bd 3041 75bd
00000340: 511f ffbd 5e70 e4bd 7781 863d b66c adbc
00000350: 77e0 e33d 9acd 85bd fadb 10be 9d64 c8bd
00000360: 0b77 9e3d 7b78 27bd 1dd3 17be 7992 09be
00000370: 9230 5bbe ca11 a8bd c43d 9dbd 2be3 15bd
00000380: 3c9c 9b3d 3b88 c03d 41a7 50bc 4ffb dcbc
00000390: 4819 80bc 5ae0 16bd 9043 9cbc 44d4 7d3e
000003a0: 3aa5 863d 1c41 27bc 0fec eebd a9c5 123e
000003b0: 9867 6d3d 70f9 b83d 1929 383d 97f4 a33c
000003c0: f989 26be 2627 ac3c 018e 893c d72c 1f3d
000003d0: 3f13 443d d4f3 2cbe 2ad9 5cbe d2a9 2d3b
000003e0: f603 8bbd 6301 063d cc80 853d 4693 623d
000003f0: d99a 5f3d 307a eebb 54c8 abbb d2ac 3cbe
-0.06802795 0.06483099 0.07301028 0.14728181 0.17715639 0.1310003 -0.057735726 0.029354295
-0.052502412 -0.07776108 0.009768652 -0.100107454 0.0648372 -0.2742927 0.010039103 0.19580361
0.069269575 -0.021305364 -0.016366865 -0.16687426 -0.07679944 -0.1083413 -0.0610422 -0.017280776
-0.0407869 -0.10741073 -0.011617366 -0.0014725125 -0.111298054 -0.039611444 -0.14649801 0.077956825
-0.24482416 -0.01923084 0.05658827 0.13006489 0.13527133 0.21167506 -0.039523542 -0.12648576
-0.12428202 0.111831255 -0.10036356 0.030029723 -0.093249686 -0.15041839 0.049841736 -0.14723812
0.14329302 -0.004439911 0.033333715 -0.19266106 -0.21621484 0.04389639 -0.12320708 0.044053394
0.07606604 0.20297411 0.10565535 -0.26844415 -0.084901005 -0.03017554 0.056158382 0.0443276
-0.19394907 -0.09237512 -0.015759664 -0.14119041 0.11454146 -0.020293025 -0.08570688 -0.004650885
0.06761945 0.20793995 -0.21126242 0.035373252 -0.18802664 0.061817106 0.119822495 -0.044833686
-0.033478808 -0.08805889 0.116612315 0.102473415 -0.020046141 -0.1837056 -0.024046384 -0.17922385
-0.059350777 0.07328786 0.019186778 -0.013165866 0.02358632 0.1447295 0.017555691 0.21903434
-0.005541874 -0.06255104 0.048077464 -0.089400746 0.11438977 0.20395342 -0.063437626 0.09821458
-0.02124298 0.12245118 0.15057422 0.18086939 0.12192331 0.2168125 -0.10281588 -0.013490015
-0.14302726 0.24479455 0.09533059 -0.24820001 -0.036297668 -0.05540923 -0.4782683 0.03192157
-0.034312725 -0.03455987 -0.00399856 0.022103332 0.18537064 0.057714928 0.034683593 -0.11643479
-0.08504705 0.16623917 0.03958525 0.027308343 -0.05222333 -0.05314665 -0.06749514 -0.19553103
-0.23064947 0.051487226 0.1324317 0.055859517 0.012519822 -0.22847432 0.020672852 -0.0153546445
-0.09744108 0.06618467 -0.027971655 -0.071426995 0.17982063 0.10092994 -0.2243548 0.12656279
-0.042955257 0.036946297 0.098326415 0.15403017 0.029283343 0.04536607 -0.1133588 0.06746994
-0.16543068 0.069956295 -0.044063363 -0.10648196 0.014545026 -0.116259836 -0.09923709 0.05240766
0.044019792 -0.06757367 -0.13869195 -0.008002907 -0.20020837 -0.10959335 -0.06800867 0.05550095
-0.020381905 -0.07742089 -0.020022258 -0.06070341 -0.13389681 0.037404995 0.017593086 -0.21959475
0.06503269 0.065548584 -0.040501438 -0.105869435 0.16982688 0.101585224 -0.010807179 0.06816059
-0.22897995 0.1156437 -0.012491841 -0.1154794 0.18516614 0.021587322 0.061097298 -0.16018488
0.030319724 0.10585868 -0.11885157 -0.080611706 0.04081084 -0.16706781 -0.047111955 -0.05987662
-0.12457145 -0.11154245 0.06567662 -0.021170001 0.11126798 -0.06533356 -0.14146414 -0.097848155
0.077375494 -0.040886384 -0.14826627 -0.13434781 -0.21405247 -0.08206518 -0.076777965 -0.036593597
0.07598159 0.09400984 -0.012735189 -0.026975302 -0.015637055 -0.036835052 -0.019075185 0.24788004
0.06574483 -0.010208394 -0.11666118 0.14333214 0.057960123 0.090319514 0.04496107 0.02001409
-0.1626357 0.021014761 0.016791346 0.038861122 0.047869917 -0.16889888 -0.21567217 0.0026498926
-0.06787865 0.032716166 0.06518707 0.055316232 0.054591034 -0.0072777495 -0.005242387 -0.184253

2.bias f4 [128]
00000000: 74d9 2fbe 2c4e 91be b5a4 71be 1dc8 93be
00000010: ab11 193d 1be0 24be e8f8 283d f27e 08bd
00000020: 6602 19be 0c9c d0bd 36ed 0d3e 3286 cdbc
00000030: a6fc bbbd 54f3 46be ed33 1fbe 693b 1abe
00000040: d969 0ebe 1009 05be d8fa bdbd 9353 7ebe
00000050: e32d c23d 95cd dd3c f218 3cbe eef7 dcbd
00000060: 5787 75be 9da0 98be 4067 99be fe12 93be
00000070: bc14 9bbd 09aa fcbd b584 41be 4ad2 44be
00000080: bd27 e7bd d809 a5bd 9346 8d3d 2b10 d93c
00000090: d762 30be ceb9 53be a584 67be 45e5 6abe
000000a0: 8cbf bbbd 0107 54bd bd64 5cbe 26dc c5be
000000b0: fb22 04be 44d6 54bc ef00 4abe 8c20 6bbe
000000c0: ebdb 40be 04ad 02be 3457 65bd 1be1 03bd
000000d0: f96d 51bd 34e0 debd 7aef d4bd 3923 ecbe
000000e0: d47e 783c 23a6 73be eba0 a03d 4b6e 19be
000000f0: 8472 85be 915e 81bd 57bc 65be 0a98 03bd
00000100: 76e9 febd da91 b33d 550d 0ebe 3ccf 21be
00000110: 3b39 0f3e 29f7 67be 62bc 3bbd 08ed f9bd
00000120: 3461 f7bd 4612 d8bc f539 8dbe 90dd 9dbe
00000130: 483a da3b 571b 10be 0462 383e 7813 20bd
00000140: f8eb 093e d8fd 1fbe 1893 10be a214 f2bd
00000150: ff9a 2dbd cd57 f6bd 6dbf 37be c4ae 46be
00000160: 8d44 a0be 3475 0dbe 613d 8abe a323 06be
00000170: 8140 57bd 5231 45bd f276 6fbe 53c2 87be
00000180: 5415 80bd df4d 03be bb56 d8bd 3da1 9dbc
00000190: 7133 ce3c 97ab f1ba 6e83 81be c574 8fbe
000001a0: ae2f 13bd 7745 3fbd 3165 7c3d bce8 65bd
000001b0: e87c 09be c96e 05be bf55 4f3c 1ca4 42be
000001c0: 6dd6 1abe 0726 0ebe 4df0 45be ab79 db3c
000001d0: 0a7b 8fbd 6a64 70bd 1e1c c5bd 0d6f 77bd
000001e0: 0041 54be e265 f9bd 6125 89be c76f 353d
000001f0: d9a3 62be 0b7d 37be 5af7 0e3d 7662 2cbe
-0.17172796 -0.28379953 -0.23597987 -0.28863612 0.037370365 -0.16101114 0.041253 -0.03332419
-0.14942321 -0.101860136 0.1386002 -0.025088403 -0.09179048 -0.1942876 -0.15547152 -0.15061726
-0.13907565 -0.12991738 -0.0927636 -0.24836569 0.094814084 0.027075568 -0.18368891 -0.10789476
-0.2397741 -0.29810038 -0.29961586 -0.28725427 -0.07572314 -0.12337119 -0.1889828 -0.19220844
-0.11286876 -0.08058518 0.068982266 0.026496967 -0.17225204 -0.20676348 -0.22609194 -0.22939022
-0.09167394 -0.051764492 -0.21522804 -0.38644522 -0.12903969 -0.012990538 -0.19726919 -0.22961634
-0.18833892 -0.12761313 -0.055991367 -0.0321971 -0.05113027 -0.10882607 -0.10397239 -0.46120623
0.015166957 -0.23793845 0.07843193 -0.1498348 -0.2606393 -0.06316865 -0.22435127 -0.032127418
-0.12446873 0.08768053 -0.13872273 -0.1580171 0.13986675 -0.22652878 -0.045833953 -0.12203413
-0.12079087 -0.026375901 -0.2758328 -0.308331 0.0066597797 -0.1407293 0.1800614 -0.039081067
0.13468921 -0.15624177 -0.14118612 -0.11820342 -0.042384144 -0.120284654 -0.17944117 -0.19402605
-0.313023 -0.1381424 -0.26999953 -0.13099532 -0.05255175 -0.04814274 -0.23385218 -0.26515445
-0.06254068 -0.12822674 -0.105634175 -0.019241923 0.025171014 -0.0018437979 -0.25295585 -0.28018776
-0.035934143 -0.046697106 0.06161994 -0.056130156 -0.13426554 -0.13030542 0.012654721 -0.19007915
-0.1512086 -0.13881694 -0.19329949 0.026791414 -0.0700589 -0.058689512 -0.096245036 -0.06040864
-0.2072792 -0.12177636 -0.2678633 0.044296052 -0.22132815 -0.17918794 0.03490386 -0.16834435

4.weight f4 [128, 128]
00000000: a3cb 7abd e7a4 e93d ee9a acbd 5829 cc3d
00000010: 47af 353e 524c 4c3d 2d90 6fbd 3f57 05be
00000020: a3f5 6cbc 69ad 053e e40a 4cbc bdae ebb8
00000030: c594 d9bc 7ed9 8d3d 4810 13bd 5476 6339
00000040: 3a25 c93c c8ef 723d 082d 833c b4cd 2b3d
00000050: efbd 8bbd 174e 08bd 0420 9c3d 250e cdbc
00000060: a55d 543d 90c5 063e 224c 67bd f289 1b3e
00000070: 1867 ffbc 6e42 c9bc c802 443c 2e05 413c
00000080: 43f6 8e3d 36bf c53d a0f1 7abd b720 34bd
00000090: 24cc 683d 7492 633e e03e 8a3d 7373 a83d
000000a0: 94bc 4cbd 66e5 6ebd 0fad c73c 9386 a7bc
000000b0: 609d c4bb 33c1 88bb 6a92 8dbd 7cd8 0d3d
000000c0: 846e b539 692c 33be 2291 1ebd d294 dbbc
000000d0: c9dc 94bd 1e31 703d 3159 a4bd 1dc9 613e
000000e0: 2d88 c4bc f46c 7abd 444e d83d f38d ec3c
000000f0: 8471 073e 7a8b b9bd 666d 6fbd 79a2 9f3d
00000100: c286 813d af1a 8a3d aa4d 053d 8c01 c83c
00000110: 6cff d63d 8bd2 95bd a365 a2bd d4d9 873d
00000120: d5f2 803e 5ba5 1ebe 489e 9d3d 1792 f73d
00000130: 39a4 da3b 2b46 d8bd 3a1d 3e3e 6952 6abd
00000140: 872e c7bd c238 99bc 7047 a33d b99d 1e3e
00000150: c679 e73d 32df ca3d 63fb 843d 46cd 253c
00000160: 1c7a 083e aa8e 0dbe 6c10 0d3d fb51 263d
00000170: 2a47 b93b f3b9 9c3d ae5a da3d c890 4a3d
00000180: 4af0 623c 8fdf 28be d04c 493e d663 0c3e
00000190: 2522 073d c627 783e 3127 1c3e 2176 71bc
000001a0: 0393 d53c 6f07 bc3d 4704 a7bd c8c5 273e
000001b0: 3f58 183e 508b e2bd 3ba5 dd3c a6ce cbbd
000001c0: eefc a43b eee4 d53d 6fff 153d d825 203d
000001d0: 05ef f1bc 506f 1cbd 4ca2 81bd ae5f b03d
000001e0: dd05 10bd b0bf 353e c263 07be bf64 87be
000001f0: 2a10 cdbc d296 9c3b 4aca 4dbe 4c61 d3bc
00000200: 5968 9dbd 1c15 4fbd 3cce 3c3d 407c 983d
00000210: 81d9 4a3d d30e 92bd 73e7 31bd 93b0 91bd
00000220: e397 873d 8192 11bd 2098 de3c 89fb 48bd
00000230: aaae 3dba f7d2 dd3d 2d6b 32bd 4b8b d5bd
00000240: 309f 7abc f2e2 5a3d e398 17be c74c a33c
00000250: 5578 9cbc b91a 2c3d fb68 c3bd dcbc c33d
00000260: 7131 b73d c7e3 d13a c0df 323e 8704 523c
00000270: 623f 653d e122 2ebd c5b4 423d 1ffb 87be
00000280: b4bf 533d ce04 473e 51dd b939 d7f2 1f3d
00000290: 3f17 58bd 020b 87bb f765 fc3c fc0a b6bd
000002a0: 1366 b23c 01cb a63d 5159 433d f229 f5bd
000002b0: c8f9 203d 7c06 a63d c8e8 183b 537f 13be
000002c0: 2bcd dabd f68d 1a3e ce77 a3bc 6034 9dbd
000002d0: 50fa 203d 4d47 a83d 57f9 b43d 938c de3b
000002e0: c9d0 11bc 1818 0d3e afa6 b4bc 2e47 63bd
000002f0: a214 1b3d d6ad 06bd f593 453d 7cff 08bc
00000300: 6ced 5e3d fbff 65ba b2d5 bebd eee5 3ebd
00000310: bce9 08be 4ac5 b2bd 137e 35bd 5c53 87be
00000320: 0c3d de3b 0d1f 433c b6bb 213e 1579 10be
00000330: eeef 893d cf75 313d e4fa 02be 05ed 943d
00000340: 2834 1dbb dafa d0bc 1362 a6bd 08d5 25bd
00000350: b16a c1bc 40c9 5ebd c072 bbbc 0984 0abe
00000360: 7c7b 36bd 0e2d 333d ee7b 853b e3c3 cb3d
00000370: ccb3 8abd b13d 7bbc 8060 53bd 13a1 813c
00000380: 6b4d 1ebc 0b7a 293d 15d7 c8bd 8070 573c
00000390: da62 773d 98b5 9b3c 235a 3abd c889 7d3d
000003a0: aac5 bebc 4d36 e9bd b458 69be 90dd 15be
000003b0: ff70 fdbd 55ec 00be 0a5c 4e3d 634f c5bd
000003c0: 85cc febc e02d 0fbe 23e9 a23d 2ff0 d23d
000003d0: 4ee0 36bd 1653 eebd ae39 b43d 1cb2 913d
000003e0: dcc1 16be feef f83c c872 a83d 0188 cd3c
000003f0: 4f9a c93d 416d 063d 19fe f4bc fbe1 eabd
-0.06122936 0.11408406 -0.08427988 0.09968823 0.17742644 0.049877472 -0.058487106 -0.13021563
-0.014462861 0.13054432 -0.012453768 -0.00011238221 -0.026560197 0.06926249 -0.0359042 0.00021692488
0.024553884 0.059310704 0.016012684 0.04194422 -0.06823336 -0.033277597 0.07623294 -0.025031159
0.05184712 0.13161302 -0.05646909 0.1518934 -0.031177089 -0.024567809 0.011963554 0.01178102
0.069805644 0.09655611 -0.061265588 -0.04397651 0.05683531 0.22223836 0.06750274 0.08225145
-0.04998453 -0.05832424 0.024374513 -0.020449912 -0.006000206 -0.0041734218 -0.06912692 0.034630284
0.0003460535 -0.1749741 -0.03871263 -0.026804361 -0.07268674 0.05864059 -0.080248244 0.22049375
-0.023990715 -0.061139062 0.10561803 0.02887628 0.13226897 -0.09059806 -0.05845394 0.07794661
0.06324531 0.06743371 0.03254477 0.0244148 0.104979366 -0.073155485 -0.07929542 0.06633344
0.25185266 -0.15492766 0.076962054 0.12088411 0.006672409 -0.105602585 0.18565837 -0.0572075
-0.09725671 -0.018703822 0.0797261 0.15489854 0.11302523 0.099058524 0.06493261 0.010119742
0.13327831 -0.13823953 0.03443949 0.040605526 0.0056542354 0.076526545 0.10661827 0.04945448
0.013851235 -0.16491531 0.19658208 0.1370996 0.032991547 0.24233922 0.15249325 -0.014737637
0.026071077 0.09181105 -0.08155113 0.16384041 0.14877413 -0.11061728 0.027056327 -0.099515244
0.0050350344 0.104440555 0.036620554 0.03909859 -0.029532919 -0.038192093 -0.06329784 0.086119995
-0.03516184 0.17748904 -0.13221648 -0.2644405 -0.025032122 0.0047787214 -0.20096698 -0.02580323
-0.07685918 -0.05055724 0.046095118 0.07445574 0.049523834 -0.07131734 -0.043433618 -0.07113757
0.06620767 -0.035540108 0.027172148 -0.049068008 -0.0007235805 0.10831254 -0.043559242 -0.10426959
-0.015296742 0.05343909 -0.14804415 0.019934071 -0.019100348 0.042017672 -0.09541508 0.095575064
0.08944977 0.0016013318 0.17468166 0.012818462 0.05596865 -0.042513732 0.047535677 -0.26558778
0.051696494 0.19435427 0.00035450843 0.03904995 -0.052756544 -0.0041211853 0.03081034 -0.08888814
0.021777188 0.08144189 0.0476926 -0.11970891 0.03930071 0.081067055 0.0023332108 -0.14404039
-0.10683664 0.15093216 -0.019954588 -0.07676005 0.039301217 0.082167245 0.0883662 0.00679166
-0.008899876 0.13778722 -0.022052137 -0.055487804 0.037861474 -0.032880627 0.048236806 -0.0083616935
0.054425642 -0.0008773801 -0.09318103 -0.046605997 -0.13370413 -0.08729036 -0.044309687 -0.26430786
0.0067821797 0.011909259 0.15794262 -0.14108689 0.06735216 0.04332524 -0.1279102 0.072717704
-0.0023987386 -0.02551024 -0.08124175 -0.040486366 -0.023610445 -0.054391146 -0.022881866 -0.1352693
-0.044551358 0.04374414 0.0040736115 0.09949472 -0.06772575 -0.015334533 -0.0516057 0.015823876
-0.009662013 0.041376155 -0.09806649 0.013149381 0.060397007 0.01900749 -0.045496117 0.061898977
-0.023287613 -0.1138731 -0.22787744 -0.146353 -0.12375068 -0.12590154 0.050380744 -0.096342824
-0.031103382 -0.13982344 0.079546236 0.10299718 -0.044647507 -0.11636941 0.08800064 0.0711405
-0.14722389 0.030387875 0.08225018 0.025089266 0.09843885 0.032819036 -0.02990632 -0.114688836

4.bias f4 [128]
00000000: ccdc d3bc 6159 eebd c357 b5bc e8b3 1bbc
00000010: 2e98 18be e219 38be 338f fdbd 7d3b 36be
00000020: 8e7d 87be b1fa e8bd fb95 6dbe 3d4b 5c3d
00000030: 48ad 0fbe 53a8 12be aa71 bfbd 52c7 aabd
00000040: afa4 3a3c afae dabd fe72 fbbd 6c5c 53bd
00000050: 6089 933d b83c 49bd 2f6b 90bd ea12 c13c
00000060: 6cdd 623c ac13 42be ce7b 4ebe 397f 96be
00000070: 2518 b03d 39a4 29be af63 2ebe 15c8 a6bd
00000080: 45d4 bdbd d9b3 31be 26d1 ed3c 3b15 95bc
00000090: 535b 1bbe 3b91 05be f093 11bd b995 7cbd
000000a0: 8287 e1bd c51c 3cba eb71 05be aac1 c8bd
000000b0: 3b5d 2abd 8a9c a1bd cd08 51be ece7 56be
000000c0: 5a99 afbd 97d7 393d b64f 26be 5492 17bc
000000d0: ec4b 62bd f887 40bd 2840 003d b319 86be
000000e0: 215f 3cbe b98f 403c 0c62 07be 185b afbd
000000f0: 878a f7bd 7c9e 7a3c 4e8d dcbd 7ce3 2bbe
00000100: bb72 39be a14c c2bd fe51 b6bd a167 1bbd
00000110: e73f 9e3d 9861 aebd 5ff7 4ebe bb2f bebb
00000120: 108e 24bd 617b b8bc 2ce6 b9bd fe4e 213d
00000130: 32db bcbd 0a7f bebd cacb 8ebe b44b 02be
00000140: 5089 36be 5d9d 85bd 31fb 33be 9018 53bd
00000150: dcf0 b8bc b9b0 35be ca7b d5bd ca90 18be
00000160: 693e 9fbd 9490 b83c 4aa2 08be 8988 12bd
00000170: 4df8 b9bd 898c 083e 820c f9bd f66d d83d
00000180: 5cd3 11be fadd 4c3c f2cc 08be 5643 8abc
00000190: e997 dc3b 3c5c 3cbd f971 bfbe a35f 41be
000001a0: 7aeb 8abc 8dea be3c 7c90 62bd eff3 4cbd
000001b0: 4e81 d83b 447f 343d 5785 54be 8e59 4ebd
000001c0: ef2c efbd 9c91 82bd 26f9 88bc 27cf 10be
000001d0: f1ee 32bd 1303 23be d19d 47be 2e10 1dbd
000001e0: 8768 6dbd e32e 813d 9a5a 2cbd 59da 8fbc
000001f0: 87f9 53be 9b30 ef3d a1b6 82bd 7e01 95bc
-0.02586212 -0.116381414 -0.022136575 -0.009503342 -0.14901802 -0.17978624 -0.12380829 -0.1779613
-0.26462978 -0.113759406 -0.23201744 0.05378269 -0.14030945 -0.14322023 -0.093478516 -0.083387986
0.011391803 -0.106778495 -0.122777924 -0.051601812 0.072039366 -0.04913017 -0.07051694 0.02356859
0.013846736 -0.18952817 -0.20164415 -0.29393938 0.08598355 -0.16566552 -0.17030214 -0.08143631
-0.09269003 -0.17353763 0.029030394 -0.0181986 -0.15171556 -0.13043682 -0.035541475 -0.061666224
-0.11012174 -0.0007175918 -0.13031738 -0.098025635 -0.041592818 -0.078911856 -0.20413513 -0.20986909
-0.08574171 0.045371618 -0.16241345 -0.009251196 -0.055248186 -0.04700467 0.031311184 -0.26191482
-0.18395664 0.011753016 -0.13220996 -0.08562297 -0.12086969 0.015296575 -0.10769139 -0.16785997
-0.18110172 -0.09487272 -0.089023575 -0.037940625 0.07727032 -0.08514708 -0.20211552 -0.0058040298
-0.040174544 -0.02251977 -0.09077105 0.039381973 -0.09221496 -0.093015745 -0.27889854 -0.12724191
-0.17825818 -0.06524155 -0.1757629 -0.051537097 -0.022575788 -0.17743196 -0.104240015 -0.14898983
-0.07775576 0.022529878 -0.13343158 -0.03577474 -0.09080563 0.1333486 -0.12160589 0.105678484
-0.14240783 0.012504095 -0.1335943 -0.016877811 0.0067319763 -0.0459864 -0.37391642 -0.18884139
-0.016957987 0.023305202 -0.055313572 -0.05003732 0.006607211 0.044066682 -0.2075399 -0.050378375
-0.11678492 -0.06375429 -0.016720366 -0.14141522 -0.043684904 -0.15919141 -0.19493796 -0.03834551
-0.057961013 0.06307771 -0.042078592 -0.017560171 -0.20700656 0.11679193 -0.0638249 -0.018189188

6.weight f4 [12, 128]
00000000: 6c15 413d d049 983c 1c7d ca3b 3d5b 9ebc
00000010: 0d8f adbc 036e 51bc d3fc a03d 2d71 603d
00000020: a2bb 7c3d 07c6 623d fb14 223d 2ba4 7f3d
00000030: 94a2 2dbc cf2d 2cbd 825e 7fbb 897c ed3c
00000040: fe62 c8bb 503e e53b 663e 6d3a a336 353d
00000050: e70a a8bb 4d95 a63b 1a60 7c3b 8f99 a0bc
00000060: 8704 e8bd 4f1d d8bb 2591 993c 690b 2abd
00000070: edee 37ba e0bf 083d 4b58 8abc 2469 0ebd
00000080: 36b4 83bc ac4a 28bd 763c dd3c 485a 073c
00000090: 45b7 a1bd 8388 fb3d 48d9 febc cfca 873d
000000a0: 91d8 c6bc 31b0 12bd a566 86bc ab8a ca3c
000000b0: cf58 9c3c 670b 8dbd 5779 e53b 0400 f03c
000000c0: 2d3a 8abc df04 4cbc 45c7 f03c a910 133c
000000d0: 6cf4 6ab8 d182 23bd 766e f63b 3ae7 ff3c
000000e0: 3993 293d b79c 683c 084c 47bc ea1b 6f3d
000000f0: c684 883c d1c3 a63d df31 65bd 7374 cfbc
00000100: a2d8 b43b 3d57 5a3d 14b9 95bc 2447 a13c
00000110: f4d6 a4bd 44be 7abc a7e1 833c 6f49 b3bc
00000120: c9e1 dfbd c774 73bd 36ae 723c 83c4 c9bc
00000130: d19a e838 6959 b13c 1eae 843c 35f4 8fbd
00000140: c321 513a 378c f2bd 643d 753d ccfc f0bc
00000150: fce1 32bd d8b1 373b 7eac 033d bb84 77bb
00000160: f85c cbbc 2e52 42bd c528 2f3d 8a96 9c3c
00000170: b7f6 df3c d98a 04bd ff70 b03b 0820 053d
00000180: 38df a9bb 1fe7 09bd 69e1 ad3c ec7b cdbc
00000190: a5e2 083d bc8a 3abc 6c03 d4bd 5316 7ebb
000001a0: 25df 363c 3887 6f3c 9ffe 093d 82e0 e73c
000001b0: 0de5 50bc 64e4 f83c d14b ee3b 8374 1a3d
000001c0: 0957 d83d 2427 0ebd 56b6 dcbc 80ae 1a3d
000001d0: 259d abb9 8015 0e3d 2af5 32bb bec8 1ebd
000001e0: e1f7 4f3d 7150 94bb f7f2 99bd e356 6d3d
000001f0: 1122 26bd d3a6 bdb9 e0db 9dbc e26b 7cbc
00000200: 640b 6d3c 803f 80bd 42a4 363d c9b4 c3bd
00000210: 4fb0 3c3b 93b3 6c3d 5caa 92bd 2526 48bc
00000220: e2ab 86bd 9d08 b73c 7b4c 753c 0fc6 913d
00000230: 4beb 193d 5556 673c 4f0c 94bc 6102 2fbc
00000240: c355 503c 9cc6 973a 7436 563d c116 843c
00000250: cc0b 6a3d 3856 f4bb c515 42bc f64d 953b
00000260: 510a f33c e311 813c a764 ceba a2af 673b
00000270: 9b62 e33b a9fe 703b 5ded 5ebc 5eaf 853c
00000280: b2cf c9b9 8ca2 193e e43a e8bc 432c 9dbd
00000290: 32cc 45bd c5b5 223d a728 2a3d c84b bc3c
000002a0: 99b7 9cbd fbe3 013d 3068 f6bc 97d7 a43b
000002b0: db7f f5bc 439a 15bd f3de b73c 7730 e4bb
000002c0: 4b57 e5b8 e626 cfbc 5955 28bc f108 c43b
000002d0: 7373 593c 61ca 25ba bb73 c13a dfe0 e43b
000002e0: 7639 b8bd 95bf eabb cbb7 943a 5927 a73c
000002f0: 2a9f 85bc 7120 1bbd 8399 1c3b f695 93bc
00000300: bd4c 16bb 831b 9f3d 557f 2ebc 22a0 d6bc
00000310: bd53 a73c 8ed1 24bd 1cd8 0e3b f21e a1bd
00000320: 7d3a 51bb dcfa 763c 43f4 7fbd abeb 6a3c
00000330: fad8 d83b 5edd 39bd 1f02 6bbc 994f 6bbc
00000340: bb09 aabb 2a54 463c b089 09bd 6a34 db3c
00000350: c35f 09bd f915 733c 6b8e 633d e050 1f3d
00000360: 3f58 34bd d5f0 afbd ea4f 96bd 8e1c 05bd
00000370: dd9c 713c 8100 813c 295a 20bc 5cd2 8abb
00000380: 183d 49bc 1da9 ff3b 8d0c f63d 1fae 9dbc
00000390: 2b0a bfbd b56f 59bd 55ed 793d 01a1 203d
000003a0: e638 97bd 99c9 55bd 7350 33bd 58fb ff3b
000003b0: 1159 ccbc 8cd5 e1bc 8e97 8abc 90f2 803b
000003c0: a674 963c 3c65 c7bc 2ce3 063d 663d c63c
000003d0: 30d0 083c adb8 63bd e70a 08bd 55a9 d3bc
000003e0: a903 813c 24dc 9abd 7f99 c6bc 1dd9 ebbb
000003f0: b14b 3b3d f608 083c e8e4 36bd 1160 9eba
0.04713957 0.018589884 0.006179465 -0.019330615 -0.021186376 -0.0127825765 0.078607224 0.054795433
0.061702378 0.055364635 0.03957079 0.062412422 -0.010597844 -0.042035874 -0.0038966243 0.028990047
-0.0061153164 0.0069959536 0.00090501306 0.04424156 -0.005128253 0.005083716 0.003850943 -0.019604472
-0.113289885 -0.0065952907 0.018745968 -0.041514788 -0.0007016499 0.03338611 -0.016887804 -0.03476824
-0.016077142 -0.041086838 0.02700637 0.008261271 -0.07896284 0.12281897 -0.031109467 0.066304795
-0.024273189 -0.03581256 -0.016406367 0.024724325 0.019085316 -0.068869404 0.00700299 0.029296882
-0.016873443 -0.012452333 0.029391894 0.00897614 -5.6017583e-05 -0.039919678 0.007520492 0.031238187
0.041400168 0.01419752 -0.012164123 0.05837623 0.016664874 0.08142818 -0.055955764 -0.025324082
0.0055189887 0.053305853 -0.018276729 0.019687243 -0.080488116 -0.015304152 0.01609881 -0.021885602
-0.10931737 -0.05943754 0.014812043 -0.024629837 0.00011091459 0.02164908 0.016196307 -0.07029001
0.0007977748 -0.1184315 0.059873 -0.029417418 -0.043672547 0.0028029587 0.032146923 -0.0037768323
-0.024824604 -0.047441654 0.04276349 0.019114751 0.027339322 -0.032358978 0.005384564 0.03250125
-0.0051840805 -0.03366768 0.021225648 -0.025083505 0.03341927 -0.011385616 -0.10352215 -0.003877063
0.0111616 0.014619641 0.03369009 0.028305296 -0.012749922 0.030382343 0.0072722216 0.03770877
0.10563476 -0.034705296 -0.026942413 0.037764072 -0.00032732743 0.034688473 -0.0027306774 -0.03876566
0.050773505 -0.004526191 -0.07517045 0.05794419 -0.040559832 -0.00036173183 -0.019269884 -0.015406581
0.014468048 -0.06262112 0.044590242 -0.095559664 0.0028791612 0.057788443 -0.071614 -0.012216126
-0.06575753 0.022342974 0.014971848 0.07117855 0.03757791 0.014119704 -0.018072275 -0.0106817195
0.01271576 0.0011579576 0.052298024 0.016124131 0.057140157 -0.007456567 -0.011846011 0.004556413
0.029668005 0.0157556 -0.001574655 0.0035352488 0.006939245 0.0036772883 -0.0136063965 0.016318973
-0.00038492453 0.15003413 -0.028348394 -0.07674458 -0.04829044 0.03972413 0.041542675 0.022985354
-0.07652206 0.03171156 -0.030078977 0.005030583 -0.029968193 -0.03652407 0.022445178 -0.0069637853
-0.000109358305 -0.025287103 -0.010274255 0.005982511 0.013272154 -0.00063244073 0.0014759222 0.0069848145
-0.08995335 -0.0071639516 0.0011346278 0.020404505 -0.016311247 -0.037872735 0.002389521 -0.018015843
-0.0022933923 0.07768919 -0.0106504755 -0.026199404 0.020425672 -0.04023891 0.0021796292 -0.078672305
-0.003192573 0.015074458 -0.062488806 0.014338414 0.0066176625 -0.045377128 -0.014343767 -0.014362239
-0.0051891482 0.012105027 -0.033578575 0.026758391 -0.03353859 0.014836782 0.055555742 0.038895488
-0.04402947 -0.08590857 -0.07339461 -0.032497935 0.014746872 0.01574731 -0.009787121 -0.0042365026
-0.012282632 0.0078021423 0.120141126 -0.019248066 -0.09328111 -0.053085048 0.061017353 0.039216045
-0.073838994 -0.05219421 -0.043777894 0.007811945 -0.024944814 -0.027567647 -0.01691797 0.0039351657
0.01836617 -0.024340264 0.03293149 0.024199199 0.008350417 -0.055596042 -0.033213522 -0.02583758
0.015748816 -0.0756152 -0.024243115 -0.007197513 0.04572648 0.008302918 -0.044651896 -0.0012083073

6.bias f4 [12]
00000000: dbc9 98bc c767 08bd 9d9c 983d 66da 8abd
00000010: 5511 71be c29e 8fbe 51e7 f63d c888 823e
00000020: 555d 4fbe 447f 17be 1357 e6bd bda7 17be
-0.01865094 -0.033302095 0.074517466 -0.067799374 -0.23541768 -0.2805081 0.12055839 0.2549498
-0.20250447 -0.14794642 -0.11247077 -0.14810081
