onnx_inference/data/model.onnx (onnx, 162779 bytes, 8 tensors)

0.weight f4 [128, 45]
00000000: 432e 3f38 cf51 28bc 35f9 093d 24cd 6b3d
00000010: 47f8 c53d cba1 d83d f81c 76bf 0250 6fbe
00000020: f39b 08bf a2f1 dfbe a965 9e3e caf1 8abe
00000030: 4d64 93be 3101 35be 1117 ff3e 401f 06be
00000040: d1a0 50be 4005 0c3f 85c1 b43e 8a08 a73c
00000050: e89a 193e 5c89 9a3d b84b c3bb cc33 993c
00000060: a584 33bd 5bec 563e d0da 52bd 2af0 e23b
00000070: 9efb 8e3d 890e 62bd 42e4 973b e52f 22bd
00000080: 61ca 853d 0011 42be 6a5b 03be d59b 883d
00000090: a092 78be 9344 9c3c 561b 903d 5c9f d7bd
000000a0: 5f8a f6bc 3b09 d93d ce27 9cbd e54d 2cbe
000000b0: 4993 a0be 8c5b d9bc da31 b73c a455 ac3c
000000c0: 1949 623e f78a 083e b282 343f 56ef c93e
000000d0: ba69 24be 5142 4dbf b542 b3be 1356 4c3f
000000e0: acda 94be 01b1 49bf e6e5 a9be 716c efbe
000000f0: 8afc 653f 54ee d2bc 2553 b63e 5cf4 dbbe
00000100: 250a b23e 950a a93e 51b1 f03d 7351 93bc
00000110: 6ed9 c6bc 2e24 983d 4c30 df3d 4de2 89ba
00000120: 8a1f c8bc aa96 27bd 2391 523d c406 013b
00000130: 6a16 35bd 9505 34bc 9902 893d 651b a4be
00000140: 510e c23d 22bc 213e 4105 533e 6e63 61bd
00000150: b5c2 3b3a e2af 83bc 26c3 2f3d 72c7 9abe
00000160: 3578 4d3d 650e 0c3e 7f66 513b 5cfa 343a
00000170: b428 a7bc 4be4 9dbd 2732 903d b0e8 8f3e
00000180: a011 063d ced9 24bf 46c1 29bf 03fe 2f3f
00000190: 5fc6 1f3d 6fa4 febd 4ad1 ffbe 6404 833e
000001a0: 3d8a 1ebf 5e48 2e3f 84df 8b3e fc81 b43e
000001b0: c2bc 37be f3ca e23e 8c1e 5f3d 7b30 01be
000001c0: 28e4 e43d e390 8bbd 0b33 07bd e020 383e
000001d0: 8f56 873d 5d74 49be 7d2c 12bd 99b2 ab3c
000001e0: 6b18 583d bd43 ab3d 74c4 85bc 04e0 4d3d
000001f0: 00fe 21be ff59 843d 3c73 97bd 1937 35bd
00000200: 930f 0dbe e663 eebd 9eac 313e 864f a23d
00000210: 8707 053e 910a 303d c561 2cbd 20ac e83c
00000220: c5f6 a7bc fe10 9fbc e8c5 1abd cba7 2e3d
00000230: 3e9a 38be 9e87 613e 912a b8be 37ee 28bf
00000240: da03 b2be 11a9 32bf 08eb 2d3e e189 c9be
00000250: 12c6 b6be 5b39 073e b540 c93e 1cc1 093e
00000260: 13b9 c43e 696b ae3d 76c5 d33e a96a 57be
00000270: 89ba dfbd 7798 b53d e2ce 953d 4c9d 333c
00000280: 0a58 2bbd 84f1 c6bd d4e4 df3d e4fe afbd
00000290: 0d9a 81bc 6bb6 c6bd 45d3 95bd 9bec 833c
000002a0: 9854 a7bc b35a c53d 75db 2abe 7feb 1ebd
000002b0: 2ab5 cfbc 77d9 ab3d 9f68 84bd 91d0 e03e
000002c0: 1ca5 d0be 12a5 9e3e f18f 413e 8d36 81be
000002d0: 56ee 5c3c 4708 86bb f564 323c e01c 8fbe
000002e0: c67d 8f3e 839b a43e 8ce7 773d a237 15be
000002f0: 325c a63f 7b0a 99be 2659 b9be 26f2 343c
00000300: 203f 8abf 6af3 82be 3018 6c3e 95bc 633e
00000310: 31b5 143e 40f9 693e 6892 8c3e 5899 133f
00000320: 806f 0c3f 2bc0 363d aae5 cbbd acc0 e93c
00000330: 7454 963d 7985 483d 8022 e53d b0f3 42bb
00000340: 921f 0ebb 39d1 86bc c53d e93c 7a3e adbc
00000350: 3002 b63d bf55 48be 9c1a 39bc 4f11 143d
00000360: fa77 afbe 95b7 d7bd c41b 4ebe 2843 2ebc
00000370: 7bfd fcbc ac8b 39bd fc60 de3d 0014 37be
00000380: 7c0b d93b d2a3 d63a 1b15 29bc 609b 443c
00000390: 9b92 39be 0c55 da3e 3c87 e03e 0966 2f3f
000003a0: 9d18 743f 4282 55be 3974 a93e 6e95 0e3d
000003b0: d49f 503e d041 853e 78c3 013f 35a3 56bf
000003c0: 156d 0d3f 61be 083f fcbf 803e ee1d 2dbe
000003d0: a1e0 2dbe 6060 ad3e 5d6f 873d d6dd 4ebd
000003e0: ada6 8fbd 6581 a6bd 6707 9b3d e2a4 78bd
000003f0: ea65 ee3c 22f4 343d efbb 883d abe8 23bc
4.5581033e-05 -0.010273411 0.033684928 0.057568684 0.09666496 0.105777346 -0.9613795 -0.23370364
-0.5336296 -0.4373904 0.30936936 -0.27137595 -0.2878746 -0.17676236 0.49822286 -0.13097858
-0.20373847 0.5469551 0.35303894 0.020389814 0.15000498 0.075457305 -0.005959954 0.018701456
-0.04382767 0.209886 -0.051478207 0.0069256024 0.06981586 -0.055189643 0.0046353647 -0.039596457
0.06532741 -0.18951797 -0.1282784 0.066703476 -0.24274683 0.019075667 0.07036464 -0.10528442
-0.030095277 0.10597464 -0.0762478 -0.1682659 -0.3136237 -0.02653291 0.022362638 0.02103693
0.22098197 0.13334261 0.70511925 0.3944041 -0.16055956 -0.80179316 -0.3501183 0.7981884
-0.29073083 -0.7878571 -0.3318321 -0.46762422 0.8983847 -0.02574841 0.3561031 -0.4295987
0.34773365 0.33015886 0.117525704 -0.017983174 -0.0242736 0.07428776 0.10897884 -0.0010519713
-0.024429101 -0.04091517 0.051407944 0.001968787 -0.04421083 -0.010987659 0.066899486 -0.3205215
0.09475387 0.15794423 0.20607473 -0.055026464 0.00071624975 -0.016075078 0.042910717 -0.3023029
0.050163466 0.13677366 0.0031951962 0.00069037615 -0.020405151 -0.07709559 0.07040816 0.28107214
0.032731652 -0.64394844 -0.66310537 0.68746966 0.03900754 -0.12433707 -0.49964362 0.25589287
-0.61929685 0.68079174 0.27318966 0.3525542 -0.17943099 0.44295463 0.05447249 -0.1261615
0.1117633 -0.06814744 -0.033007663 0.17981291 0.066083066 -0.19673295 -0.03568696 0.020959185
0.05275766 0.083625294 -0.016329028 0.050262466 -0.1581955 0.06462478 -0.07395026 -0.044242
-0.13775472 -0.11640148 0.17351004 0.07925324 0.12991153 0.042978827 -0.042085428 0.028402388
-0.020503411 -0.019417282 -0.037786394 0.04264049 -0.18027589 0.2202439 -0.35969976 -0.65988487
-0.34768564 -0.69789225 0.16984189 -0.39363006 -0.3569799 0.13205473 0.3930718 0.13452572
0.3842245 0.085165806 0.41361588 -0.21036781 -0.10924251 0.08866971 0.073148504 0.0109627955
-0.041832007 -0.09714034 0.109323174 -0.085935384 -0.015820527 -0.09702762 -0.07315687 0.016104033
-0.02042608 0.0963644 -0.16685279 -0.038798805 -0.02535494 0.083910875 -0.064652674 0.43909124
-0.40750968 0.30985314 0.18902566 -0.2523693 0.013484558 -0.004090342 0.010888328 -0.27951717
0.28025645 0.32149896 0.060523555 -0.14572003 1.2996886 -0.29890808 -0.36200827 0.011044061
-1.0800514 -0.25576335 0.23056102 0.22239907 0.14522244 0.22848988 0.2745545 0.5765586
0.54857635 0.04461686 -0.09955914 0.028534256 0.07340327 0.048955414 0.11188221 -0.00297473
-0.0021686298 -0.016457187 0.028471837 -0.021147955 0.08887136 -0.1956396 -0.011297848 0.03614932
-0.34271222 -0.10533062 -0.20127779 -0.0106361285 -0.030882588 -0.045299217 0.10858342 -0.17878723
0.0066236835 0.0016375727 -0.010319973 0.011999935 -0.18122332 0.4264301 0.43853176 0.6851507
0.95350057 -0.2085047 0.33096483 0.034810476 0.2037347 0.26026773 0.50688887 -0.83842784
0.5524457 0.53415495 0.25146472 -0.16905949 -0.1698022 0.3386259 0.06613038 -0.050504528
-0.07014213 -0.08130149 0.07569771 -0.06070412 0.02910133 0.044178136 0.066764705 -0.010004203

0.bias f4 [128]
00000000: 636d 7ebe 68a7 45be b085 8f3e 95f6 a3be
00000010: 4a01 8ebd e18d d13d 5478 3fbe 387c 1f3d
00000020: 3bdf 883e 26ea 86bd 1b8e 593e 6935 2dbe
00000030: c60f 8c3d 44cc e83d bb8c 68be 9aeb 28be
00000040: 3f12 1f3d 617c c53d a010 9c3d e967 0c3e
00000050: 5949 293e 4bd6 70be e038 58be bc4d 633d
00000060: bc00 b8be 0cb6 973c d5aa 9b3d 9d55 133e
00000070: b671 213d 3a96 6ebe 8c12 35be 06cf 00be
00000080: 4baa 883d 082e ac3d b11b 29be 3d0d 58bd
00000090: c267 17be 47ee 193e e6ee 17bd 8da7 a5be
000000a0: 8655 38bd 12f7 403e 6ccb 96be 1b00 96bd
000000b0: 8277 463e 6bc9 843d 2e81 fdbc 87df 77bd
000000c0: 4683 8cbe dad5 60be ade8 8ebe 6dc3 ad3d
000000d0: b150 3f3e 69ba 78be 8cbf 38be 6cee 12be
000000e0: 6b8d 2bbd 8e59 123d 70dd 0ebc c686 8dbe
000000f0: 37f4 013e 55c4 2fbd eeb7 cabe 3531 21bd
00000100: 5c31 973e 4f3c acbd 1e1f 91bc 0e22 a03e
00000110: 472d 52be 7e71 ebbd c55f 783d 1113 8fbd
00000120: e3b1 93be f67d 53be 59a4 553d a509 d6bc
00000130: f5b6 b5bc 9b4a c23d d310 c53e c19a fdbc
00000140: 6829 bd3c f86c c6be 68ef f13c 7581 96be
00000150: 4120 273e a48c 423e fb74 6abe 5083 913c
00000160: 603b 78bd 33f5 e3bd 6f0c cebd 1213 803d
00000170: e644 45be f71a 64be 3b8a 65be 8439 313e
00000180: 5041 a43d 134c 9abe 9723 13be 8e46 3b3e
00000190: bccd d43e a5fa 153e eef5 e33b 66c8 85bd
000001a0: 54d4 4abe 67e5 84be a75b 09be dbcd e8bd
000001b0: 98d9 f63b 2434 88bb cf87 9ebd 2de5 64be
000001c0: 774e 80bd 8fbf 96be e347 ee3d a7ca 9c3d
000001d0: e41e 59be 3e52 ef3c cfee f83c 9d2c bdbd
000001e0: 9e04 4d3d 95c9 ab3b 4e41 cebd f2c3 2bbe
000001f0: 7c50 99bd 8648 c4bd 9783 7fbd 000b 69be
-0.24846415 -0.19302142 0.28031683 -0.32024065 -0.069338396 0.102321394 -0.18698245 0.038936824
0.2673281 -0.06587629 0.21245615 -0.16914906 0.06838946 0.113670856 -0.22709934 -0.16496125
0.03883576 0.09642864 0.076203585 0.13711514 0.16531886 -0.23519246 -0.21115446 0.055494055
-0.3593806 0.018519424 0.07600943 0.14388128 0.039415084 -0.23299494 -0.17682856 -0.12578973
0.06673106 0.08407217 -0.1651447 -0.052747 -0.14785674 0.15032302 -0.037093066 -0.32354394
-0.045003437 0.1884425 -0.29452074 -0.07324239 0.19381526 0.0648373 -0.030945387 -0.060515907
-0.27443904 -0.21956578 -0.27911893 0.0848454 0.18683125 -0.2428986 -0.1804182 -0.14348763
-0.041882914 0.035729937 -0.008719787 -0.27641886 0.12690817 -0.042911846 -0.39593452 -0.039353568
0.29529846 -0.084099405 -0.017715033 0.31275982 -0.20525084 -0.11496256 0.060638208 -0.069860585
-0.28846654 -0.20653519 0.052158687 -0.026127646 -0.022181967 0.09486886 0.38489398 -0.030957581
0.023091033 -0.38755012 0.029533103 -0.29395643 0.16320898 0.18998963 -0.22896187 0.01776281
-0.0606035 -0.111307524 -0.10060965 0.062536374 -0.19264564 -0.22275911 -0.22416012 0.17307097
0.0802027 -0.30136165 -0.14369045 0.18288633 0.41563213 0.14646395 0.0069568073 -0.065323636
-0.19807559 -0.2595627 -0.13413869 -0.11367389 0.0075332634 -0.0041566063 -0.07740747 -0.22353049
-0.06264966 -0.29443023 0.11634805 0.0765584 -0.2120319 0.02921402 0.03038731 -0.09237025
0.05005323 0.0052425363 -0.1007105 -0.16773966 -0.07486054 -0.09584145 -0.062381353 -0.22758102

2.weight f4 [128, 128]
00000000: 5426 cbbd f278 e33b 06ad c6bc 8a78 fc3d
00000010: 9353 f23d 0195 e33c b576 753d 7d53 86bc
00000020: 87f7 8abd d69d 16be ec21 0a3e 775b 6cbd
00000030: 47a4 393d 1034 d3bd 6ab3 1d3e ef9f 353d
00000040: f77b 8b3d ff9b 9d3b 4fa9 18bd 312f 15bc
00000050: d57b 43be 7754 9cbc 8402 fb3b be93 9abd
00000060: 9375 a4bd f2e6 2ebe 82db 193d 0f1c fe3d
00000070: 4feb 64bd af82 69bb 9d0e 8abd 45c0 67bd
00000080: 774c 18bb 0bdb b93d 0a13 9c3d c39f 5e3e
00000090: 7922 313d 47ec 423e b10e 223e 1603 d9bd
000000a0: 8c40 eebb 831d 143d ae27 433d b786 323e
000000b0: d8bb de3c a5c5 1ebc 82de dbbc c457 e13d
000000c0: a50c 163c f42f 39bc d8cf 5c3d 089d 10be
000000d0: d8b0 6c3d 65d4 2a3d a649 163e 613c 89bc
000000e0: 2e3d e73d 3b9f cf3d 643a 9739 9296 f63c
000000f0: 836f 8ebd e354 77bd cf0c 36bc 1503 463b
00000100: 35cc 51be 066c 41be 5c1a 2dbd e659 68bc
00000110: b445 78be 08ec 31be 9c2f 59be 01f7 43bd
00000120: 6b9f b6bd e685 e33c 488b 05be 48f2 28bd
00000130: 12d8 c13c 732e a5bd a6a6 ea3d 3517 14bd
00000140: dea8 b0bd f8ed 3dbd 70b3 043c 518b bdbd
00000150: 835e 3dbd 4878 d1bd de88 65bb 57a7 9b3d
00000160: 1dc6 823d 1063 f73c 1730 2cbe 989e 6e3d
00000170: 7a32 c53d d42c 323d ed2e 753d e2b3 fdbc
00000180: a29a 9c3c 85ac 07bd c19c 193c 6ad7 a7bd
00000190: 4487 d63d f37e 363d 6992 8ebd e20d 82bc
000001a0: 637d 80bd 5b31 353e d464 063e 6459 8f3c
000001b0: 9bac 8dbd 04e8 2d3e 28eb b5bc d77d 7b3d
000001c0: 8d9b 3cbe d140 093e 5044 b6bb dd42 29bd
000001d0: af9a 0ebd 2064 043d 7187 f6bd a69c c53c
000001e0: 7a5d f2bd e759 b63c 7dc8 583d d93b 84bd
000001f0: 2c8d d03d e8f8 6bbc 4617 8bbd a18e f83c
00000200: f04d 10bd 9839 f1bb 05cc 853a dca8 0c3e
00000210: 9c32 253d ad7c 03be 7bfa a63d 83c5 303d
00000220: 18c9 4bbc d523 0cbe aa63 7c3e bc7d 87bd
00000230: 10eb 42bd e0b4 0cbd a7f3 ecbd 1408 3b3d
00000240: c764 38be 1678 96bd 7aff 7fbd fe3d 91bc
00000250: 624d 723d 277f 083e 6fb4 61be 8754 46bc
00000260: bf98 d8bd 3028 ee3c 9ad3 9fbc 92d8 ebbd
00000270: 3a89 693d f88e 083e ca25 94bd de29 05be
00000280: 28df 853c e5c3 a3be a5fa c2bd 5d81 7ebe
00000290: 36a4 b0bd 5982 5fbd 2f75 a7bd 1c5d 55bd
000002a0: 7157 b4be 12a5 49bc a9cc 4a3e 309c dfbc
000002b0: 5528 103c 44f3 9e3d 5d52 89ba 9d99 efbd
000002c0: b781 fcbc b23a bb3b 69bd aebb 0565 97bd
000002d0: 3ce9 0c3d a182 acbd 3d99 5b3d 8ba3 f3bd
000002e0: e99d e9bd 3b42 ca3c 8a25 6cbc 7056 0dbe
000002f0: ec61 03bc 8e72 2abb d845 8cbd d321 6b3d
00000300: dcc2 fc3c f097 df3d b447 193d 8d74 5dbd
00000310: f65c 093d 5556 29bc 791e fb3c 99c4 b03d
00000320: 093f 91bd b65f 513d b5a9 12be bd52 3abe
00000330: fbe3 973d a2d9 25bd f65d 0fbe c4b5 a7bd
00000340: bed4 cabc f26c 56be fa5b 1a3e 69bf f03c
00000350: 6c64 f0bc 861d e9bc d29a aa3d d4b8 a5bd
00000360: 6dce 773d 0d76 2fbe a412 c6bc bb61 a9bd
00000370: b95b 643d 9eb8 9fbd b80f 183d 3c66 7cbe
00000380: 3759 2b3e 10a5 f63d 4f0a eb3d 2aec 5bbe
00000390: 5c52 883d 0c26 14be eeb9 f0bd c996 593d
000003a0: 62f6 29bd 55cd c1bc abee 41be ed40 0c3e
000003b0: 6cc3 aabe 5045 143d b845 7ebd b4d0 4e3e
000003c0: 626a 45bd 609f 98bd 9063 e73c 88e8 c43c
000003d0: b201 023e ceea 24bb a185 483c 7f30 0fbe
000003e0: 20a1 cebc b5f7 46bd 1e04 1fbe 53f6 183d
000003f0: f0e7 303d 2649 ffbc 55b1 f2bd 541b abbd
-0.0991942 0.006941908 -0.024252426 0.123276785 0.11832347 0.027781012 0.05992766 -0.016397232
-0.06785493 -0.14708647 0.13489503 -0.057704415 0.045322683 -0.103126645 0.15400472 0.044341978
0.06810754 0.004809856 -0.03727084 -0.00910549 -0.19090207 -0.019083245 0.007660212 -0.07547711
-0.08030238 -0.17080286 0.037562855 0.124076955 -0.05588847 -0.0035630872 -0.067410685 -0.056579847
-0.0023238936 0.09074982 0.07620819 0.21740632 0.043245766 0.19035445 0.15825917 -0.10596292
-0.007270878 0.036160957 0.047645263 0.17434202 0.02718918 -0.009690677 -0.026839498 0.11003068
0.009158288 -0.011302937 0.053909153 -0.14122403 0.05778584 0.04170646 0.14676532 -0.016752424
0.11290966 0.10137793 0.0002884447 0.030101094 -0.06954863 -0.06038369 -0.011111452 0.003021424
-0.20488055 -0.18888864 -0.042261466 -0.01418159 -0.2424534 -0.17375195 -0.21209568 -0.047842983
-0.08917125 0.027773809 -0.13041413 -0.041246682 0.0236626 -0.080655 0.11457567 -0.036154944
-0.08625959 -0.046369523 0.008099422 -0.09255088 -0.04623271 -0.1022802 -0.0035024206 0.07600277
0.06385443 0.030198604 -0.1681522 0.058256716 0.09628768 0.043499783 0.059859205 -0.030969564
0.019116703 -0.03312351 0.009375752 -0.08195384 0.104750186 0.044554662 -0.06961519 -0.01587576
-0.062739156 0.17694609 0.131244 0.01749868 -0.069176875 0.16983038 -0.022206858 0.061399307
-0.18418713 0.13403632 -0.0055623427 -0.04132353 -0.034815487 0.03232205 -0.12037552 0.024122547
-0.118342355 0.022259666 0.052925576 -0.064567275 0.101831764 -0.014402606 -0.067915484 0.030341448
-0.035230577 -0.007361602 0.0010207897 0.1373629 0.040331468 -0.12840529 0.08153244 0.04315711
-0.012438081 -0.13685544 0.24647394 -0.06615779 -0.047587454 -0.034352183 -0.115699105 0.045662
-0.18007194 -0.07347123 -0.0624995 -0.017729755 0.05915583 0.13329755 -0.22041486 -0.012105114
-0.10576009 0.029071897 -0.01951008 -0.11515917 0.057015635 0.13335788 -0.0723377 -0.13004252
0.01634176 -0.31985393 -0.09520463 -0.24854036 -0.08625071 -0.05456767 -0.08176648 -0.05209075
-0.35222962 -0.012307422 0.19804634 -0.027296156 0.008798678 0.07761243 -0.0010476817 -0.11699221
-0.030823572 0.005713784 -0.005332638 -0.07392315 0.034402117 -0.08423353 0.053612936 -0.11896428
-0.11407072 0.024689784 -0.014413247 -0.13802505 -0.008018952 -0.0026008221 -0.06849259 0.057405304
0.030854635 0.10917652 0.037421897 -0.05406623 0.03353592 -0.010335525 0.030654179 0.08631248
-0.07092101 0.051116668 -0.1432255 -0.18195625 0.07416531 -0.040490754 -0.14000687 -0.08188966
-0.024759647 -0.20939997 0.15074149 0.029388146 -0.02934476 -0.02845646 0.08330311 -0.08091894
0.060499597 -0.17134877 -0.02417881 -0.08270594 0.055751536 -0.07798885 0.037124366 -0.24648374
0.16733252 0.12043202 0.114765756 -0.21476808 0.06656334 -0.14467639 -0.11754213 0.053122316
-0.041494735 -0.02365748 -0.18938701 0.13696642 -0.3335222 0.036198914 -0.062078208 0.20196801
-0.048197158 -0.07452273 0.028245717 0.02403666 0.12695959 -0.0025164369 0.012238891 -0.13983344
-0.025223315 -0.048576076 -0.15528914 0.037344288 0.043189943 -0.03116281 -0.1185023 -0.08354822

2.bias f4 [128]
00000000: 2461 b3bd 9b05 74be ba79 88be 35c6 2bbe
00000010: 8240 2b3d b48b 41be 6e1b 853e 045a 44bd
00000020: b0f1 e1bd b3fa 8ebc 57da 403d 1b00 53bd
00000030: 9070 32be 6a47 fabd a758 52be 893e 13bd
00000040: 6c1d c3bd d95e f8bb 41dc 0dbe aa71 93be
00000050: a15d c4bc c4c8 193e af1d 94be 0099 2dbe
00000060: 1db2 96be 9501 a1bd 6ee0 6cbe 5d80 31be
00000070: d0c3 44bc cd33 8dbe 9c99 66be 927e 023c
00000080: 2541 78bd 42c4 3bbe 7ca0 80ba aad3 08be
00000090: bac4 dcbd f074 0cbe be85 51be 9066 94be
000000a0: 16c4 883b 388b 193d 2136 c4bb 61bc 9cbe
000000b0: 80af a4bd 76be e3bd fe53 d1bd cb48 95be
000000c0: ff40 80bd e293 bbbd 2748 8ebe 7344 343d
000000d0: 9a1c 1fbe da90 97bd 323c 84be ec22 84be
000000e0: 1547 a23d 905f 8ebd 81da 6c3c 84aa 1cbe
000000f0: e4f4 56be ba51 1dbe 7225 91be d436 2fbe
00000100: 8077 c23b 17d7 b9bc 48ae 2abe 3cd0 4dbe
00000110: 0029 3e3e ee87 80be a699 a33d 6897 21be
00000120: 6226 17be 7aa2 a83d 60db f3bd a1b4 7bbe
00000130: 2129 94bd 8b1e 20be d0ad 613d 2987 3cbe
00000140: 0a7e 623e d46b f6bd fc26 f0bd 81bd 84bd
00000150: 41d9 ccbd 866e 04be 2948 8fbd d243 79be
00000160: d3e0 33be 7f48 4bbe 2c9e 4dbe c5f7 22be
00000170: a720 153e db25 aabd ae88 8bbe 9d81 15be
00000180: 0c37 aa3b cdee d8bd e8c5 26be 8dac 1fbc
00000190: aa5a 413d 2f73 07be 5893 a2be fcf7 b4be
000001a0: b64b a23d 200f bfbb c8d6 16bd 5131 86bd
000001b0: 9fbb dcbd 5d26 35be 7873 a0bd 7d1e d4bd
000001c0: 4229 53bd dedf 46be 4203 d3bd 8f6c e7ba
000001d0: b9ad cebd b04b 9b3c f6eb 713d 2966 9a3c
000001e0: db9f abbc 4170 c73d d0e3 4cbe e14c c53c
000001f0: 31b8 42be e251 abbe c80b 23be 014a 09be
-0.087587625 -0.23830263 -0.2665537 -0.16774829 0.041809566 -0.18900949 0.2599749 -0.047937408
-0.11032426 -0.017453527 0.047083225 -0.051513772 -0.17425752 -0.122206524 -0.2054163 -0.03594831
-0.09527096 -0.007579666 -0.13853551 -0.28797656 -0.023970427 0.15017992 -0.28928897 -0.16952896
-0.29432765 -0.0786163 -0.23132488 -0.17334123 -0.012009576 -0.27578583 -0.22519535 0.007964747
-0.060609 -0.18336585 -0.0009813453 -0.13361993 -0.1077971 -0.13716483 -0.20461175 -0.289845
0.004173766 0.037486285 -0.005987898 -0.30612472 -0.080412865 -0.11120312 -0.10221098 -0.291571
-0.06262397 -0.09159066 -0.27789423 0.04401059 -0.15538254 -0.07400675 -0.25827175 -0.25807893
0.07923714 -0.06951821 0.014456392 -0.15299422 -0.20991856 -0.15363207 -0.2834888 -0.17110759
0.0059346557 -0.02268557 -0.16668046 -0.20098966 0.18570328 -0.25103706 0.079882905 -0.15780413
-0.14760736 0.08234115 -0.11907077 -0.24580623 -0.07234407 -0.15636651 0.0550974 -0.18410935
0.22118393 -0.12032285 -0.11726186 -0.064814575 -0.100023754 -0.12932786 -0.06996185 -0.24342278
-0.17566232 -0.19851874 -0.20079869 -0.15914829 0.14563237 -0.083080016 -0.27252716 -0.14600225
0.0051945504 -0.10592423 -0.16286433 -0.009745729 0.047205605 -0.13227533 -0.3175304 -0.35345447
0.07924597 -0.0058306605 -0.036825925 -0.06552375 -0.107779734 -0.17690416 -0.07834524 -0.10357378
-0.05155302 -0.19421336 -0.10303356 -0.0017656254 -0.10091729 0.018956989 0.05906292 0.018847542
-0.020950248 0.097382076 -0.20008779 0.02408451 -0.19015576 -0.3346091 -0.15922463 -0.13407136

4.weight f4 [128, 128]
00000000: 0151 18be d11d f43d b2bb 0cbd aa58 163d
00000010: 4a7b f9bc 37af 2b3d 65a2 18be 1216 8cbd
00000020: 789c 283e d31f d53b 3015 f03c a4a1 c1bd
00000030: 8002 913c 3689 3fbc 87b8 183e aa29 76bd
00000040: 456f 65bb 0d50 99bd f63d 2d3d a6e4 f33d
00000050: c0da 1fbd daf0 a1bd 155b 96bc c830 21bd
00000060: 091d 163d 8c83 57bd b222 48bd ecf0 2c3d
00000070: b654 7b3d d853 c5bc 8774 d8bd ad66 2fbe
00000080: 0107 0a3e 7db6 5d3c fe3b 93bd 244d e4bd
00000090: ad2a 8fbc fd73 fabc 202b 8ebc 3348 efbd
000000a0: c213 05bd 4fba 0cbe 6417 82bd 088a 96bd
000000b0: d759 8d39 2d57 06bd e819 2bbd 1ee5 0e3d
000000c0: ebee 113e c003 0d3d 880c d33b 9c45 6cbd
000000d0: 981c 33bd a0b9 23bd ba0f 1c3e 1726 cc3d
000000e0: 08a9 7ebd c49b 093c eb78 a73d 4828 d2bd
000000f0: b4a9 febc d97a 54bd 3965 8cbd 9749 1d3e
00000100: 490c 693b f0fb 32be 8d56 ab3d 009f e73c
00000110: aba7 333d 21c4 dabd 7899 5fbd a68f ac3b
00000120: 701b 063e 01c0 17bd 4f03 8b3d e173 e63c
00000130: 6633 993c b115 55bc 9cf9 b2bc 79c0 e03d
00000140: 9aab 1bbe 163f 9bbd a7e7 073e 2131 fe3d
00000150: be7a 573d 2592 62bd 85bd 213d 00ee 433d
00000160: b2bb c13d 0dc4 bcbd a733 cb3d b91a 55bd
00000170: 2935 7bbd cf19 0a3d 7edf 273e 7810 a5bd
00000180: 5eca 623d 86e5 aabd 70b2 f83d b79a 9cbd
00000190: 69f6 373d 2362 4bbb 8c02 253d 597a 9b3d
000001a0: d533 32be 1ed2 b33d 4fa9 40bd 98be 9c3d
000001b0: 8b7e 933b 14ea 2abd 7bea 813d 3aa4 7cbd
000001c0: 82ab 04be 4bda bb3d 1326 053c 69d4 103d
000001d0: 8262 c5bd 3b7f 4a3d e476 78be 400d d3bd
000001e0: e852 c3bd b560 2abd 97b9 883d 19c3 02be
000001f0: 32e5 08bb e780 aa3d e220 8fbc 3505 d1bb
00000200: dbbe 20be f7d9 9b3c 2e73 bd3d fd28 053d
00000210: eaa8 83bc 6da1 903b 074b f83c 7c49 2bbd
00000220: 85a1 043e e290 803d 7064 073d 572b c73c
00000230: e3b3 d73d 996a 163e cb90 5abd 8576 8ebd
00000240: 4b7b bcbb d037 b03d e9d9 e8bd e212 43bd
00000250: e1ca b13c e6e8 48bc 8202 31bd 8200 073e
00000260: 0e3b 803d 871a 2d3d 1559 3f3e 3c05 a9bd
00000270: 97c9 95bd fc18 c3bd ee1c 0c3d 7532 aebd
00000280: 8a34 333d 4d90 613e 44a3 3dbd c022 92bd
00000290: ff9b a53d ba30 843c 0635 07bd 42ee 433c
000002a0: 23bf 44bd 64a8 de3c 3f65 b7bd 13f6 57bd
000002b0: 1837 82bd abfb 92bd 0503 e4bc 4bb7 6bbd
000002c0: b284 943c a990 b43d 6ab7 03be de6a 8cbd
000002d0: 3d1c 90bc 9ce9 e03c d1a9 a73d 3a4b 84bc
000002e0: b4b2 98bd 751a 63bc 5423 8b3d 17e3 90bc
000002f0: 8873 923c f492 93bd 99ec 783d 8da7 253b
00000300: f09b 1f3c ae45 d13c 6d10 5bbd 505a 2f3c
00000310: 279e 27be c780 2e3d ea17 f3bd 2a4e 46bd
00000320: d145 4bbc af66 003e be45 7b3d e5bb b63d
00000330: c7fd 67bc 2faf 9d3d 5f86 a13d f241 ba3d
00000340: 5ca4 9bbd c484 db3b 3768 46bd 2ba1 29be
00000350: 8211 cf3c 16e9 a2bd b8a5 b5bd a925 d53c
00000360: 3f39 debd 499a b63d 4ab7 49bd 3a5e e93d
00000370: 937c 583d b04e a7bd 8ab0 36be df44 b7bd
00000380: 52f3 db3c 67aa 91bd d19c f9bb 5b92 9cbd
00000390: 585d 113e 8a4a 023d e5e6 11bd cd7b 9a3d
000003a0: 7494 14bd 0fe7 293e b59f 203d f7bd 983d
000003b0: 1a31 3f3e 2c25 513d 3d81 2f3d a6bb 2f3d
000003c0: db62 933d 0496 88bd e2ac 5c3b 3e04 0ebe
000003d0: 58a8 e9bc 7478 babd 7724 893d 4b31 683d
000003e0: e17e 07be e8b4 bc3d f608 473e 9dbc acbc
000003f0: 4b2b a73d 756b 633e 5dfd 21bd 2131 10bd
-0.1487465 0.119197495 -0.034358688 0.03670565 -0.030454297 0.041915145 -0.14905699 -0.06840147
0.16465938 0.006504038 0.029306978 -0.09454659 0.017701387 -0.0116904285 0.14914142 -0.060098328
-0.0035008949 -0.074859716 0.04229542 0.119088456 -0.039026976 -0.07907267 -0.018353978 -0.039353162
0.036648784 -0.052615687 -0.048861213 0.04222195 0.061360084 -0.024087831 -0.10569101 -0.17129011
0.13479234 0.013532278 -0.07189177 -0.11147526 -0.017476404 -0.030572886 -0.017354548 -0.11683693
-0.032489546 -0.13742946 -0.06352118 -0.07350546 0.00026960552 -0.03279798 -0.041772753 0.034886472
0.14251296 0.034427404 0.006440703 -0.057683572 -0.04372844 -0.039971948 0.15240374 0.099682026
-0.06217292 0.008398954 0.0817736 -0.10261589 -0.03108678 -0.05187497 -0.06855244 0.15360104
0.00355603 -0.17478919 0.083661176 0.02827406 0.043861073 -0.1068194 -0.05458972 0.0052661477
0.13096404 -0.037048344 0.067877404 0.028131427 0.018701266 -0.01300566 -0.021847539 0.10974211
-0.1520218 -0.07580392 0.13271962 0.12411714 0.05260729 -0.055315156 0.03948738 0.047834396
0.09459628 -0.09217081 0.09921961 -0.052027438 -0.061329994 0.03371602 0.16393849 -0.08059782
0.055368774 -0.08344559 0.12143409 -0.07646697 0.04491273 -0.0031033836 0.040285632 0.07591695
-0.17402585 0.08780311 -0.047036465 0.076535404 0.004501169 -0.04172714 0.06343552 -0.061680056
-0.1295605 0.091724955 0.008126753 0.03535882 -0.096379295 0.049437743 -0.24264103 -0.103052616
-0.095372975 -0.041596133 0.066760235 -0.12769736 -0.0020888564 0.083253674 -0.017471734 -0.0063787946
-0.15697806 0.019024832 0.092504844 0.032509793 -0.016071755 0.0044137747 0.030309213 -0.041818127
0.1295224 0.06277634 0.03305477 0.024312658 0.105323575 0.14689101 -0.05336074 -0.069561996
-0.0057520024 0.086043954 -0.11369688 -0.04762543 0.021703186 -0.012262559 -0.043215282 0.13183787
0.06261264 0.042261627 0.18686326 -0.082529515 -0.07313841 -0.0952625 0.034207277 -0.08505718
0.043751277 0.22027703 -0.04629828 -0.07135534 0.080863945 0.016136516 -0.03300955 0.011958661
-0.048033845 0.027179904 -0.08954858 -0.05272491 -0.063581645 -0.07176908 -0.027833471 -0.05754785
0.01812968 0.08816654 -0.12862936 -0.06856321 -0.01759159 0.027455144 0.08186687 -0.016149152
-0.0745596 -0.013861288 0.06793848 -0.01768641 0.017877355 -0.072057635 0.060772512 0.002527687
0.009741768 0.025545921 -0.05348246 0.0107026845 -0.16368924 0.04260328 -0.118697956 -0.048414387
-0.012406782 0.1253917 0.06134581 0.08922557 -0.014159626 0.07699429 0.078869574 0.09094609
-0.075997084 0.0066991765 -0.04843923 -0.16565387 0.025276903 -0.07954614 -0.08869499 0.026018934
-0.108507626 0.08916146 -0.049247064 0.113949254 0.05285318 -0.08169305 -0.17840782 -0.08948683
0.026849423 -0.0711258 -0.007617571 -0.076451026 0.14195764 0.031809367 -0.03562059 0.075431444
-0.03627439 0.16592048 0.03921481 0.07458108 0.18671075 0.05106084 0.04284786 0.042903565
0.071965896 -0.06669238 0.0033672382 -0.13868806 -0.028522655 -0.09105006 0.06696408 0.056687634
-0.13231994 0.09214193 0.19437012 -0.021086032 0.08162554 0.2220896 -0.039548267 -0.035203103

4.bias f4 [128]
00000000: 5c8d b8bd 3e7f 78be 9133 e0bc 99c7 8dbd
00000010: 3510 1abe 8656 23be 8771 5abd e63e 56be
00000020: 3524 4cbe 077c 8cbd 2e44 1ebe f22b 97ba
00000030: 0cea c3bd 9f4e 5cbe 6be6 7cbd 79a9 2f3c
00000040: ea57 b8ba 9c42 25be 94d3 3bbd 51eb c8bd
00000050: cdd0 2c3c a1b3 c7bb 4c09 e9bd a4bf bf3d
00000060: 9092 43bd d96d 1dbe d4c8 f4bd 651b 38be
00000070: 3704 673d 39f4 fabd 4527 1abe d83d e0bd
00000080: dfbe f03b e445 b5bd 22b9 333d fdbe 7fbd
00000090: c742 45be 70bc 5abe 65b9 d9bc 3fe3 edbd
000000a0: ca48 e1bd ed34 af3d fc9b 55bd 99bf 9abd
000000b0: 0265 163d 4268 d9bd a305 00be 7b82 50be
000000c0: cbd7 b2bd 90b7 3bbd 23e6 09be ca12 97bd
000000d0: 8f1c a63c f0c6 b9bd e68e 30bc d12f 07be
000000e0: 2f0f 4dbd c47e 98bd e7af b4bd 6043 21be
000000f0: b85b a5bd bc35 a6bd 053f cebd 4493 72be
00000100: b8fe 8fbd b371 22bb 0cce febd b69d bb3d
00000110: 6db7 04bd 47e3 45bd d44d 46be 1085 5b3c
00000120: f521 9abc 027e c9bd 141d 9abd b01a 0a3d
00000130: bd01 d2bc 7d9a 95ba 8d28 09be 1d34 ac3c
00000140: 3c27 e6bd 5b20 47bd 29eb 4dbe 180f d2bd
00000150: 69ae dd3b 0e27 72be 54a2 97bd bdbb 30be
00000160: 3368 cfbd ce5c ad3d 5856 3ebe 40ef a4bd
00000170: a386 c0bc 5dd3 823b 6da3 20be fd11 2b3d
00000180: 5b75 31be 673f 86bd d5bb 63bc 3664 99bd
00000190: 162d a6bd f7e4 9ebd 2d43 69be 0758 adbc
000001a0: a117 c4bb e7ac 8ebc d8ce d1bd 33fd 29be
000001b0: 06c0 b1bd e100 8d3d 9c36 68be 581c d1bd
000001c0: 713a 41be 26d3 1c3c e4c8 bfbd c00b 15be
000001d0: e0d5 0cbd bab2 38bd f111 a5bd 63b1 e3bc
000001e0: 10ec a9bd 8bc1 8a3c 9b4c d7bd c87d 6c3d
000001f0: df0c 18be 1793 473d 464d 0fbd afb1 f2bd
-0.09011337 -0.24267289 -0.027368339 -0.06922836 -0.15045245 -0.15950975 -0.053330924 -0.20922431
-0.19935687 -0.06859594 -0.15455696 -0.0011533482 -0.09566125 -0.21514367 -0.06174318 0.010721558
-0.0014064286 -0.1613869 -0.045856073 -0.09810508 0.010547829 -0.0060944115 -0.11378726 0.093627244
-0.047747195 -0.15373935 -0.119523674 -0.179792 0.056400504 -0.12253613 -0.15054043 -0.10949296
0.0073469724 -0.08851221 0.04387773 -0.062438 -0.19263755 -0.21360946 -0.02657766 -0.116156094
-0.110002115 0.08555017 -0.05215071 -0.075560756 0.036717422 -0.10615589 -0.1250215 -0.20362274
-0.087325655 -0.045829356 -0.13466696 -0.073766306 0.02027729 -0.090711474 -0.010776257 -0.13201834
-0.05006331 -0.074460536 -0.08822613 -0.15748358 -0.080741346 -0.08115718 -0.10070614 -0.2368899
-0.070310056 -0.0024787008 -0.12441644 0.0916094 -0.03240149 -0.04831245 -0.19365627 0.013398424
-0.01881502 -0.09838487 -0.075250775 0.033716857 -0.025635595 -0.0011413839 -0.13394375 0.021020943
-0.11237952 -0.04861484 -0.20109238 -0.10256785 0.006765176 -0.2364771 -0.074040085 -0.17259116
-0.10127296 0.08464967 -0.18587625 -0.08053446 -0.0235017 0.0039924816 -0.15687342 0.0417652
-0.17329924 -0.06555062 -0.013899763 -0.07489817 -0.08114068 -0.07758515 -0.22779532 -0.021160139
-0.005984262 -0.01741643 -0.102445304 -0.16600494 -0.08679204 0.06884933 -0.22677082 -0.10210484
-0.1886995 0.009571826 -0.09364489 -0.14555264 -0.034383655 -0.045092322 -0.08060063 -0.027794546
-0.082969785 0.016937992 -0.10512658 0.05773714 -0.1484866 0.04872426 -0.034985803 -0.11850297

6.weight f4 [12, 128]
00000000: 1233 9a3d 099c 8bbd 745c 67bd f1ff 063d
00000010: b1c7 62bd 9196 91bc 04dc 8c3d 89c7 c93c
00000020: 9905 eabc 65bc 2ab9 19b2 133c 13dc 07bd
00000030: e9c2 87bd 5251 5a3d beb8 d6bc 1cf7 8b3c
00000040: 16e3 a23c 04d1 243d 60b3 0f3c 3b4b 23bc
00000050: 0422 8ebb 3ff0 9bbb 715e 5a3c 1f94 1dbd
00000060: 54f5 f63c 9ffc 90bc 23d5 39bd bf73 763d
00000070: a9a8 3d3c 6204 f33c c8c3 8f3a da72 51bb
00000080: 781e 963d b874 d5bd d939 b83c 4a03 9b3d
00000090: d0e5 7dbd 9e67 c93d eb29 5e3d 2a4f 613d
000000a0: e374 4ebd 2f1d 97bc 3b90 7d3d 300a a1bc
000000b0: 4b1a 813b d98e 623b 1e85 57bd 65df 713d
000000c0: 023a e6bd eff9 4d3c 9f69 913b 6588 ae3c
000000d0: 06ab 3ebd 163f b7bd 59e6 25bb fe45 223d
000000e0: 6f00 d93c 38f6 9fbc 7f60 483d 65ab 57bb
000000f0: cad9 60bc 201a a53d 0801 54bd 0bd8 5b3d
00000100: f34c d1bc 78e0 0c3c a4d3 893d 3dc6 8f3c
00000110: c225 703c f5ac a53b 2f7c f4bc 59ae 323d
00000120: 4d37 bf3c 7c77 2f3d 909a 4abd 538f 34bd
00000130: 824f 83bd 7d69 e63c 9824 bc3c 65c7 5bbd
00000140: 05b7 b63c 39a9 86bd 0552 19bd 9c50 0cbd
00000150: 8b79 7ebc 01e4 a0bc bb39 42bc 288c a73b
00000160: 1653 e43b 92dd d73c 7d35 d53b dec1 90bd
00000170: 8651 193d 6cd8 48bd 0024 223d ba63 0f3d
00000180: cee1 e73c e4cc 91bb d3fc 283c 73f5 d4bb
00000190: fd49 813c 6312 513d fba7 04bd 13a7 8fbb
000001a0: 83a1 a73c a0bf 0dbd 6dc1 b5bc b85f 34bd
000001b0: 5e14 1d3d b99f debb d635 033e fd5e 5cbc
000001c0: 1a2a c53c 1f98 913c 47bd 1c3d 33ad 86bb
000001d0: 5943 4b3c e38d 1fbd 74db 7a3b f960 5abd
000001e0: eac2 a43d 393b 92bd d862 4a3c 8b1f 47bc
000001f0: 69dd b73c b813 08bd 0cb9 b7bc caaa f13b
00000200: 734a e5bc 5ecc e33b 537f 50bb b32a 54bd
00000210: 1850 c03c f33d 2d3d c44d 06bd cd2b 363d
00000220: 5397 073c 9e74 353d dff8 7fbd cf79 ef3c
00000230: 8c2b 9b3d 36ae 163c 32a3 cebc e4ae 383d
00000240: 64d2 af3c cbde ad3c ec9e 733d c516 2bbd
00000250: 12f4 3f3d 470c 22bc 9828 44bc 883c 0dbd
00000260: 04fc 7a3d 6294 ff3c ea17 36bb 5d19 5fbd
00000270: daf2 ea3c e08b fc3c 86ef 5fbd 56de 1bbd
00000280: a480 e23b bd3c 143e 66ab f0bb b932 3dbd
00000290: 5279 29bd 10ff 9cbd 4434 203d 162d ee3b
000002a0: 909c b4bb e7da 203c d84b bf3a 23b3 943c
000002b0: 110b 41bc 08bb 023d d5ca eb3d b18c 593d
000002c0: 490c b13c e7a0 3abd 1b26 96ba e100 4d3c
000002d0: daa1 32bd e9a8 c53c 6e3d cbbb 9ec4 7a3d
000002e0: 4adb 51bd c814 c7bc 842b 383d 3641 a0bc
000002f0: d9a4 103d b373 2d3c 1ccc bf3a e853 d7bc
00000300: 33b1 23bc ab9d 8d3c 7809 85bd 17b4 0e3c
00000310: 8893 9ebd 8983 133b 51ea 963c 2d8a 4a3c
00000320: 1351 393d f805 973d 8b89 f83a bc91 043d
00000330: 707d cfba db61 863c d829 653c 2208 b23b
00000340: 8f5d 8bbd f65e 493c a57f 843d 178f 3bbb
00000350: 4fbd c73d eb02 263d f639 f33c 1d9a 273c
00000360: 743e 8e3c 5700 4c3c faa2 89bd 11e9 cdbd
00000370: b1c8 64bd 64ac 47bd 54bb 763c 5fdd bbbc
00000380: c94e cfbd 45e7 543c e512 89bc 5f92 1c3d
00000390: aec1 383c 48b0 e83c 31c4 0f3d 2fed 253d
000003a0: 4cc3 a8bc f98b cdbb d39d 7c3d 3492 d5ba
000003b0: 256b f63c 6d49 04bd 2859 01bc b75b 9cbc
000003c0: 5167 15bd d9ba 593d 05ce 223d 06af 76bd
000003d0: 5b3b 773d 9366 543c ed85 3bbd 3b06 62bc
000003e0: 65f0 2dbc 3281 28bd 6652 c83b bd32 debc
000003f0: d221 673b 253c bf3c b71e 1c3d aa5c ec3c
0.07529272 -0.06816871 -0.056484655 0.03295893 -0.05536622 -0.017771991 0.06877902 0.024631279
-0.028567122 -0.00016282646 0.00901463 -0.033168864 -0.06628973 0.05330021 -0.026211139 0.017085604
0.019883674 0.040238395 0.008770794 -0.009966667 -0.004337551 -0.004758864 0.013328181 -0.038471337
0.030146278 -0.017698584 -0.04536928 0.060168978 0.011575856 0.029665176 0.0010968382 -0.0031959326
0.0733003 -0.10422653 0.022488521 0.07568987 -0.061986744 0.098342165 0.054239195 0.055007137
-0.05040444 -0.018446533 0.061905127 -0.019658178 0.003939902 0.0034570007 -0.052617185 0.059050936
-0.11241533 0.012571796 0.00443764 0.021305272 -0.04654982 -0.089475796 -0.00253143 0.03961753
0.026489465 -0.019526586 0.04892015 -0.0032908556 -0.0137238 0.080616236 -0.051758796 0.05367283
-0.025549388 0.008598439 0.0672982 0.017550582 0.01465744 0.0050560185 -0.029844372 0.043623302
0.0233418 0.04283856 -0.04946381 -0.044081997 -0.06411649 0.028126473 0.022966668 -0.053656954
0.022304067 -0.065752454 -0.037431736 -0.034256563 -0.015531908 -0.01963997 -0.011854584 0.0051131435
0.0069679124 0.02635077 0.0065066204 -0.07068227 0.037431262 -0.04903452 0.039585114 0.035007216
0.028305914 -0.0044494737 0.010314184 -0.0064989864 0.01578235 0.051042926 -0.03238676 -0.0043839305
0.020462757 -0.034606576 -0.02218696 -0.044036597 0.0383495 -0.006793943 0.12813506 -0.013450381
0.024067927 0.017772732 0.038266446 -0.0041100024 0.012406194 -0.038953673 0.0038277777 -0.053315137
0.080449894 -0.07140202 0.012352668 -0.0121535165 0.022444444 -0.03322193 -0.022427104 0.007375096
-0.027989602 0.0069518527 -0.0031814172 -0.051798534 0.023475692 0.042295408 -0.032789007 0.044475365
0.008275825 0.044300668 -0.0624932 0.029232888 0.07576665 0.009196809 -0.025224302 0.045088664
0.021462627 0.0212244 0.05947773 -0.04176976 0.046863623 -0.009890622 -0.011972569 -0.034481555
0.061275497 0.031198684 -0.002778525 -0.054467548 0.028680254 0.030828416 -0.054671787 -0.038053833
0.006912308 0.14476295 -0.007344651 -0.04619095 -0.041375466 -0.07665837 0.039112344 0.0072685583
-0.0055118278 0.009817815 0.0014594747 0.018151825 -0.011782424 0.03191665 0.115132965 0.05311269
0.021612303 -0.045563605 -0.0011455448 0.012512417 -0.043611385 0.024128394 -0.0062023913 0.061222665
-0.05123452 -0.024301901 0.044963375 -0.019562345 0.03531346 0.010586667 0.0014632973 -0.026285127
-0.009990978 0.017287096 -0.06495947 0.008709929 -0.07742983 0.002250882 0.018422278 0.012362045
0.045243334 0.07374185 0.001896189 0.032365546 -0.001583023 0.016404083 0.013987027 0.0054330984
-0.06804954 0.012290707 0.06469659 -0.0028619224 0.097529046 0.040530127 0.029690724 0.010229615
0.017363764 0.012451253 -0.067205384 -0.100542195 -0.055855457 -0.04874839 0.015059311 -0.022932706
-0.10122449 0.012994592 -0.016732642 0.038225528 0.011276646 0.02840437 0.035099212 0.0405094
-0.020600937 -0.0062727896 0.06167395 -0.0016294182 0.030080387 -0.032296587 -0.007894792 -0.019086702
-0.036475483 0.053156707 0.039747257 -0.06022551 0.06035934 0.012963909 -0.04578202 -0.013795431
-0.010616397 -0.041138835 0.0061133383 -0.027123803 0.0035267961 0.023344109 0.03811523 0.02885278

6.bias f4 [12]
00000000: 6ae8 c33b 878d ccbb 1dc8 d9bd 7714 40bd
00000010: 8ea7 8cbd 33bd 3ebe 2f10 083e 886e 6b3e
00000020: 092a f0bc 75a3 d4bb 8d4d 423d e02c 313d
0.0059786336 -0.0062424573 -0.10633872 -0.046894517 -0.06867896 -0.18626861 0.13287424 0.22991383
-0.029316919 -0.006489212 0.04743724 0.043255687
