onnx_inference/data/standing.onnx (onnx, 345977 bytes, 8 tensors)

actor.latent_pi.0.weight f4 [256, 53]
0	0x3f5054a8	0.81379175
1	0xbf64d221	-0.8938313
2	0x3faeec91	1.3665944
3	0x3e0df248	0.13861954
4	0xbf7a6595	-0.9781125
5	0xbee37208	-0.44422936
6	0xbe0aa659	-0.13540019
7	0x3f561038	0.836185
8	0xbdb67823	-0.08909633
9	0xbe26627b	-0.16248505
10	0xbf1268d3	-0.571912
11	0x3ef5de91	0.48021367
12	0x3d2e89e5	0.042611975
13	0xbe569f85	-0.2095929
14	0xbf3856d3	-0.72007483
15	0xb9ca4a2d	-0.00038583708
16	0xbe6c489d	-0.23074575
17	0xbe7eab18	-0.24869955
18	0xbdc947b0	-0.098281264
19	0xbd92f85a	-0.071762756
20	0xbcb16e5e	-0.021659072
21	0x3d856a60	0.0651443
22	0xbd3b002e	-0.04565447
23	0x3dd06075	0.10174648
24	0x3c6a0058	0.0142823085
25	0xbd9c9bcc	-0.076469034
26	0xbcf336c4	-0.0296892
27	0x3da7c832	0.08192481
28	0x3e82d250	0.2555108
29	0x3e1546a7	0.14577733
30	0x3eaf4dcd	0.34239045
31	0xbd825249	-0.06363351
32	0x3ddffc36	0.10936777
33	0x3e2dee22	0.16985372
34	0x3de42eab	0.11141714
35	0xbd83c351	-0.06433738
36	0x3e468421	0.1938634
37	0xbd9e5b3d	-0.07732246
38	0xbe9f43bb	-0.31106362
39	0x3d6b591c	0.05745803
40	0xbe2a954b	-0.16658513
41	0xbe6a57e5	-0.22885092
42	0x3e96c91f	0.29450318
43	0x3fa1fd4e	1.2655427
44	0x3f1f7e3e	0.62302005
45	0xbdc22b11	-0.094808705
46	0x3da26494	0.0792934
47	0x3cc9568f	0.024577407
48	0x3d8edc7f	0.0697565
49	0x3d1404b7	0.03613731
50	0xbedf0e19	-0.43565443
51	0xbdafa005	-0.08575443
52	0xbde4bb60	-0.111685514
53	0x3f35f3d1	0.7107516
54	0x3faa469d	1.33028
55	0x3e4265f4	0.18984205
56	0xbcfa732d	-0.030572498
57	0xbf23bc89	-0.63959557
58	0x3dc07051	0.09396423
59	0xbe1220ad	-0.14270277
60	0xbdacadae	-0.08431564
61	0xbe21afbc	-0.15789694
62	0xbe088340	-0.13331318
63	0xbf22059b	-0.63289803
64	0x3d747e0d	0.059690524
65	0x3bdc9fee	0.0067329323
66	0x3fa243e6	1.2676971
67	0xbb6130d6	-0.0034361384
68	0x3d612b45	0.054972906
69	0x3d9499df	0.07255911
70	0xbe16c2ef	-0.14722799
71	0x3d14485e	0.036201827
72	0x3e5755ed	0.21028872
73	0x3d6a9a7b	0.05727623
74	0xbd9f9f45	-0.0779405
75	0x3c878f63	0.016547864
76	0xbd80baa5	-0.062855996
77	0xbd637231	-0.055528823
78	0xbdc24bf9	-0.09487147
79	0x3dfd55f7	0.12369912
80	0x3dabd4b2	0.08390178
81	0xbe12f3e0	-0.14350843
82	0xbde88852	-0.11354126
83	0xbd14f084	-0.036362186
84	0x3e47f647	0.19527541
85	0x3eac35a5	0.33634678
86	0xbd896768	-0.06709176
87	0xbea4a746	-0.3215887
88	0x3ee00192	0.43751198
89	0xbeaa49c6	-0.3325941
90	0xbf0cee10	-0.55050755
91	0xbd1ebc13	-0.03875358
92	0xbd7f2c5d	-0.062298167
93	0x3dbdc3d6	0.09265868
94	0x3d157245	0.03648593
95	0x3eb1f54b	0.34757456
96	0xbfa0c895	-1.2561213
97	0x3f2a3d24	0.66499543
98	0xbdfbedb9	-0.123012014
99	0xbe081963	-0.13290934
100	0xbda119b3	-0.0786623
101	0x3d0c8bf8	0.034313172
102	0xbe42fcdf	-0.19041775
103	0xbea0462a	-0.3130353
104	0xbe0bb0b9	-0.13641633
105	0xbe36a82f	-0.17837594
106	0x3f0f9590	0.5608759
107	0xbf8f27f2	-1.1184065
108	0xbfa4b2f1	-1.2867109
109	0xbdbab29c	-0.09116098
110	0xbff78a29	-1.9339038
111	0x3f21666e	0.6304692
112	0x3e77f676	0.24215111
113	0x4015ae72	2.3387723
114	0x3e94cb05	0.29061142
115	0xbd6ac35d	-0.05731522
116	0x3e6a8ddf	0.22905682
117	0xbf18c274	-0.5967171
118	0xbda3f609	-0.08005912
119	0x3dc9eded	0.09859834
120	0xbf643106	-0.89137304
121	0xbe2ba49e	-0.16762015
122	0xbe166935	-0.14688571
123	0x3d4004f5	0.046879727
124	0xbd065643	-0.03279711
125	0xbc149d3a	-0.009070689
126	0x3d36635f	0.04452836
127	0xbc74d807	-0.014944083
128	0xbdf76a10	-0.12080777
129	0xbdeadc12	-0.11467756
130	0xbc872936	-0.016499143
131	0xbd997852	-0.074936524
132	0xbc0a2092	-0.008430617
133	0x3cb45e29	0.022017555
134	0x3c1c15d9	0.009526693
135	0x3df30cd8	0.11867684
136	0xbc897cae	-0.016783085
137	0xbd3dee87	-0.046370056
138	0xbdbddf0b	-0.09271058
139	0xbe2e0168	-0.16992724
140	0xbde8948f	-0.1135646
141	0x3e89a945	0.26886955
142	0x3df35133	0.11880722
143	0x3b5c44c4	0.0033610323
144	0x3e217270	0.1576631
145	0xbe0f14b7	-0.13972746
146	0xbb7a4af4	-0.0038191648
147	0x3d66c266	0.056337737
148	0xbda1d4f8	-0.07901949
149	0x3f814639	1.0099555
150	0x3f817eec	1.0116858
151	0xbd3a4f19	-0.04548559
152	0xbc769f4f	-0.015052631
153	0xbdd28fa2	-0.10281302
154	0x3e001e6c	0.12511605
155	0x3d8c73be	0.068580136
156	0x3db515a1	0.08842016
157	0x3e73ae21	0.23796894
158	0x3e4389c4	0.19095522
159	0x3efc596f	0.49286982
160	0xbf14eae2	-0.581709
161	0xbfc5b554	-1.5445962
162	0xbe73f943	-0.23825555
163	0xc017d766	-2.3725219
164	0x3de223c9	0.11041982
165	0x3dbcb004	0.0921326
166	0xbd7ec7f8	-0.062202424
167	0x3f35d446	0.7102703
168	0x3ea5dcbc	0.3239497
169	0x3e525e65	0.20543821
170	0xbcabede9	-0.020987468
171	0x3d57ea03	0.052713405
172	0x404e743c	3.2258444
173	0xbf40348d	-0.75080186
174	0xbe6ea634	-0.23305589
175	0x3da965c3	0.08271363
176	0x3e4ce042	0.20007423
177	0x3e420684	0.18947798
178	0x3cf8265e	0.030291732
179	0x3b4346b6	0.0029796786
180	0xbc48c902	-0.012254955
181	0xbbcd6913	-0.0062686293
182	0x3d7103a4	0.058841363
183	0x3db1102c	0.08645663
184	0xbc15b157	-0.009136519
185	0x3c339739	0.010961347
186	0xbcc9dc1f	-0.024641095
187	0x3cce006e	0.02514669
188	0xbca59b5d	-0.020215685
189	0xbbf18a3f	-0.0073712165
190	0xbd06a710	-0.032874167
191	0xbda10dd9	-0.07863969
192	0x3dcbe1eb	0.099552
193	0x3d2004c7	0.039067056
194	0xbe458fe9	-0.19293179
195	0xbe7dacc4	-0.24772936
196	0xbdcc5c97	-0.099785976
197	0xbe899d36	-0.26877755
198	0x3e837a91	0.25679448
199	0x3e84eced	0.2596201
200	0x3e31319b	0.17304079
201	0x3e29b0de	0.16571376
202	0x3f37a588	0.71736956
203	0x3f38acf6	0.7213892
204	0xbe4c6920	-0.19961977
205	0xbda99b28	-0.08281547
206	0xbdac1c0e	-0.084037885
207	0xbdfbfdfd	-0.12304304
208	0x3d6d4f0f	0.057936724
209	0x3e11f112	0.14252117
210	0x3e05e425	0.13075311
211	0x3e2d0acc	0.1689865
212	0xbf520504	-0.82038903
213	0xc012b262	-2.2921376
214	0xbf1a549a	-0.6028534
215	0x3ea579e8	0.3231957
216	0xbf62ce05	-0.8859561
217	0xbf14e9d2	-0.5816928
218	0x3e44b0c9	0.19208063
219	0x3fa6f28a	1.3042767
220	0xbf77d67e	-0.96811664
221	0x3e3a605c	0.1820082
222	0xc015d02e	-2.3408313
223	0xbe048fe8	-0.12945521
224	0xbe69d393	-0.22834615
225	0x401b80d7	2.4297388
226	0x3ef68e21	0.4815531
227	0x3e0545a2	0.13014844
228	0xbd4e4b94	-0.050365046
229	0xbe83d8d1	-0.25751355
230	0x3e41117f	0.1885433
231	0xbdcf1aee	-0.10112558
232	0x3c1195c5	0.0088858055
233	0xbd262bc9	-0.0405691
234	0xbcb436ad	-0.021998728
235	0x3d85eb78	0.06539053
236	0xbd56f00c	-0.05247502
237	0xbd34a853	-0.04410584
238	0x3d49cbae	0.04926651
239	0xbd820125	-0.063478746
240	0x3c73625b	0.014854993
241	0x3c84c694	0.01620797
242	0xbc3adcf5	-0.011405219
243	0xbe17a8ca	-0.14810482
244	0x3dc4a5da	0.09601946
245	0xbd618e98	-0.05506763
246	0xbdfde2fa	-0.12396808
247	0x3e73dbe5	0.23814352
248	0xbc5755e7	-0.013143039
249	0xbd5d2284	-0.053987995
250	0x3ea1c2f8	0.31594062
251	0xbec4be59	-0.38426474
252	0xbcb48daa	-0.022040207
253	0x3ed6245e	0.4182462
254	0xbec945c0	-0.39311028
255	0x3ff8b79f	1.9431037

actor.latent_pi.0.bias f4 [256]
0	0x3dc96367	0.098334126
1	0xbd840c21	-0.06447626
2	0x3dc2c62e	0.09510456
3	0xbe8d5af5	-0.27608457
4	0x3dfc14ef	0.1230868
5	0x3e3af703	0.1825829
6	0xbead775d	-0.3388013
7	0xbda49994	-0.08037105
8	0x3d3c5ee6	0.04598894
9	0x3bd0843f	0.006363421
10	0x3eb3c73f	0.3511295
11	0xbe927c1d	-0.28610316
12	0xbe215c8b	-0.15757959
13	0xbe6e2951	-0.23257948
14	0x3da56b94	0.080771595
15	0x3d915f34	0.07098237
16	0xbe934107	-0.2876055
17	0xbe812e22	-0.2523051
18	0xbe450edc	-0.1924395
19	0xbd9992e5	-0.07498721
20	0x3bf50488	0.007477347
21	0xbe0489b0	-0.12943149
22	0xbd4d56a5	-0.05013146
23	0x3d46ac68	0.048504263
24	0xbe125839	-0.14291467
25	0x3dc91042	0.09817554
26	0xbe0d3107	-0.13788234
27	0xbe707080	-0.23480415
28	0xbee7804c	-0.4521507
29	0xbdbe3c3d	-0.09288833
30	0x3ca341a6	0.019928765
31	0xbe7938c5	-0.24338062
32	0x3e0f9f5b	0.14025633
33	0xbe0181b1	-0.1264713
34	0xbd0cc366	-0.034366034
35	0x3e0e2df4	0.13884717
36	0xbec7c23d	-0.3901538
37	0xbc88825f	-0.016663728
38	0xbc65e5ec	-0.014031868
39	0x3d255bbc	0.040370688
40	0x3b790a8e	0.0038000676
41	0xbcace67c	-0.021105997
42	0x3d426cd3	0.047467064
43	0xbe8dc1c3	-0.2768689
44	0xbd90ed01	-0.07076455
45	0xbe7896bd	-0.24276252
46	0xbe382635	-0.17983325
47	0xbc445a8a	-0.011984477
48	0x3cbe98a0	0.023266137
49	0xbe66bf77	-0.22533976
50	0xbea8ca3c	-0.32966793
51	0x3defa98b	0.1170226
52	0xbe5da3d9	-0.21644534
53	0xbdf9c4d8	-0.12195748
54	0xbe036d01	-0.1283455
55	0x3e82e745	0.2556707
56	0xbda88e9c	-0.082303256
57	0xbd97c662	-0.074108854
58	0xbd242bb4	-0.04008074
59	0x3c872776	0.016498309
60	0xbea68250	-0.32521296
61	0xbe34db17	-0.17661701
62	0xbcdc4729	-0.0268894
63	0xbea9268f	-0.3303723
64	0xbde2d85e	-0.11076425
65	0xbe7a9e75	-0.24474509
66	0xbb6811c7	-0.0035410987
67	0xbdee81d8	-0.116458595
68	0xbeae2b31	-0.34017327
69	0x3dd2902f	0.10281407
70	0x3de47ffc	0.111572236
71	0xbe28dc3d	-0.16490264
72	0x3c22a948	0.009928055
73	0xbd4fe0e8	-0.050751597
74	0xbe0dbfc3	-0.13842683
75	0xbd26c98b	-0.04071955
76	0xbdc5b060	-0.096527815
77	0xbe9946cb	-0.29936823
78	0xbe8ad671	-0.2711673
79	0xbd965adc	-0.07341549
80	0xbe545ffc	-0.2073974
81	0x3d7d6c83	0.061871063
82	0xbe0eeb1c	-0.13956875
83	0xbe546514	-0.20741683
84	0x3c0f6a16	0.00875332
85	0xbd075c70	-0.03304714
86	0x3e117153	0.14203386
87	0x3e79a069	0.24377598
88	0xbe629a51	-0.2212918
89	0xbd56d980	-0.052453518
90	0xbe0ffe41	-0.14061834
91	0xbe0567cd	-0.13027878
92	0xbd3b7c19	-0.045772646
93	0xbda9387c	-0.08262727
94	0xbdd09cd7	-0.10186165
95	0xbbd898cb	-0.006610011
96	0xbda4ff0a	-0.08056457
97	0xbdc7e629	-0.097606964
98	0xbdb8f2ec	-0.09030709
99	0x3dcbf571	0.099589236
100	0x3d7ce380	0.0617404
101	0xbeb37a55	-0.3505427
102	0xbe3abe02	-0.18236545
103	0xbbf06c97	-0.0073371637
104	0x3dc824ee	0.09772669
105	0xbea79573	-0.32731208
106	0xbda1e7a1	-0.07905508
107	0xbe76e891	-0.24112155
108	0x3d1bc04c	0.038025185
109	0x3d230f9c	0.039809808
110	0x3d729b98	0.059230417
111	0x3e625a8a	0.2210485
112	0xbe48b312	-0.1959956
113	0xbe5dfd1e	-0.21678588
114	0xbcff3072	-0.03115103
115	0xbd9bc7c0	-0.07606459
116	0xbe69ed9a	-0.22844544
117	0x3d027989	0.031854186
118	0xbd2d6d2a	-0.042340435
119	0x3dd44e55	0.10366503
120	0xbd3be15f	-0.045869227
121	0x3d81c31b	0.063360415
122	0xbd92718d	-0.07150564
123	0xbd0f3d24	-0.034970418
124	0xbe97a118	-0.29615092
125	0xbe0196b1	-0.1265514
126	0x3e906ada	0.2820652
127	0x3e90ad99	0.28257445
128	0xbd32082a	-0.043464817
129	0x3ca9ebef	0.020742385
130	0x3ce95dcf	0.028487114
131	0x3e873c65	0.26413265
132	0xbea0f578	-0.31437278
133	0xbd9d1297	-0.07669561
134	0x3de6ae0e	0.11263667
135	0x3ac04098	0.0014667688
136	0xbd9bc4fd	-0.07605932
137	0xbe026b33	-0.12736206
138	0xbdfa06c5	-0.122083224
139	0xbe70958e	-0.2349455
140	0x3e527660	0.20552969
141	0x3df2bc2f	0.118522994
142	0x3bf44eb4	0.007455671
143	0xbe1e2efd	-0.15447612
144	0x3d043927	0.032281067
145	0xbe80dbee	-0.25167793
146	0xbe4c0f80	-0.19927788
147	0x3cd295b5	0.025706152
148	0xbd4f78bd	-0.050652254
149	0xbe1d2e06	-0.15349588
150	0xbe539615	-0.2066272
151	0x3e4a7c4a	0.19773975
152	0x3d21f11b	0.039536577
153	0x3d409990	0.04702145
154	0xbdcc47aa	-0.09974606
155	0xbeb1812d	-0.34668866
156	0xbe77d91c	-0.24203914
157	0x3d82660e	0.06367122
158	0x3e4f2e91	0.20232607
159	0x3e926685	0.2859384
160	0xbe4d4414	-0.20045501
161	0xbe93eb80	-0.2889061
162	0x3db3bb5a	0.08775969
163	0xbed7abd1	-0.42123273
164	0xbbfd5b10	-0.0077318028
165	0xbdf5dd58	-0.120051086
166	0x3e747cb7	0.238757
167	0xbdd27767	-0.102766804
168	0x3d9802e8	0.07422429
169	0x3dfae994	0.12251583
170	0xbe1a1bed	-0.15049715
171	0x3df8621d	0.121280886
172	0xbb1ad759	-0.0023626892
173	0x3e31d948	0.17368042
174	0xbe5f8870	-0.2182939
175	0x3ca98246	0.020692002
176	0xbd9b42c2	-0.075810924
177	0xbe56350a	-0.2091867
178	0xbe8f4e44	-0.279894
179	0xbe30d1ed	-0.1726758
180	0xbe66ca6a	-0.22538152
181	0xbdab0934	-0.08351365
182	0xbddc6899	-0.10762138
183	0x3d94af4c	0.07259998
184	0xbe1d3bfa	-0.1535491
185	0xbe9fb11a	-0.31189805
186	0xbd1e2ca5	-0.038616795
187	0xbe83af72	-0.25719792
188	0x3c4bc1a4	0.012436304
189	0x3b3df2cc	0.002898383
190	0x3e05ce6e	0.13067028
191	0xbbdd489d	-0.006753041
192	0x3cba5b80	0.022748709
193	0xbc280907	-0.010256059
194	0xbe1a7a57	-0.15085731
195	0xbd38d18b	-0.04512171
196	0xbf12332b	-0.57109326
197	0xbe84a224	-0.25904953
198	0xbd108eae	-0.03529232
199	0x3e20f342	0.15717795
200	0xbe2abbb6	-0.16673169
201	0xbe76289f	-0.24038933
202	0xbd4df77d	-0.05028485
203	0xbd9eb000	-0.07748413
204	0x3def11ec	0.1167334
205	0xbde7b18c	-0.11313161
206	0x3e1f5997	0.1556152
207	0xbe700d6c	-0.2344262
208	0xbe24f3a2	-0.16108564
209	0xbd79ddb5	-0.061002452
210	0x3c88792b	0.01665934
211	0x3d962405	0.07331089
212	0x3da09a83	0.07841971
213	0x3e7a46dc	0.24441093
214	0xbe4347b4	-0.19070321
215	0xbe74166d	-0.2383668
216	0xbe7a07fe	-0.24417111
217	0xbe560f7d	-0.20904346
218	0x3d09339b	0.03349648
219	0xbe0e4d57	-0.1389669
220	0x3d8d25be	0.068919644
221	0x3d1acdfe	0.037794106
222	0xbd241a8c	-0.04006438
223	0xbd88e949	-0.066851206
224	0xbe122183	-0.14270596
225	0xbea79078	-0.32727408
226	0xbdac6959	-0.08418531
227	0xbe19d75a	-0.15023556
228	0x3e81c174	0.25342906
229	0xbe309262	-0.1724334
230	0x3e025ca9	0.1273066
231	0xbe6e5903	-0.23276143
232	0x3cc129ce	0.023579504
233	0xbe04fdf3	-0.12987499
234	0xbea90511	-0.33011678
235	0x3d776b27	0.060404923
236	0x3b8b91b0	0.0042593107
237	0xbcaf99ac	-0.021435581
238	0xbded0288	-0.115727484
239	0xbe66e06c	-0.22546548
240	0xbe1e908c	-0.15484828
241	0x3e17f6b9	0.14840211
242	0xbe4f5eba	-0.20250979
243	0xbdce2c5e	-0.10067056
244	0xbe33e7be	-0.17568871
245	0xbdc26db4	-0.094935805
246	0xbe624e95	-0.22100289
247	0xbe7bdba2	-0.24595502
248	0xbc981969	-0.018566804
249	0xbe84f2e7	-0.2596657
250	0xbe1741b6	-0.1477116
251	0xbe205478	-0.15657222
252	0xbd6af2d3	-0.05736048
253	0xbdf99930	-0.12187421
254	0xbca40352	-0.020021114
255	0x3dcc8ea7	0.09988146

actor.latent_pi.2.weight f4 [256, 256]
0	0x3e9326d1	0.28740552
1	0x3dd4a8cb	0.10383757
2	0xbe4b5824	-0.19857842
3	0xbe03c9c2	-0.12869933
4	0xbe911f97	-0.28344414
5	0xbcbca297	-0.023026748
6	0x3dced32b	0.10098871
7	0x3e2f700b	0.17132585
8	0xbf612f85	-0.87963134
9	0xbeacb78e	-0.3373379
10	0xbde57e3d	-0.11205719
11	0xbef54974	-0.47907603
12	0xbda2fed5	-0.079587616
13	0x3d3e7be7	0.04650488
14	0x3d839c45	0.064262904
15	0xbcf0f2bb	-0.029412618
16	0x3e825c53	0.25461063
17	0xbe24ddfb	-0.16100304
18	0xbeb8d36e	-0.36098808
19	0xbf482b44	-0.7819102
20	0x3eb56669	0.35429695
21	0xbf20fea3	-0.62888545
22	0xbe92dbac	-0.2868322
23	0xbe042f93	-0.12908773
24	0xbd736790	-0.059424937
25	0xbdfb0000	-0.122558594
26	0xbeb1e3ab	-0.3474401
27	0xbdba22de	-0.09088682
28	0xbf1d1249	-0.61356026
29	0x3cd066ba	0.025439609
30	0xbeb621ad	-0.35572568
31	0xbefcbeeb	-0.4936441
32	0xbe513997	-0.20432125
33	0x3da5f991	0.08104242
34	0x3eaae84c	0.33380353
35	0xbc3a359d	-0.011365321
36	0xbd5c9812	-0.053855963
37	0x3dc84d48	0.09780365
38	0xbe926679	-0.28593805
39	0x3c5a5144	0.013325039
40	0xbedfe8cc	-0.43732297
41	0xbf1e90b0	-0.61939526
42	0xbf1bfc6e	-0.6093205
43	0x3e824159	0.2544048
44	0x3dbaa14a	0.09112795
45	0xbd097bb6	-0.033565246
46	0x3dfc2018	0.12310809
47	0xbcc7e12e	-0.024399366
48	0x3e81946e	0.25308555
49	0xbf44e775	-0.76915675
50	0x3e622c8a	0.22087303
51	0x3dd1f6b4	0.10252133
52	0x3e47752d	0.19478293
53	0x3e81bf88	0.2534144
54	0xbdda0eb6	-0.10647337
55	0x3ee2cacd	0.4429535
56	0xbe4ae263	-0.19812922
57	0xbaa5e4f5	-0.0012656735
58	0xba32f129	-0.0006826097
59	0x3de0a6a3	0.109692834
60	0xbf80d3e4	-1.0064664
61	0xbe8c424b	-0.27394328
62	0x3ecc9ea2	0.39964777
63	0xbd015897	-0.031578626
64	0xbe61a017	-0.22033726
65	0xbdeeb4c9	-0.11655576
66	0x3e10b4e4	0.14131504
67	0xbf3177ad	-0.69323236
68	0x3dc11628	0.09428054
69	0xbe921dee	-0.2853846
70	0xbf28559f	-0.6575565
71	0xbe0f6546	-0.14003477
72	0xbf3ffe88	-0.7499776
73	0xbe9d2287	-0.30690405
74	0xbee24dbc	-0.44199932
75	0x3e514110	0.20434976
76	0x3ea6f319	0.32607344
77	0xbe15ed2a	-0.14641252
78	0xbd9d97a4	-0.07694939
79	0x3df23a02	0.1182747
80	0xbda21853	-0.07914796
81	0xbe158e6f	-0.14605115
82	0x3db8c2dc	0.090215415
83	0x3da0acfe	0.07845496
84	0x3e1b1c02	0.15147403
85	0x3e53aade	0.2067065
86	0xbea1f61a	-0.31633073
87	0xbe14883e	-0.14505097
88	0xbefae70c	-0.490044
89	0xbdb34ff8	-0.08755487
90	0x3d742c90	0.05961281
91	0xbefed135	-0.49768987
92	0x3de81f08	0.11334044
93	0xbf2bfdc1	-0.6718407
94	0x3c7b298e	0.015329732
95	0x3eaafa2d	0.33393994
96	0x3d562555	0.052281696
97	0xbe1c8b0b	-0.15287416
98	0xbe1aeb36	-0.15128788
99	0x3e805b32	0.25069577
100	0xbe56a164	-0.20960003
101	0xbe9c3c4e	-0.3051476
102	0xbdab4718	-0.083631694
103	0xbe2685f9	-0.16262044
104	0x3f257980	0.6463852
105	0x3b9bc80b	0.0047540716
106	0x3de212a1	0.110387094
107	0x3e976a01	0.29573062
108	0xbe2184a9	-0.15773262
109	0xbe2063e5	-0.15663107
110	0xbe4bd940	-0.19907093
111	0x3e336489	0.1751882
112	0xbefb710b	-0.49109682
113	0xbe653cb3	-0.22386436
114	0xbeb3c787	-0.35113165
115	0xbf606e39	-0.87668186
116	0xbf00220f	-0.5005197
117	0x3e21a240	0.1578455
118	0xbf98e32d	-1.1944329
119	0x3eb9706b	0.3621858
120	0xbf29e6a5	-0.6636756
121	0x3da2e7eb	0.07954391
122	0xbe1d9873	-0.15390186
123	0x3e46a8dd	0.19400354
124	0xbe09fb03	-0.1347466
125	0xbddeef2d	-0.10885463
126	0xbf02b76b	-0.51061124
127	0xbdade315	-0.08490578
128	0xbec7d77b	-0.39031586
129	0xbe8c8727	-0.27446863
130	0x3c3bee93	0.011470455
131	0x3e6abfff	0.22924803
132	0xbf1c81f1	-0.61135775
133	0xbda4cfb7	-0.08047431
134	0xbe6ab637	-0.22921072
135	0x3e5fc919	0.21854056
136	0xbe1cd9f1	-0.15317513
137	0xbd752db6	-0.059858046
138	0x3dd6d07f	0.10488986
139	0xbbf5ff2e	-0.0075072264
140	0x3f40dabb	0.75333756
141	0xbe4222e8	-0.18958628
142	0xbe1daccc	-0.15397948
143	0x3e79bb87	0.24387942
144	0xbe4341af	-0.19068025
145	0xbeb0d743	-0.34539232
146	0xbc8a62df	-0.016892849
147	0x3c9f0c72	0.019415114
148	0xbf59f7d0	-0.85143757
149	0x3e96da8a	0.29463607
150	0xbf0e7ceb	-0.5565936
151	0xbdc14fe2	-0.094390646
152	0x3c36e615	0.011163254
153	0xbf7d7903	-0.99012774
154	0xbd4ff101	-0.05076695
155	0xbf6ecb87	-0.9327931
156	0xbf8bfb16	-1.0936
157	0xbda20abb	-0.07912203
158	0x3e827d62	0.25486284
159	0x3e09b8b3	0.13449363
160	0xbde8bc9c	-0.113640994
161	0x3eb8287c	0.35968387
162	0xbf0072ea	-0.50175345
163	0xbe9779fc	-0.29585254
164	0x3e1a502c	0.15069646
165	0xbf0c01b8	-0.5469012
166	0xbee27414	-0.44229186
167	0x3e1c22be	0.15247628
168	0xbf0ad1fb	-0.54226655
169	0x3d8b1996	0.067919895
170	0xbee3f02a	-0.44519168
171	0xbdd07619	-0.10178775
172	0xbeaf24c3	-0.34207734
173	0x3dda9179	0.10672278
174	0x3dcde391	0.100531705
175	0xbe7f1a33	-0.24912338
176	0xbee96112	-0.4558187
177	0x3dbf2325	0.09332875
178	0x3e165de7	0.14684258
179	0x3e0440bf	0.12915324
180	0xbedad0c6	-0.42737406
181	0xbb0673ff	-0.0020515916
182	0xbea45979	-0.32099512
183	0x3d73610f	0.059418734
184	0x3da9492c	0.082659096
185	0xbe24ee12	-0.16106442
186	0x3e1e3a22	0.15451863
187	0x3d884f1c	0.06655714
188	0xbea9e5a1	-0.33183005
189	0x3c0a9295	0.008457799
190	0xbd3e6ff6	-0.046493493
191	0x3d6e51f5	0.05818363
192	0x3d25f8c7	0.040520456
193	0x3e26c0a5	0.16284426
194	0xbf84c0ed	-1.0371376
195	0x3f8d8c3b	1.105842
196	0x3dd15d4d	0.10222874
197	0x3dc851f3	0.097812556
198	0x3d4f80da	0.05065999
199	0xbef5892a	-0.4795621
200	0x3e9d013c	0.30665004
201	0x3e3618fa	0.17782965
202	0xbdb27cb8	-0.087151945
203	0xbf54cb3a	-0.831226
204	0x3e83a80f	0.25714156
205	0x3eba8a43	0.3643361
206	0xbe5a8493	-0.21339636
207	0x3e2d67a3	0.16934066
208	0xbe191dea	-0.14952818
209	0xbdeac8ae	-0.11464058
210	0x3e8e7441	0.2782307
211	0x3e50ce92	0.203913
212	0xbfb407a1	-1.4064828
213	0xbe1bb29e	-0.15204856
214	0x3de079b9	0.10960717
215	0xbea42ba8	-0.32064557
216	0xbd0efd19	-0.03490934
217	0x3e336937	0.17520605
218	0x3d951a0c	0.07280359
219	0x3c809be5	0.015699336
220	0xbf5a3243	-0.85232943
221	0x3d1c79a2	0.038201936
222	0x3edce5c6	0.43144053
223	0xbed4f8cb	-0.41596064
224	0x3eaf83b3	0.34280166
225	0xbdbff470	-0.09372795
226	0xbe4b338e	-0.19843885
227	0x3e927a0f	0.28608748
228	0xbe021a5c	-0.12705368
229	0xbdb62563	-0.0889385
230	0xbd7d69ce	-0.06186848
231	0xbf10e859	-0.56604534
232	0xbe570a15	-0.2099994
233	0xbec47d9e	-0.38377088
234	0xbe049ef4	-0.12951261
235	0xbd8867dd	-0.06660435
236	0x3da295b9	0.079387136
237	0xbe392b8b	-0.18083017
238	0xbf6ca337	-0.92436546
239	0xbd5f57c3	-0.054527055
240	0xbf352f25	-0.7077506
241	0xbe8ac7b7	-0.27105495
242	0xbef45fec	-0.47729433
243	0x3e2dec77	0.16984735
244	0x3e3e9906	0.18613061
245	0x3eb01c5e	0.34396642
246	0xbf6e0ee2	-0.9299146
247	0x3e9baa22	0.3040324
248	0x3d267d2c	0.040646717
249	0xbea7783b	-0.32708916
250	0xbe82d8b7	-0.25555965
251	0xbeaa1e68	-0.33226323
252	0xbd40ba16	-0.047052465
253	0x3e9e6ce9	0.30942467
254	0x3f15c054	0.58496594
255	0xbd0f5a77	-0.034998383

actor.latent_pi.2.bias f4 [256]
0	0xbe2c9fa8	-0.16857779
1	0x3e011401	0.12605287
2	0x3da33545	0.07969145
3	0xbd7cec78	-0.06174895
4	0xbee2f317	-0.44326088
5	0xbece6c85	-0.4031717
6	0x3e5ecb60	0.21757269
7	0xbf1e52e5	-0.61845237
8	0x3cdede83	0.027205711
9	0xbef26cce	-0.47348636
10	0xbe58e470	-0.21180892
11	0xbed1abf1	-0.40951493
12	0xbd25fe8c	-0.040525958
13	0xbf0496a8	-0.51792383
14	0xbe6f17f7	-0.23348986
15	0xbeecc42d	-0.4624342
16	0xbe9145a2	-0.28373438
17	0xbf1afe24	-0.6054404
18	0xbbbe9c54	-0.0058169756
19	0x3eb3a719	0.35088423
20	0xbda6a5a9	-0.08137066
21	0xbd64c78e	-0.055854373
22	0xbe114f90	-0.14190507
23	0xbf050009	-0.5195318
24	0xbcab7258	-0.020928547
25	0xbe38db95	-0.18052514
26	0xbf0989b7	-0.5372576
27	0xbdc896ec	-0.09794411
28	0xbf408505	-0.7520297
29	0xbe7a2920	-0.2442975
30	0xbf1c3d2a	-0.6103083
31	0xbd04f0aa	-0.032456078
32	0xbf2c41f5	-0.6728814
33	0xbd89117e	-0.066927895
34	0xbecac5a0	-0.396039
35	0xbf815b95	-1.0106074
36	0xbdc5b509	-0.0965367
37	0xbf35b690	-0.70981693
38	0xbf14f737	-0.5818972
39	0xbe314176	-0.17310128
40	0xbeab6ef1	-0.3348308
41	0xbf0285e0	-0.5098553
42	0xbf422ee1	-0.7585278
43	0x3e096145	0.13416012
44	0x3cecbf39	0.028899776
45	0xbed346b7	-0.4126489
46	0x3d0de8b5	0.034645755
47	0xbe06b1c4	-0.1315375
48	0xbee20752	-0.4414621
49	0xbe96b063	-0.29431447
50	0xbf2759a7	-0.65371174
51	0x3cc38ad2	0.023869906
52	0xbedc0177	-0.42969868
53	0xbe7d8efd	-0.24761577
54	0x3d54f35d	0.0519899
55	0x3e6cd3d1	0.23127677
56	0xbd25227a	-0.040316083
57	0x3eea6d0e	0.45786327
58	0xbcb64750	-0.022250801
59	0x3e8b39f8	0.27192664
60	0xbef17fd7	-0.47167847
61	0xbeed3b0d	-0.46334115
62	0xbec698ba	-0.38788396
63	0x3d849c2e	0.064751014
64	0xbed60ea7	-0.41808054
65	0xbf43ba41	-0.76456076
66	0xbe0328a1	-0.12808467
67	0xbf18a025	-0.5961936
68	0x3e9f5b44	0.31124318
69	0x3d7ac056	0.061218582
70	0xbdac36c2	-0.08408882
71	0x3e71bebc	0.23607916
72	0xbd04f306	-0.032458328
73	0xbf3fb3cd	-0.7488373
74	0x3eb19c17	0.346894
75	0xbeaab9d2	-0.33344895
76	0x3eaff7bb	0.3436869
77	0xbee09a02	-0.438675
78	0xbe8247e3	-0.2544547
79	0x3e8d8c1b	0.27645954
80	0xbe5a1fe0	-0.21301222
81	0xbf4c7276	-0.79862154
82	0xbe9f37ed	-0.31097355
83	0xbf5a90a1	-0.85376936
84	0xbf0d57c9	-0.55212075
85	0xbdacbf28	-0.08434898
86	0xbf2501e5	-0.64456016
87	0xbd341ae3	-0.043970954
88	0xbd88d877	-0.066819124
89	0xbf183df6	-0.59469545
90	0x3d8ee3ae	0.0697702
91	0xbeac28b7	-0.33624813
92	0xbf1b1198	-0.6057372
93	0x3c816827	0.015796734
94	0xbba86dbb	-0.005140034
95	0x3e1099eb	0.14121215
96	0xbf1d787a	-0.6151196
97	0x3ccff2bc	0.0253843
98	0xbf2124e9	-0.62946945
99	0xbf296dcb	-0.66183156
100	0xbc9fb2a5	-0.019494364
101	0x3de00949	0.10939271
102	0xbeac3aac	-0.33638513
103	0xbd8f29dd	-0.06990407
104	0xbd7c0715	-0.06153019
105	0xbd709737	-0.05873796
106	0xbf13297b	-0.5748517
107	0xbde66af3	-0.11250868
108	0xbe36207a	-0.17785826
109	0xbeaab872	-0.33343846
110	0xbe022114	-0.12707931
111	0xbf3b54da	-0.7317635
112	0x3e772c6c	0.2413804
113	0x3df8ce43	0.12148716
114	0xbcc32b41	-0.023824336
115	0xbe9185a2	-0.28422266
116	0xbf36c4e7	-0.713942
117	0xbd8658cb	-0.06559905
118	0xbeb2324d	-0.34804
119	0xbdc1e9a0	-0.094683886
120	0x3eb094eb	0.34488615
121	0x3cae0e24	0.021246977
122	0xbf49b6f2	-0.7879478
123	0xbe952bb7	-0.29134914
124	0xbe008b31	-0.12553097
125	0xbede5f8d	-0.43432274
126	0xbe7d672f	-0.24746393
127	0xbf225e1a	-0.6342484
128	0xbf1f2f47	-0.62181515
129	0xbe94f0fb	-0.29090104
130	0x3988251b	0.00025967587
131	0x3d48c706	0.04901793
132	0xbed7f002	-0.421753
133	0x3ec3893e	0.38190645
134	0xbed31c5e	-0.4123258
135	0xbd840a49	-0.06447274
136	0xbf2fd07d	-0.686775
137	0xbd810956	-0.06300609
138	0xbd0c79f1	-0.03429598
139	0xbf10b385	-0.56523925
140	0xbe02f710	-0.1278956
141	0xbea4888c	-0.32135427
142	0x3e6f5103	0.23370747
143	0x3ea7be68	0.32762456
144	0xbed1a8ea	-0.40949184
145	0x3d9603d0	0.07324946
146	0xbe0b4d2e	-0.1360366
147	0xbf0e372c	-0.55552936
148	0x3b97e0d1	0.0046349545
149	0xbf37b0b1	-0.71753985
150	0xbe8c1152	-0.27356964
151	0xbd1bb225	-0.03801169
152	0x3e7c77ca	0.24655071
153	0xbcd678ae	-0.026180591
154	0xbf177118	-0.5915694
155	0xbd63d619	-0.0556241
156	0xbe425de0	-0.18981123
157	0xbe1e6c46	-0.1547099
158	0x3b2a5f3a	0.00259967
159	0xbe4466f4	-0.19179899
160	0x3da93849	0.08262689
161	0xbf1dba01	-0.61611944
162	0xbe08d91b	-0.13364069
163	0xbea645ed	-0.32475224
164	0xbf844b3a	-1.0335457
165	0xbcaec8a8	-0.021335915
166	0xbe758dfa	-0.23979941
167	0xbe1ecb72	-0.15507296
168	0xbebdfbb0	-0.37106085
169	0xbecddd45	-0.40207878
170	0xbec78e13	-0.38975582
171	0x3e083de4	0.1330486
172	0xbdab372a	-0.08360131
173	0xbef4dc7c	-0.47824466
174	0xbec25938	-0.37958694
175	0xbf3776ce	-0.71665657
176	0x3d363065	0.044479746
177	0xbe9ab7b2	-0.30218273
178	0xbc853e70	-0.016265124
179	0xbdcf22ae	-0.101140365
180	0xbd89aa70	-0.067219615
181	0xbeb27e08	-0.3486178
182	0xbe9b632f	-0.3034911
183	0xbf065400	-0.52471924
184	0xbdf0d736	-0.11759798
185	0xbf4806ec	-0.7813556
186	0x3e27f1e2	0.16400865
187	0xbded959b	-0.116008006
188	0xbda5fa2c	-0.08104357
189	0xbebad074	-0.36487162
190	0xbe7d3764	-0.24728161
191	0xbea11a40	-0.3146534
192	0xbf51ef5f	-0.82005876
193	0xbdb9938c	-0.090613455
194	0xbeb46692	-0.35234505
195	0xbea8ab9f	-0.32943437
196	0xbf02ad84	-0.51046014
197	0xbd312709	-0.043250117
198	0x3d5ff09e	0.05467283
199	0xbe109c71	-0.14122178
200	0xbe5c0c62	-0.21489099
201	0x3c9d9f03	0.019240862
202	0x3ecedf8b	0.40404925
203	0xbba00386	-0.0048832325
204	0x3d7b6bc7	0.06138208
205	0xbe276805	-0.16348274
206	0x3e57386d	0.21017618
207	0x3e3bc28b	0.18335931
208	0x3df94fb4	0.12173405
209	0xbe0cba4b	-0.1374294
210	0xbee66f67	-0.45006868
211	0x3e489d43	0.1959124
212	0xbf04947f	-0.5178909
213	0xbde01066	-0.10940628
214	0xbe1613be	-0.14655969
215	0x3e5505e1	0.20803024
216	0xbdaa7872	-0.08323754
217	0xbedf7ef3	-0.43651542
218	0xbec97b3d	-0.39351836
219	0xbd99ab9e	-0.075034365
220	0xbea51fdc	-0.3225087
221	0xbf252dd2	-0.6452304
222	0xbecba0f8	-0.39771247
223	0x3e3f5771	0.186857
224	0x3bdd977a	0.006762442
225	0xbd557934	-0.05211754
226	0x3cce4241	0.025178077
227	0xbeb46f4e	-0.3524117
228	0x3e630d83	0.22173123
229	0x3ee5de28	0.44896054
230	0xbe1b3648	-0.15157425
231	0xbef87c11	-0.48532155
232	0xbf085f28	-0.53270197
233	0xbf00aa92	-0.5026027
234	0xbf36cee6	-0.7140945
235	0xbd6a2e21	-0.0571729
236	0x3cdca944	0.02693618
237	0xbc44935c	-0.011998024
238	0x3e9fd679	0.31218317
239	0x3e07839e	0.13233802
240	0xbe91f0d6	-0.28504056
241	0xbeb09cfe	-0.34494776
242	0xbf08645a	-0.53278124
243	0xbd2ed3f5	-0.042682607
244	0x3d5a041e	0.053226583
245	0x3ebc366e	0.36760277
246	0xbeb5c8df	-0.35504815
247	0xbecd29e3	-0.4007102
248	0xbea0a1cc	-0.3137344
249	0xbcd3dfbb	-0.025863519
250	0xbee9c58e	-0.45658535
251	0xbf19d716	-0.6009382
252	0xbee59b18	-0.4484489
253	0xbe124d8d	-0.14287396
254	0xbce95bc4	-0.02848614
255	0x3eb53931	0.35395196

actor.mu.weight f4 [12, 256]
0	0xbb0a422b	-0.0021096568
1	0xbddc5d6e	-0.10760008
2	0xbe769c80	-0.24083138
3	0x3ba55bee	0.0050463593
4	0xbf02408b	-0.50879735
5	0x3e89c9d1	0.26911786
6	0x3d7daedc	0.061934337
7	0xbea68ea3	-0.32530698
8	0xbce0c29f	-0.027436553
9	0xbcc0cfc0	-0.023536563
10	0xbe1ff0de	-0.15619227
11	0xbe822ff1	-0.254272
12	0x3d20fa93	0.039301466
13	0x3e850015	0.25976625
14	0xbf643545	-0.8914378
15	0x3d9911d3	0.07474103
16	0xbdba58e2	-0.09098984
17	0xbd24542d	-0.04011934
18	0xbc90f9fb	-0.017697325
19	0xbd05bd3b	-0.032651167
20	0x3d1f5935	0.038903434
21	0x3c0de9b8	0.00866168
22	0xbc983425	-0.018579552
23	0xbe9c9af2	-0.30586964
24	0xbce020db	-0.027359417
25	0x3f4564af	0.77106756
26	0x3e0dc342	0.13844016
27	0xbcc15891	-0.023601802
28	0xbe3cc4f9	-0.18434514
29	0xbdcf4573	-0.10120668
30	0x3dca436a	0.098761395
31	0xbd61e317	-0.05514821
32	0x3f2a0f3b	0.6642949
33	0xbbfd8d31	-0.0077377786
34	0xbd93c6eb	-0.07215675
35	0x3d9f0f99	0.07766647
36	0x3d3a2d49	0.045453344
37	0xbdc2ce72	-0.095120326
38	0xbd45996e	-0.048242025
39	0x3d8c4595	0.06849209
40	0x3f35ce25	0.71017677
41	0x3bc2c83e	0.005944281
42	0x3e5ee5a8	0.21767294
43	0xbda81ef0	-0.08209026
44	0xbcb3c476	-0.021944266
45	0xbd7c3634	-0.06157513
46	0xbe12e28a	-0.1434423
47	0xbe022923	-0.12711005
48	0xbd8dfacd	-0.06932602
49	0xbe23fe73	-0.16015033
50	0xbe2d9ddc	-0.1695475
51	0xbf08ebff	-0.534851
52	0x3dbb3114	0.0914022
53	0xbd2a3142	-0.041550882
54	0xbddbc2ed	-0.107305385
55	0x3df64c6a	0.120262936
56	0x3c7490b2	0.014927076
57	0x3e35de5a	0.17760602
58	0x3d111815	0.035423357
59	0x3e57aa23	0.21060996
60	0x3f5b72ab	0.85721844
61	0x3ed7d620	0.42155552
62	0x3ee0ddb5	0.4391915
63	0xbad86d5a	-0.0016512081
64	0x3e91e223	0.2849284
65	0xbd55b700	-0.052176476
66	0x3e21a19e	0.15784308
67	0x3ccefa0d	0.025265718
68	0x3e5a9dcf	0.21349262
69	0xbe6b7b30	-0.22996211
70	0x3e298298	0.16553724
71	0xbe493174	-0.19647771
72	0x3dbbabf2	0.09163655
73	0xbe58f2d7	-0.21186386
74	0x3d033d6d	0.032041002
75	0x3e721f58	0.23644769
76	0xbe0ddc97	-0.1385368
77	0x3e3cb1e4	0.18427235
78	0xbe2999b3	-0.16562538
79	0x3c946c23	0.01811797
80	0x3e10248e	0.14076445
81	0x3e91e0ad	0.28491727
82	0x3e7d2c1c	0.24723858
83	0x3e678a24	0.2261129
84	0x3dd28b06	0.10280423
85	0xbd41e1bd	-0.04733442
86	0x3e2b62f5	0.16736968
87	0x3e240f1f	0.16021393
88	0xbbd6774e	-0.006544984
89	0xbe7bd13d	-0.24591537
90	0xbb109661	-0.002206229
91	0x3e04ff45	0.12988003
92	0xbe7b2d36	-0.24528965
93	0x3de39e3c	0.11114165
94	0x3d2f35a9	0.042775784
95	0x3e5ecb4c	0.21757239
96	0xbe9ebb74	-0.3100239
97	0x3ec1af53	0.37829074
98	0xbed2e96d	-0.41193715
99	0xbd5987f4	-0.05310817
100	0xbc115d18	-0.008872293
101	0xbd222511	-0.03958613
102	0x3d822cdd	0.06356213
103	0xbd24f1e0	-0.040269732
104	0xbbb72529	-0.0055891466
105	0x3c705d3f	0.014670669
106	0x3e4446cf	0.19167636
107	0x3d7b20b9	0.061310504
108	0x3f200eb5	0.6252244
109	0x3c9f329f	0.019433318
110	0xbe595da0	-0.21227121
111	0xbe129e26	-0.14318141
112	0xbd8cc6c7	-0.06873851
113	0x3c198a20	0.0093713105
114	0x3d458791	0.04822499
115	0x3d22de7d	0.039762963
116	0xbe2db5ee	-0.16963932
117	0xbdcb953b	-0.09940573
118	0xbe0ae91a	-0.13565484
119	0x3ca3273d	0.019916171
120	0x3ead16ae	0.33806366
121	0x3e153e12	0.14574459
122	0x3ce6e41b	0.028184941
123	0xbd8d6c4c	-0.069054216
124	0xbe591097	-0.21197735
125	0xbdcd045a	-0.100105956
126	0x3c931da9	0.017958479
127	0x3e15c7ee	0.14627048
128	0x3d46826e	0.04846423
129	0xbf2c96ff	-0.674179
130	0xbe10ba2e	-0.14133522
131	0xbd6d8c5c	-0.057995185
132	0x3e3d5dc4	0.184928
133	0xbc899bb2	-0.016797874
134	0x3ea35983	0.3190423
135	0xbc4ad36e	-0.01237951
136	0xbe321513	-0.17390852
137	0x3d606edb	0.05479322
138	0xbda48e12	-0.0803491
139	0xbf03a29d	-0.51420003
140	0x3e03549b	0.12825243
141	0xbe8ca805	-0.2747194
142	0x3e0f4b25	0.13993509
143	0x3bd8493f	0.0066005285
144	0x3e63267e	0.22182652
145	0xbe66e3c4	-0.22547823
146	0x3ca93879	0.020656811
147	0xbd86a724	-0.06574848
148	0xbdd51b10	-0.104055524
149	0xbe9511a2	-0.29115015
150	0xbef90c61	-0.48642257
151	0xbf3c1f3c	-0.7348516
152	0x3cb4fefb	0.02209424
153	0xbe5d1125	-0.21588571
154	0xbde70726	-0.1128066
155	0xbb57bdec	-0.0032919599
156	0x3d4e7009	0.050399814
157	0x3e673f01	0.22582628
158	0x3e460176	0.19336495
159	0x3ca6de1b	0.02036958
160	0xbde5e848	-0.11225945
161	0x3e79914d	0.24371834
162	0x3d8c7469	0.06858141
163	0xbed5db2b	-0.41768774
164	0x3ea7a9c4	0.32746708
165	0xbdc679dc	-0.096912116
166	0xbe30813b	-0.17236798
167	0x3eb80346	0.35939997
168	0x3e5c0ca0	0.21489191
169	0x3c2730ca	0.010204503
170	0x3cbed2dc	0.023293905
171	0xbd0508c1	-0.03247905
172	0xbc169d14	-0.009192724
173	0x3e147262	0.14496759
174	0xbd68a353	-0.056796383
175	0x3e13f175	0.14447577
176	0x3d8e3eef	0.069455974
177	0xbd8bfaed	-0.0683497
178	0x3da418f2	0.080125704
179	0x3d44a02e	0.04800432
180	0x3e13521d	0.14386792
181	0xbc99669e	-0.01872569
182	0xbd50f5e8	-0.051015764
183	0xbe425606	-0.18978128
184	0xbd4e1e0f	-0.050321635
185	0xbe121eb5	-0.14269526
186	0x3cdb6c9d	0.02678519
187	0xbec1c1be	-0.37843126
188	0xbc32057e	-0.010865567
189	0x3e318dbb	0.17339222
190	0x3f0ac45c	0.5420587
191	0x3da894b5	0.082314886
192	0xbde2b5c6	-0.11069827
193	0xbe24a927	-0.16080151
194	0xbd40e895	-0.047096808
195	0x3e0b929c	0.13630146
196	0xbee3f1b8	-0.44520354
197	0xbcc0b5cd	-0.02352419
198	0xbe03fdeb	-0.12889831
199	0xbe888fcc	-0.26672208
200	0x3e33e446	0.17567548
201	0x3e11279e	0.14175269
202	0x3d70e392	0.058810778
203	0x3cefde6c	0.029280864
204	0x3e06b71c	0.13155788
205	0xbd86d469	-0.06583483
206	0xbcfdec6b	-0.030996522
207	0x3e03bf35	0.12865908
208	0xbdc52981	-0.09627057
209	0x3d9ab0e5	0.07553271
210	0xbddc45be	-0.1075549
211	0xbdc8eca9	-0.09810764
212	0x3e0ba8fb	0.1363868
213	0xbed731bd	-0.42030135
214	0xbf1f0476	-0.6211618
215	0x3cdfe2bf	0.0273298
216	0xbd8fd2cd	-0.07022629
217	0x3de57248	0.11203438
218	0xbde2744f	-0.1105734
219	0xbcefe33c	-0.029283158
220	0x3e270f23	0.16314368
221	0xbdd0bb2b	-0.101919495
222	0x3eeba73b	0.46026024
223	0xbbd4c66c	-0.0064933803
224	0xbc965fed	-0.018356288
225	0xbbcd2cba	-0.0062614353
226	0x3c62a1ab	0.01383249
227	0xbe8ba77e	-0.27276224
228	0xbcb5c5dd	-0.022189075
229	0x3d090e3f	0.03346085
230	0xbdc6d760	-0.09709048
231	0xbda3540b	-0.07975014
232	0xbe9fdd2a	-0.31223422
233	0x3ee3a59f	0.44462296
234	0x3ea45eb7	0.32103512
235	0xbc57920b	-0.013157378
236	0xbd38bc4f	-0.04510146
237	0xbd8842f8	-0.06653398
238	0xbe1ca4d6	-0.15297255
239	0xbe27895b	-0.1636099
240	0x3f27ea36	0.6559175
241	0x3df2db39	0.1185822
242	0x3dc3d015	0.09561173
243	0xbbe7ead1	-0.007077553
244	0x3d36b450	0.044605553
245	0x3e0f7d58	0.14012659
246	0x3e513290	0.20429444
247	0xbe68b9b1	-0.22727086
248	0x3e3d2259	0.18470134
249	0xbcbc0cac	-0.022955261
250	0x3da42d2d	0.08016429
251	0xbe9745ff	-0.2954559
252	0x3e7433bf	0.23847865
253	0x3c7f876d	0.015596253
254	0xbc10181b	-0.00879481
255	0x3e68cc48	0.22734177

actor.mu.bias f4 [12]
0	0x3e14508e	0.14483854
1	0x3df40da7	0.119166665
2	0xbeca4a26	-0.39509696
3	0xbccc6852	-0.024952088
4	0x3e2e2bde	0.17008922
5	0xbe4fc7af	-0.20291017
6	0xbd40332d	-0.046923805
7	0x3cd6c06e	0.026214805
8	0xbdec4907	-0.11537366
9	0xbdbfbf53	-0.09362664
10	0x3d0e81fd	0.034791935
11	0xbe6f1653	-0.2334836

actor.log_std.weight f4 [12, 256]
0	0x3d495660	0.04915464
1	0xbe07816b	-0.13232963
2	0xbe3da442	-0.1851969
3	0x3ccfada9	0.025351362
4	0xbd3a6ba4	-0.04551281
5	0x3e867c67	0.26266786
6	0xbc2a7941	-0.010404886
7	0x3dd14610	0.102184415
8	0x3d077e8e	0.033079676
9	0x3f05fbb9	0.52337223
10	0x3bd5fd51	0.006530442
11	0x3d5d5985	0.05404045
12	0x3da8a9f7	0.08235543
13	0x3dbf641d	0.09345267
14	0xbfcd0195	-1.6016108
15	0x3d8f34e2	0.069925085
16	0xbdbdc589	-0.092661925
17	0xbcb5f53d	-0.022211665
18	0xbdf7d566	-0.121012494
19	0x3e163770	0.14669585
20	0x3d5f3120	0.05449021
21	0xbdb99481	-0.09061528
22	0xbc64af2e	-0.013957782
23	0x3e830459	0.25589254
24	0xbcef3bb3	-0.029203271
25	0x3ee75a4a	0.45186073
26	0x3eb99095	0.3624312
27	0xbd1bd7f1	-0.038047735
28	0xbda10a2e	-0.0786327
29	0xbca5dca7	-0.020246817
30	0x3ed2c802	0.4116822
31	0xbbd2db9a	-0.00643487
32	0x3ed4746d	0.41495076
33	0xbc2b04d7	-0.010438166
34	0x3cbd6467	0.023119165
35	0xb9a32a30	-0.00031121215
36	0x3ae46a82	0.0017426761
37	0xbcaa2a41	-0.020772101
38	0xbd247c1d	-0.040157426
39	0x3b92ba21	0.0044777547
40	0xbf156204	-0.58352685
41	0xbbbccb29	-0.0057615233
42	0x3e213a10	0.15744805
43	0x3d2218c8	0.039574414
44	0xbcfd2acf	-0.030904202
45	0x3dca5151	0.09878791
46	0x3c510f0f	0.012759938
47	0x3bfa6374	0.0076412503
48	0xbd54f42c	-0.051990673
49	0x3c8254d1	0.015909584
50	0xbca14956	-0.01968829
51	0xbf1127ad	-0.56701165
52	0xbcb4eb69	-0.022084909
53	0xbd90914f	-0.070589654
54	0xbe3c8035	-0.18408282
55	0x3d7aef7c	0.061263546
56	0xbbddc8c0	-0.006768316
57	0x3dc2de5b	0.09515067
58	0x3c92806c	0.017883502
59	0x3cceeb7a	0.025258768
60	0x3f943e36	1.1581485
61	0x3e811234	0.252092
62	0x3dd21734	0.10258332
63	0x3cab93d9	0.020944523
64	0x3d8000a1	0.0625012
65	0x3d3e3ad9	0.04644284
66	0x3e601e3e	0.21886536
67	0x3d0dd280	0.034624577
68	0x3dd2bc66	0.102898404
69	0xbe081c76	-0.13292107
70	0x3dec91b8	0.11551231
71	0xbe3f2412	-0.18666103
72	0x3d6d0dfa	0.057874657
73	0xbc08b6a5	-0.008344327
74	0x3c0636bb	0.00819176
75	0x3c547a66	0.012968635
76	0x3dab0c18	0.08351916
77	0xbabdb64e	-0.0014473887
78	0xbd690205	-0.05688669
79	0xbb9a998c	-0.0047180112
80	0x3e4404a3	0.19142394
81	0x3d6a1fcd	0.057159234
82	0x3e3b8c51	0.18315245
83	0x3d7ec74d	0.062201787
84	0x3de01554	0.10941568
85	0x3b49d66c	0.0030797971
86	0x3de37105	0.11105541
87	0x3dd28e4d	0.10281048
88	0xbd523106	-0.051316284
89	0x3c8c37bd	0.017116422
90	0xbdd9fcf4	-0.1064395
91	0x3b8085e5	0.0039222115
92	0xbdd7231c	-0.105047435
93	0x3cd450a5	0.02591736
94	0x3d1be88b	0.038063567
95	0x3c95f23b	0.018303981
96	0xbd8702fd	-0.06592367
97	0x3e896c47	0.26840422
98	0x3d347d14	0.044064596
99	0x3d1ee89e	0.03879606
100	0x3d2ba5ef	0.041906293
101	0xbd14c6ab	-0.036322277
102	0xbc22e794	-0.009942908
103	0x3c1915fd	0.009343621
104	0x3b95e366	0.004574227
105	0xbcdb8ed3	-0.026801502
106	0x3dc3165c	0.09525749
107	0x3ce715cd	0.028208638
108	0x3e3714f4	0.17879087
109	0x3dbd4ec8	0.09243542
110	0x3e0e13de	0.13874766
111	0xbce451de	-0.027871069
112	0x3e4d6fe5	0.20062216
113	0x3bd221ce	0.0064127212
114	0x3d8c5dbe	0.068538174
115	0x3d608077	0.054810014
116	0x3d9e200b	0.077209555
117	0xbe9aaa8e	-0.30208248
118	0x395f1ba3	0.00021277233
119	0x3d1d602b	0.03842179
120	0x3e64be5b	0.2233824
121	0xbd8eb8c2	-0.069688335
122	0xbd84dbed	-0.0648726
123	0x3e33aed1	0.17547156
124	0xbd10c5de	-0.03534495
125	0xbc6722c5	-0.014107411
126	0x3ca8ac40	0.020589948
127	0x3cbc2524	0.022966929
128	0xbd5710be	-0.0525062
129	0x3e7b5332	0.24543455
130	0x3d709585	0.058736343
131	0xbdcde448	-0.10053307
132	0x3dcd9c3c	0.10039565
133	0x3e4fc835	0.20291217
134	0xbcbda228	-0.023148611
135	0x3d11064d	0.0354064
136	0xbd7a29f2	-0.06107516
137	0xbc933a24	-0.01797206
138	0xbde6f46b	-0.11277088
139	0x3eeb0f38	0.45910048
140	0x3d4be1df	0.049775954
141	0xbe41733e	-0.18891618
142	0x3cdbb1ae	0.026818123
143	0xbd047688	-0.032339603
144	0x3c1f802c	0.009735148
145	0xbd1b706c	-0.03794901
146	0x3c67913b	0.014133747
147	0x3cac90f9	0.021065222
148	0x3d0348c8	0.03205183
149	0x3ccabf52	0.024749432
150	0xbe3879fc	-0.18015283
151	0xbf884f46	-1.0649192
152	0x3df8ce76	0.12148754
153	0xbdb83297	-0.08994024
154	0x3d738844	0.059456125
155	0xbd0e4b97	-0.034740057
156	0x3d0e7673	0.03478093
157	0x3e2d5ece	0.16930696
158	0x3e41a052	0.18908814
159	0x3acca91e	0.0015614366
160	0xbd4a77cc	-0.049430653
161	0x3db7055b	0.08936568
162	0x393d2f17	0.00018041987
163	0x3e0c22c3	0.13685136
164	0x3e4556df	0.1927142
165	0x3f1a89a9	0.603663
166	0x3d43be00	0.04778862
167	0x3efce68c	0.49394643
168	0x3de8136b	0.11331829
169	0xbd8c2a4a	-0.068440035
170	0x3e08afaa	0.1334826
171	0xbd88d211	-0.06680692
172	0xbc403df4	-0.011733521
173	0xbd2fc070	-0.042908132
174	0xbd3bfe06	-0.045896553
175	0x3ba0c95b	0.004906816
176	0xbd4ebec7	-0.05047491
177	0xbdea9a5f	-0.11455225
178	0x3c3eff79	0.011657589
179	0x3d5fb012	0.054611273
180	0x3e60b5d0	0.21944356
181	0x3d10b80b	0.035331767
182	0x3e01dd37	0.12682043
183	0xbdb96ab3	-0.090535544
184	0x3e2f9e9e	0.17150351
185	0x3d6adc12	0.05733878
186	0xbc7e1a34	-0.015509177
187	0x3e42784b	0.189912
188	0x3b086d63	0.0020817153
189	0x3e17145f	0.14753865
190	0x3e94e8a0	0.2908373
191	0xbd022eda	-0.031782962
192	0xbd83735c	-0.064184874
193	0xbcb24fed	-0.021766627
194	0x3d1a2e70	0.037641943
195	0x3db48f6b	0.08816417
196	0xbdcadc5a	-0.0990531
197	0xbd027b5b	-0.031855922
198	0x3d038db1	0.03211755
199	0x3df0e999	0.11763305
200	0xbcc1051e	-0.02356201
201	0x3d554e6e	0.05207675
202	0x3dadd788	0.08488375
203	0x3d22f80e	0.039787345
204	0xbe433b2e	-0.19065544
205	0xbd7b0924	-0.061288014
206	0xbd8cfec9	-0.06884534
207	0xbd05c081	-0.03265429
208	0x3b86b837	0.0041113156
209	0x3c9faef9	0.019492613
210	0xbbd0b72f	-0.0063694934
211	0xbc61e9b6	-0.013788631
212	0x3d8578f8	0.065172136
213	0xbe73070a	-0.23733154
214	0x3e93eef6	0.2889325
215	0x3ce03124	0.027367182
216	0xbbcb3667	-0.0062015536
217	0x3d64bad9	0.055842254
218	0xb8108248	-3.445361e-05
219	0x3ce5767e	0.028010603
220	0x3de211f7	0.11038583
221	0xbafa5fe9	-0.001910207
222	0x3fd937e3	1.697018
223	0x3dff6c05	0.12471775
224	0xbc7a2172	-0.015266763
225	0xbc077f43	-0.008270088
226	0xbe1be8b6	-0.15225491
227	0xbd57c9fd	-0.052682865
228	0x3c1a6c0d	0.009425175
229	0x3c991489	0.01868655
230	0xbd0b0c30	-0.03394717
231	0x3de60fa0	0.11233449
232	0xbd8bd05b	-0.0682685
233	0x3d3751b3	0.04475565
234	0x3dfbcc74	0.12294856
235	0x3d3791bd	0.04481672
236	0xbc97cb4d	-0.018529559
237	0xbe43d4b3	-0.19124107
238	0x3e3defe6	0.18548545
239	0xbd3cd9be	-0.046106093
240	0x3cc6648c	0.024217866
241	0x3e606b59	0.2191595
242	0x3c0dceff	0.008655309
243	0xbcb709c2	-0.02234352
244	0xbe42aaf8	-0.19010532
245	0x3d5005c8	0.050786763
246	0xbde7a471	-0.113106616
247	0xbdd3d14e	-0.10342656
248	0xbc0ba4d0	-0.008523181
249	0x3ccad5b2	0.024760101
250	0x3cf62686	0.030047666
251	0xbd0df0f1	-0.034653608
252	0xbc0ee218	-0.008720897
253	0xbd4a29dc	-0.049356326
254	0xbcb46d13	-0.022024667
255	0x3e350979	0.17679395

actor.log_std.bias f4 [12]
0	0xc0064d20	-2.0984573
1	0xc00b3eae	-2.1757007
2	0xc0110353	-2.265828
3	0xc00fd455	-2.2473347
4	0xc0165ac8	-2.3492908
5	0xc010f423	-2.264901
6	0xc00ff2a8	-2.2491856
7	0xc01f8c62	-2.4929433
8	0xc0223b8d	-2.5348847
9	0xc01844c0	-2.3791962
10	0xc00e535b	-2.2238376
11	0xc0163273	-2.3468292
